models/save/qoar_mappo_reward.pth (torch, 997941 bytes, 33 tensors)

net.layers.0.weight f4 [128, 131]
-0.16807875 -0.11630654 -0.07590469 -0.15234023 -0.16426785 0.0051879133 -0.02814444 -0.091630965
-0.1640733 -0.12306094 -0.12433584 -0.09233473 -0.09989147 0.013200226 -0.09558635 -0.16127613
-0.17309624 -0.053344954 -0.008519413 -0.06002195 -0.10737261 -0.17650595 -0.029570831 -0.17002289
-0.15602948 -0.17033665 -0.0028999601 0.12427923 -0.054545376 0.023521317 -0.17519963 -0.121269695
-0.15552457 -0.024600923 0.07788813 -0.06290403 0.024503257 -0.06499515 0.0117763495 0.044551052
-0.03642809 -0.06845465 0.08336402 -0.005649387 -0.013524527 -0.07362761 -0.02888349 0.0714864
-0.04797201 -0.05129023 0.006929956 0.05552865 0.008782432 0.03803674 0.06924927 -0.041996215
-0.051418517 0.03130673 -0.06302766 -0.061805278 0.018665321 0.029984 0.056590494 -0.029431557
0.076446824 0.03459051 -0.013252662 -0.06630457 -0.08873394 -0.14866544 0.0037565613 -0.022141397
-0.062317442 0.029693505 -0.087752305 -0.0833771 0.07271737 0.06610922 -0.054553453 -0.032645926
-0.019599413 0.026791649 0.041167367 0.014455962 -0.013999108 0.074180126 0.053956762 -0.10196789
-0.10934395 0.06102164 0.06907759 -0.06127681 0.0547816 -0.04525692 -0.072520845 -0.062952094
0.022924079 -0.059659798 -0.020640755 0.056488223 -0.04899838 -0.08438716 0.07224141 -0.06317769
-0.096902505 -0.0647162 -0.0712046 -0.04497825 -0.041345444 -0.04402467 -0.034178536 -0.12798265
-0.03509517 -0.047558468 -0.08100895 -0.068488225 0.026341487 0.05945974 0.030110586 -0.061722673
0.049973145 0.016433736 0.072335295 0.03334832 0.06321525 -0.0047358344 -0.05601294 0.08340443
-0.119117826 -0.055636942 -0.1516021 1.0937862 1.4769933 1.9947131 1.4928523 1.3971846
-0.044246465 0.7875453 1.4562938 1.7527881 1.5484219 1.4259149 1.7666193 1.4203782
1.2310175 1.7153729 1.4009713 1.5120459 1.4983833 0.07345068 1.1554643 1.2446681
1.1204413 1.5229517 1.1297603 1.0003641 1.1835871 -0.020227406 1.0514374 1.3788034
-0.0018063366 1.4255792 1.3656054 1.3954773 -0.009674592 0.05313955 -0.008390242 0.033272807
-0.061888736 0.080073215 -0.08124957 -0.08105543 -0.021287119 0.015156999 0.023973886 0.045810666
0.06934608 -0.06163577 -0.017855382 0.03116056 0.002641378 0.08053687 -0.022969168 -0.021646772
-0.084278636 -0.0167573 1.2097896 -0.07988823 0.05639639 0.021358725 0.07340943 0.0016491583
0.05553594 -0.050576393 -0.0148122925 1.4050783 1.6053725 1.6579278 0.8655176 1.503028
0.93141675 0.6273053 1.6514065 1.8348541 1.445074 1.1573384 0.9421969 1.3812513
1.3230393 1.3914546 1.264768 1.0957533 1.094448 1.2710692 1.7593006 1.3795382
1.3388507 0.9015599 1.2405206 0.8906922 1.431997 0.16338225 0.9467007 1.6168323
-0.013667354 0.95624447 1.8756123 1.3632171 0.24471545 0.4241733 0.43691924 0.014115209
0.43842828 0.22371876 0.12710738 0.36776808 0.13174504 0.26445886 0.23338932 0.1664234
0.29346627 0.21914063 0.436833 0.14278863 0.24339311 0.17846344 0.032561675 0.291648
0.54043955 0.21943597 0.9864441 0.56356955 0.31901804 0.40499914 -0.038840733 0.2570463
00000000: d61c 2cbe 2032 eebd eb73 9bbd 14ff 1bbe
00000010: d535 28be 5fff a93b 2b8f e6bc 04a9 bbbd
00000020: d502 28be 6007 fcbd caa3 febd fe19 bdbd
00000030: e693 ccbd c345 583c c7c2 c3bd 9225 25be
00000040: 2440 31be 3d80 5abd 0295 0bbc 94d9 75bd
00000050: 2ce6 dbbd fabd 34be 873e f2bc 7b1a 2ebe
00000060: 31c6 1fbe bb6c 2ebe 420d 3ebb 1c86 fe3d
00000070: f96a 5fbd c7af c03c 8867 33be 3f5c f8bd
00000080: d541 1fbe e087 c9bc d083 9f3d d4d3 80bd
00000090: 0ebb c83c 2d1c 85bd 97f1 403c 2a7b 363d
000000a0: 9f35 15bd f431 8cbd c1ba aa3d 7e1e b9bb
000000b0: fa95 5dbc 13ca 96bd 129d ecbc 7667 923d
000000c0: 4c7e 44bd b415 52bd af14 e33b 0272 633d
000000d0: 31e4 0f3c 6acc 1b3d 90d2 8d3d 3904 2cbd
000000e0: 399c 52bd 7c3b 003d a514 81bd 8827 7dbd
000000f0: 04e8 983c 01a1 f53c 6fcb 673d 731a f1bc
00000100: 2790 9c3d c7ae 0d3d b121 59bc b1ca 87bd
00000110: 24ba b5bd c13b 18be a430 763b e061 b5bc
00000120: 9340 7fbd cb3f f33c 7bb7 b3bd 9dc1 aabd
00000130: d8ec 943d 4564 873d 7173 5fbd bcb7 05bd
00000140: f38e a0bc 297a db3c 1d9f 283d b3d8 6c3c
00000150: 845c 65bc c0eb 973d c401 5d3d 8bd4 d0bd
00000160: b9ef dfbd d4f1 793d 8d78 8d3d 64fd 7abd
00000170: ac62 603d 525f 39bd cf85 94bd 07ed 80bd
00000180: 47cb bb3c d55d 74bd cd16 a9bc 3260 673d
00000190: 86b2 48bd 2dd3 acbd 4ef3 933d 4e63 81bd
000001a0: d274 c6bd ed89 84bd b8d3 91bd 1d3b 38bd
000001b0: d759 29bd 3653 34bd cbfe 0bbd e20d 03be
000001c0: f4bf 0fbd abcc 42bd 05e8 a5bd 8e43 8cbd
000001d0: 1aca d73c 0e8c 733d 7aaa f63c ead0 7cbd
000001e0: a4b0 4c3d 0ba0 863c 8724 943d 3f98 083d
000001f0: ff76 813d 0f2f 9bbb d36d 65bd f1cf aa3d
00000200: 0cf4 f3bd 90e3 63bd 953d 1bbe 3001 8c3f
00000210: 1e0e bd3f c252 ff3f c915 bf3f f2d6 b23f
00000220: c83b 35bd 929c 493f d667 ba3f 5c5b e03f
00000230: b032 c63f 6184 b63f 9520 e23f f4ce b53f
00000240: fb91 9d3f 5791 db3f 0753 b33f b88a c13f
00000250: 06cb bf3f 4f6d 963d 41e6 933f 4951 9f3f
00000260: 9f6a 8f3f 15f0 c23f fc9b 903f ee0b 803f
00000270: c87f 973f f2b3 a5bc 8095 863f a17c b03f
00000280: 99c2 ecba 6179 b63f 28cc ae3f 009f b23f
00000290: 2e82 1ebc dba8 593d 3a77 09bc 1149 083d
000002a0: 0b7f 7dbd 6dfd a33d 2d66 a6bd 6400 a6bd
000002b0: 5362 aebc 1055 783c e264 c43c f7a3 3b3d
000002c0: 5105 8e3d ca75 7cbd 7345 92bc 6e44 ff3c
000002d0: f81a 2d3b 84f0 a43d d629 bcbc 9254 b1bc
000002e0: 479a acbd 9b46 89bc 63da 9a3f 719c a3bd
000002f0: e7ff 663d 7ef8 ae3c af57 963d 9228 d83a
00000300: a779 633d 3129 4fbd 42af 72bc 9bd9 b33f
00000310: d97c cd3f fa36 d43f 9092 5d3f 3963 c03f
00000320: 5471 6e3f 1597 203f 4a61 d33f 80dc ea3f
00000330: 2ff8 b83f aa23 943f d133 713f d8cc b03f
00000340: 5a59 a93f 2f1b b23f ebe3 a13f a541 8c3f
00000350: df16 8c3f 65b2 a23f c330 e13f b594 b03f
00000360: 765f ab3f a1cc 663f 61c9 9e3f 6704 643f
00000370: ad4b b73f ad4d 273e fa5a 723f 5cf4 ce3f
00000380: 0aed 5fbc 70cc 743f 1014 f03f e67d ae3f
00000390: b096 7a3e 3e2d d93e e1b3 df3e 7a43 673c
000003a0: ac79 e03e 8816 653e 7028 023e 194c bc3e
000003b0: 2ce8 063e 2767 873e 9cfd 6e3e e56a 2a3e
000003c0: 3641 963e 6766 603e 93a8 df3e 2f37 123e
000003d0: 0b3c 793e 1fbf 363e 645f 053d e352 953e
000003e0: 3f5a 0a3f d3b3 603e 9a87 7c3f 1846 103f
000003f0: 5556 a33e 0c5c cf3e 7617 1fbd 939b 833e

net.layers.0.bias f4 [128]
-0.04229709 2.1884131 -0.10740401 2.1916227 2.209776 2.051013 2.0624754 2.2575905
-0.08152125 2.1221507 2.044558 -0.12464273 2.083408 2.2782786 2.2349997 2.1892037
2.225188 2.4867504 2.5200303 1.7101606 1.907012 2.132297 1.8765373 2.2985482
1.9872706 -0.07146151 -0.13518244 2.0010142 1.908271 -0.09626295 2.2321737 2.083027
-0.08653215 2.686711 1.942426 2.0155578 2.5977814 -0.067411974 2.0834131 1.9833838
-0.055787105 2.3815618 1.1211922 2.2599902 2.129945 2.0689611 2.6460736 2.3247366
2.2114677 2.357806 2.0891993 2.230834 1.9743092 2.0057676 2.1725268 1.891817
1.9411559 -0.11813459 2.1497297 2.290265 2.0859566 -0.07657124 2.3497057 1.9726037
2.031042 2.2353985 2.288085 2.2490122 2.212464 -0.13883677 2.3633804 1.8312949
2.452912 2.0704043 2.2205732 2.382926 -0.12380891 1.9036039 2.175173 -0.008020899
2.3107195 2.103021 2.1829545 2.1270473 2.3050487 -0.15833198 2.7994764 -0.07684253
2.2406652 1.9403045 1.8307046 2.148576 2.4503787 2.4506087 2.556153 2.4922147
2.1428447 2.1543033 1.9839065 1.7823873 2.3696747 2.4042578 2.2067058 2.4180164
2.0423126 2.2596571 -0.16217707 2.3713014 2.1128025 2.2066147 2.2793283 1.7849253
2.1274781 2.425771 2.1868382 2.6465604 2.0692427 1.5535673 2.2324173 2.0958078
2.2929127 1.9625016 2.0600595 2.162787 2.0766292 2.4438007 2.1521344 2.2534294
00000000: b73f 2dbd f60e 0c40 a2f6 dbbd 8c43 0c40
00000010: f86c 0d40 cc43 0340 99ff 0340 5d7c 1040
00000020: 9df4 a6bd 51d1 0740 0ada 0240 b044 ffbd
00000030: 8f56 0540 51cf 1140 3c0a 0f40 ea1b 0c40
00000040: 7b69 0e40 eb26 1f40 2d48 2140 8be6 da3f
00000050: f818 f43f 8e77 0840 6032 f03f 6a1b 1340
00000060: e25e fe3f 6a5a 92bd 446d 0abe 9e10 0040
00000070: 3942 f43f 8225 c5bd efdb 0e40 5050 0540
00000080: c537 b1bd 13f3 2b40 6aa1 f83f e6fe 0040
00000090: 0d42 2640 4a0f 8abd a456 0540 85df fd3f
000000a0: 0581 64bd 826b 1840 3a83 8f3f aea3 1040
000000b0: 0551 0840 dc69 0440 4559 2940 7cc8 1440
000000c0: b088 0d40 4be6 1640 71b5 0540 fcc5 0e40
000000d0: 2ab6 fc3f 7f5e 0040 ae0a 0b40 0f27 f23f
000000e0: cc77 f83f 8cf0 f1bd 2c95 0940 b493 1240
000000f0: 5080 0540 62d1 9cbd 9461 1640 477e fc3f
00000100: 98fc 0140 c510 0f40 fc6f 1240 d1ef 0f40
00000110: 0399 0d40 3a2b 0ebe a041 1740 df67 ea3f
00000120: 83fc 1c40 8181 0440 df1d 0e40 dc81 1840
00000130: 878f fdbd 4ba9 f33f 0936 0b40 176a 03bc
00000140: d4e2 1340 e597 0640 87b5 0b40 8b21 0840
00000150: eb85 1340 c721 22be 9f2a 3340 9e5f 9dbd
00000160: 0f67 0f40 e65b f83f 8754 ea3f 4582 0940
00000170: 01d3 1c40 c6d6 1c40 0398 2340 7280 1f40
00000180: 5e24 0940 1be0 0940 a6f0 fd3f 4425 e43f
00000190: c0a8 1740 5cdf 1940 ab3a 0d40 c8c0 1a40
000001a0: 40b5 0240 399e 1040 bf11 26be 67c3 1740
000001b0: 2838 0740 2d39 0d40 84e0 1140 6f78 e43f
000001c0: 9a28 0840 d53f 1b40 28f5 0b40 3f61 2940
000001d0: 796e 0440 4bdb c63f eddf 0e40 b721 0640
000001e0: 15bf 1240 4133 fb3f 04d8 0340 1a6b 0a40
000001f0: 7ee7 0440 3b67 1c40 92bc 0940 3038 1040

net.layers.1.weight f4 [128, 128]
0.03833746 2.2430983 -0.032031972 2.003684 2.4618452 2.0350368 2.0247998 2.0914261
-0.10264936 2.0096946 2.0513234 -0.05351205 2.0715325 2.2586272 2.404188 1.9667596
2.1509356 1.9498849 2.3217523 1.7227033 2.0312803 2.18174 1.9096091 2.3386257
2.007992 -0.021574026 0.017868979 2.0568907 2.0361953 0.043942474 2.0404148 2.1676397
-0.043126013 2.2658725 2.1837819 2.2133486 2.5751724 -0.025562579 2.1635382 1.8909676
0.019901646 2.3337498 0.6525944 2.3657825 2.1764154 2.012867 2.6699626 2.0112162
2.1579022 2.1897619 1.9343055 2.2950537 2.034258 2.2287543 2.1874316 2.2245834
1.9090073 0.12214586 2.1656303 2.1119914 2.1641238 -0.044309456 1.9925654 2.1174715
2.213957 2.1671176 2.0641742 2.301725 2.351786 -0.0859273 2.218203 1.8182254
2.5272171 2.0405278 2.0538073 2.1337237 -0.085320555 1.8630089 2.1181135 0.10095299
2.1498811 2.2987518 2.283056 2.1857657 2.1616192 0.057750065 2.5624268 -0.06088879
2.2036722 1.9901966 1.7258698 2.1286986 2.3750308 2.2223353 2.0956333 2.4433632
2.2191775 2.3429973 2.077098 1.9732884 1.8415709 2.1331604 2.2583334 2.1711924
2.0548239 2.2120821 -0.04081276 2.4846454 1.8995569 2.3145719 2.1590862 1.8931617
2.1854644 2.238994 2.019089 2.5587451 2.1761568 1.3860259 1.9154388 2.270909
2.1617327 2.1208942 2.2783237 2.1438453 1.9668615 2.3709924 2.1206021 2.3608232
-0.015903194 2.180772 -0.10093776 2.1730611 2.2545257 1.8435841 2.1348562 2.3690102
-0.038547304 1.9919373 2.0733335 4.2023534e-05 2.1012292 2.1763163 2.375117 2.4143028
2.2309895 1.6383804 2.3737557 1.8298786 2.0948098 2.272983 1.816813 2.1754556
1.9480714 -0.06513121 -0.020447746 1.9894542 2.1418378 0.06743097 2.0346477 2.0003052
0.11477053 2.2367926 2.0793006 2.201441 2.2128026 -0.055418458 1.9590747 1.9247539
0.07792114 2.1621099 0.55250365 2.417482 1.9938986 2.0411682 2.6421094 1.9284457
2.0955534 2.1635778 1.8877017 2.241058 1.8585193 2.2173984 2.1029751 2.1660833
1.9569025 -0.010844121 1.9765444 1.9429121 2.1570678 -0.05337574 2.1271305 1.9300756
2.0929284 2.2605264 2.0253313 2.053534 2.3006382 0.01726601 2.2953637 1.8307184
2.4902651 1.9297444 2.0879774 2.1480565 -0.007380044 1.7723092 2.1335533 -0.052257773
2.0772376 2.2215564 1.8531721 2.052504 1.9583509 0.13740203 2.596102 -0.019478912
2.2443905 1.7231369 1.8113279 1.9707266 2.5363715 1.9808627 2.141262 2.3787212
1.9917802 2.359961 2.0896413 1.7638286 1.931162 2.1852646 2.2681808 2.1512651
1.9059031 1.9949907 -0.015431039 2.2507675 1.9538193 2.078532 2.0643284 1.9109255
2.0550866 2.2169948 1.9398997 2.724787 2.2390351 1.6435046 1.7963269 2.1529279
2.00008 1.9660039 2.1570318 2.2075152 2.076904 2.44583 1.9720078 2.1429727
00000000: be07 1d3d ec8e 0f40 f533 03bd 5c3c 0040
00000010: df8e 1d40 0b3e 0240 5296 0140 edd9 0540
00000020: d439 d2bd d69e 0040 e248 0340 742f 5bbd
00000030: fd93 0440 598d 1040 37de 1940 c7be fb3f
00000040: eea8 0940 d495 f93f 9797 1440 8b81 dc3f
00000050: 7f00 0240 a1a1 0b40 126e f43f 0bac 1540
00000060: f182 0040 03bc b0bc f761 923c 19a4 0340
00000070: 0651 0240 06fd 333d 2896 0240 9cba 0a40
00000080: e7a4 30bd 0e04 1140 15c3 0b40 81a7 0d40
00000090: a0cf 2440 9d68 d1bc 6977 0a40 3a0b f23f
000000a0: c708 a33c 285c 1540 6d10 273f fb68 1740
000000b0: 644a 0b40 d0d2 0040 abe0 2a40 c4b7 0040
000000c0: 121b 0a40 0f25 0c40 5397 f73f 29e2 1240
000000d0: 4831 0240 e9a3 0e40 e1fe 0b40 935f 0e40
000000e0: 5a5a f43f 9c27 fa3d b099 0a40 de2a 0740
000000f0: 0181 0a40 d57d 35bd 620c ff3f a784 0740
00000100: 79b1 0d40 0eb2 0a40 6e1b 0440 764f 1340
00000110: a983 1640 a7fa afbd 0af7 0d40 9cbb e83f
00000120: edbd 2140 0298 0240 9471 0340 ee8e 0840
00000130: 8bbc aebd 1377 ee3f 2c8f 0740 71c0 ce3d
00000140: a797 0940 c01e 1340 971d 1240 96e3 0b40
00000150: f857 0a40 558b 6c3d cdfe 2340 8666 79bd
00000160: f708 0d40 c3be fe3f 4de9 dc3f 993c 0840
00000170: 8100 1840 be3a 0e40 db1e 0640 1060 1c40
00000180: 0107 0e40 abf3 1540 2cef 0440 b794 fc3f
00000190: 98b8 eb3f b385 0840 8988 1040 d1f4 0a40
000001a0: 3c82 0340 c192 0d40 482b 27bd 6e04 1f40
000001b0: ae24 f33f f221 1440 782e 0a40 1f53 f23f
000001c0: a6de 0b40 ad4b 0f40 c138 0140 7bc2 2340
000001d0: 2746 0b40 4c69 b13f 192d f53f 9356 1140
000001e0: d459 0a40 bbbc 0740 0ed0 1140 c334 0940
000001f0: 1ec2 fb3f 57be 1740 f2b7 0740 ba17 1740
00000200: 6a47 82bc c591 0b40 75b8 cebd 6f13 0b40
00000210: 264a 1040 90fa eb3f 7ca1 0840 dd9d 1740
00000220: c7e3 1dbd cdf7 fe3f 7fb1 0440 6d42 3038
00000230: 8a7a 0640 c448 0b40 eb01 1840 f083 1a40
00000240: 88c8 0e40 73b6 d13f 9deb 1740 7639 ea3f
00000250: 5d11 0640 8e78 1140 548d e83f aa3a 0b40
00000260: 675a f93f 8363 85bd 0882 a7bc 6fa6 fe3f
00000270: df13 0940 4019 8a3d ab37 0240 0005 0040
00000280: d00c eb3d 9c27 0f40 4313 0540 69e4 0c40
00000290: 8f9e 0d40 77fe 62bd f6c2 fa3f 565e f63f
000002a0: 1e95 9f3d 0260 0a40 e170 0d3f 06b8 1a40
000002b0: 1238 ff3f 80a2 0240 5218 2940 4fd7 f63f
000002c0: 8c1d 0640 0f78 0a40 36a0 f13f 7f6d 0f40
000002d0: f6e3 ed3f dbe9 0d40 2597 0640 1ca1 0a40
000002e0: c87b fa3f 8aab 31bc 68ff fc3f 58b1 f83f
000002f0: 660d 0a40 85a0 5abd e822 0840 b80c f73f
00000300: 8af2 0540 77ac 1040 079f 0140 1a6d 0340
00000310: a83d 1340 7371 8d3c 3de7 1240 fb54 ea3f
00000320: 8160 1f40 dd01 f73f 6ca1 0540 c279 0940
00000330: 4cd4 f1bb 07db e23f 238c 0840 3f0c 56bd
00000340: 76f1 0440 fb2d 0e40 be34 ed3f 3a5c 0340
00000350: 3eab fa3f 1eb3 0c3e 8926 2640 3d92 9fbc
00000360: 18a4 0f40 c08f dc3f 98d9 e73f c540 fc3f
00000370: e953 2240 e98c fd3f 700a 0940 f83c 1840
00000380: a7f2 fe3f 9a09 1740 afbc 0540 23c5 e13f
00000390: 5130 f73f 60db 0b40 e029 1140 54ae 0940
000003a0: a2f4 f33f db5b ff3f 78d2 7cbc 930c 1040
000003b0: c016 fa3f ab06 0540 f51d 0440 3599 f43f
000003c0: 8a86 0340 3ee3 0d40 a24e f83f e962 2e40
000003d0: 5a4c 0f40 5c5e d23f 0aee e53f 92c9 0940
000003e0: 5001 0040 04a6 fb3f cf0c 0a40 ee47 0d40
000003f0: ffeb 0440 7b88 1c40 c06a fc3f 7726 0940

net.layers.1.bias f4 [128]
0.41410998 0.5219051 -0.03162341 -0.14646833 0.43284306 0.4695846 0.4665482 0.46237335
-0.058511753 0.3807415 -0.068780445 0.7109119 -0.030390337 0.4289298 0.8861108 -0.09845425
-0.07473524 0.50022674 -0.07890145 0.051913273 0.5494375 -0.10615937 -0.0094033815 -0.015691664
0.6540902 -0.09858833 -0.0668344 0.42394572 0.29511505 0.39027634 0.2820103 0.36153582
0.43200338 0.42980668 -0.06484635 0.50558066 0.8799546 -0.0998539 0.505672 0.4171208
0.039584834 0.49988484 0.5060092 0.35031238 0.33533296 -0.042314377 0.456273 0.42532244
0.5111468 0.538448 0.4870487 0.39804414 0.33197692 0.5094065 0.2932234 -0.08386765
0.10437498 -0.051019687 0.41344482 0.4611349 0.40258294 0.37791792 0.37562758 0.38140208
0.35642233 0.49363586 -0.03712847 0.39144304 -0.05680552 0.3931829 -0.01051787 0.36366564
0.4761954 0.4032001 0.05447932 0.46873963 -0.063670166 -0.091223754 0.66959184 -0.087333575
0.38842764 -0.12266501 0.0037959714 0.48946318 0.38790208 -0.1257381 0.370735 0.45706868
0.38878685 -0.054098617 -0.11104992 0.5197435 0.38420114 0.4671081 -0.08754831 -0.116171554
0.33320972 -0.06329129 0.022502813 -0.06987651 -0.106462635 0.53628355 0.4789673 0.011691192
0.42871058 0.45566633 -0.052148964 0.4794025 0.3935292 -0.07332956 0.45513862 0.56715393
-0.08478948 0.44053066 0.5092182 0.55411166 0.7733381 0.47232756 -0.05575538 0.3319604
0.41110036 0.31789106 0.36128297 0.336143 -0.09657775 -0.024153475 0.34844035 0.33751068
00000000: 3906 d43e 939b 053f 8c87 01bd cbfb 15be
00000010: 9b9d dd3e 656d f03e 68df ee3e 33bc ec3e
00000020: 05aa 6fbd 8df0 c23e c3dc 8cbd 53fe 353f
00000030: 28f5 f8bc b09c db3e 28d8 623f 62a2 c9bd
00000040: ca0e 99bd dc0e 003f 1597 a1bd 03a3 543d
00000050: f0a7 0c3f 156a d9bd a410 1abc ce8b 80bc
00000060: 7572 273f aee8 c9bd 79e0 88bd 6a0f d93e
00000070: 5219 973e 4dd2 c73e a763 903e 391b b93e
00000080: 8c2f dd3e 9f0f dc3e 2ace 84bd bc6d 013f
00000090: b444 613f 3480 ccbd b873 013f dc90 d53e
000000a0: b523 223d e8f0 ff3e d289 013f 255c b33e
000000b0: c3b0 ab3e d751 2dbd 9d9c e93e ddc3 d93e
000000c0: 84da 023f bad7 093f 725e f93e 71cc cb3e
000000d0: e1f8 a93e 7768 023f 6121 963e cdc2 abbd
000000e0: 8dc2 d53d 05fa 50bd 0aaf d33e e019 ec3e
000000f0: 5a1f ce3e 757e c13e 4252 c03e 2247 c33e
00000100: fd7c b63e d7bd fc3e 0614 18bd 396b c83e
00000110: e8ac 68bd 454f c93e 2553 2cbc 6232 ba3e
00000120: e2cf f33e 3e70 ce3e b525 5f3d a4fe ef3e
00000130: 8165 82bd 85d3 babd 5f6a 2b3f f2db b2bd
00000140: fddf c63e cb37 fbbd d5c5 783b eb9a fa3e
00000150: 1a9b c63e 7dc1 00be fad0 bd3e e804 ea3e
00000160: 120f c73e 8396 5dbd 246e e3bd e90d 053f
00000170: 03b6 c43e cb28 ef3e 874c b3bd 5aeb edbd
00000180: 779a aa3e dd9e 81bd d257 b83c 6a1b 8fbd
00000190: 1509 dabd e149 093f 343b f53e 6a8c 3f3c
000001a0: f47f db3e 194d e93e 279a 55bd 3f74 f53e
000001b0: a97c c93e cf2d 96bd ee07 e93e 0031 113f
000001c0: 1ba6 adbd 3c8d e13e 205c 023f 43da 0d3f
000001d0: 7cf9 453f ebd4 f13e c15f 64bd b7f6 a93e
000001e0: bf7b d23e 9ec2 a23e 15fa b83e ef1a ac3e
000001f0: 8eca c5bd 82dd c5bc c666 b23e 33ce ac3e

net.out.weight f4 [64, 128]
-1.6091902 -1.5735608 -0.058270898 -0.008140141 -1.6200343 -1.5024251 -1.5565729 -1.4389633
-0.0015959993 -1.5527234 -0.082669705 -1.6091588 0.058525573 -1.5243531 -1.4685051 0.100925036
0.024743488 -1.4729577 -0.024809467 0.031773157 -1.4433264 -0.09563395 -0.06293686 -0.15748745
-1.4707978 -0.084283575 0.023330549 -1.472677 -1.4351894 -1.5677522 -1.7732737 -1.617796
-1.632225 -1.5444797 -0.03257921 -1.8197403 -1.5767745 0.025429124 -1.525816 -1.6316421
0.105597265 -1.4549942 -1.5781165 -1.6888245 -1.4386002 0.017159302 -1.8196089 -1.5952443
-1.5444158 -1.522432 -1.7103382 -1.5513492 -1.784355 -1.5791746 -1.7430481 -0.023275917
-0.16346776 -0.05985686 -1.6401863 -1.46411 -1.4407924 -1.6981864 -1.7332869 -1.7218118
-1.4068047 -1.6985779 -0.0963691 -1.6170068 0.06653035 -1.632571 -0.12143821 -1.620185
-1.4817135 -1.4263736 -0.1759572 -1.4259158 -0.14505206 0.090831146 -1.4642068 0.10849482
-1.6800861 0.11064988 -0.08076339 -1.3636883 -1.5156202 -0.016134491 -1.5219752 -1.528295
-1.6623393 0.015381315 0.06980347 -1.5499623 -1.6648467 -1.6375154 -0.063939705 0.07210863
-1.7606744 -0.19005412 -0.06583762 -0.012707677 0.061624147 -1.6092827 -1.6567552 -0.01343571
-1.5676165 -1.4800142 0.0754413 -1.5223843 -1.5119318 -0.0026752395 -1.5199132 -1.7117113
0.044482253 -1.6800727 -1.5991561 -1.6802645 -1.590399 -1.7555401 0.03296929 -1.704558
-1.7594452 -1.5346067 -1.6610838 -1.5991205 -0.052756958 -0.019237684 -1.5932168 -1.7180191
-1.683191 -1.8353909 0.07249225 -0.08817568 -1.74122 -1.7195828 -1.8586733 -1.700508
0.017483424 -1.7723386 -0.08258573 -1.8147694 0.08636004 -1.7400703 -1.8133377 0.11291345
-0.02848392 -1.6856815 -0.108808875 -0.14415392 -1.8049016 -0.022461468 -0.04960001 -0.12922195
-1.7947607 -0.052553084 -0.015509956 -1.6918359 -1.5497195 -1.7960646 -1.9775813 -1.7011673
-1.7662895 -1.7252835 0.055654757 -1.7632226 -1.9119706 -0.06037081 -1.6767565 -1.5516195
-0.08514909 -1.7077211 -1.8522587 -1.8179001 -1.6922158 0.00971634 -1.8174114 -1.8822213
-1.6813807 -1.6455038 -1.7529631 -1.6955935 -1.8311217 -1.5558404 -1.8051896 0.053259216
0.06400388 0.10003278 -1.9023206 -1.67021 -1.7370847 -1.8072313 -1.8819064 -1.8866904
-1.5290415 -1.6936373 0.12552539 -1.7726835 -0.020357348 -1.8676748 0.05019675 -1.6893362
-1.6040958 -1.6201285 -0.12729566 -1.6740978 0.007158912 -0.08224043 -1.8809772 -0.12417037
-1.7471641 0.12823717 -0.089220166 -1.8328034 -1.7453771 0.13796099 -1.7464457 -1.7366087
-1.8984673 -0.05407223 0.074119546 -1.6592052 -1.8149775 -1.8149341 -0.058687717 0.07550791
-1.7324085 0.10782459 -0.058289144 -0.07719871 -0.012275349 -1.5170617 -1.834171 0.041527793
-1.6537246 -1.7181004 0.0929809 -1.9660469 -1.7682215 0.058904286 -1.8499644 -2.065119
0.0020364563 -1.7409372 -1.6760638 -1.6888882 -1.7000728 -1.8479486 0.07897842 -1.8797611
-1.7297609 -1.5956255 -1.7705791 -1.8142127 -0.008673561 0.046939462 -1.7950386 -1.8489729
00000000: f2f9 cdbf 716a c9bf 77ad 6ebd 3a5e 05bc
00000010: 495d cfbf 774f c0bf c83d c7bf f32f b8bf
00000020: da30 d1ba a4bf c6bf bc4e a9bd eaf8 cdbf
00000030: 83b8 6f3d 011e c3bf faf7 bbbf c9b1 ce3d
00000040: dbb2 ca3c e189 bcbf 393d cbbc 9224 023d
00000050: ebbe b8bf bbdb c3bd 0ae5 80bd 6444 21be
00000060: 1a43 bcbf de9c acbd b51f bf3c ae80 bcbf
00000070: 49b4 b7bf 1bac c8bf a2fa e2bf f013 cfbf
00000080: c0ec d0bf 83b1 c5bf c771 05bd 40ed e8bf
00000090: bfd3 c9bf bd50 d03c f04d c3bf a6d9 d0bf
000000a0: 6143 d83d 403d babf b9ff c9bf 672b d8bf
000000b0: 0d24 b8bf aa91 8c3c f2e8 e8bf f730 ccbf
000000c0: 6baf c5bf 0ddf c2bf 5dec dabf 9c92 c6bf
000000d0: bf65 e4bf 6522 cabf 331c dfbf 23ad bebc
000000e0: 1864 27be 782c 75bd a0f1 d1bf f567 bbbf
000000f0: e36b b8bf 2c5e d9bf 58dc ddbf 5464 dcbf
00000100: 2d12 b4bf 006b d9bf 2a5d c5bd 14fa cebf
00000110: 1041 883d 16f8 d0bf 99b4 f8bd 3962 cfbf
00000120: caa8 bdbf 6993 b6bf 202e 34be 6984 b6bf
00000130: 8788 14be ae05 ba3d 216b bbbf 8832 de3d
00000140: 100d d7bf 679c e23d 4767 a5bd 578d aebf
00000150: d8ff c1bf 7b2c 84bc 15d0 c2bf 2c9f c3bf
00000160: 89c7 d4bf e901 7c3c 1ff5 8e3d 2a65 c6bf
00000170: b219 d5bf 1b9a d1bf d2f2 82bd b0ad 933d
00000180: c75d e1bf 8c9d 42be e0d5 86bd dc33 50bc
00000190: 9a69 7c3d fafc cdbf 8e10 d4bf 7421 5cbc
000001a0: a8a7 c8bf 1b71 bdbf f880 9a3d 7ddd c2bf
000001b0: fb86 c1bf 1253 2fbb 848c c2bf 5b19 dbbf
000001c0: 0633 363d 9f0c d7bf 26b1 ccbf e812 d7bf
000001d0: 3292 cbbf 8ab5 e0bf ce0a 073d f52e dabf
000001e0: 8035 e1bf fe6d c4bf 659e d4bf fbaf ccbf
000001f0: ae17 58bd 5998 9dbc 87ee cbbf 0de8 dbbf
00000200: cd72 d7bf 17ee eabf d176 943d 7395 b4bd
00000210: 4ce0 debf 4a1b dcbf 02e9 edbf 3faa d9bf
00000220: 6639 8f3c fedb e2bf b522 a9bd 5d4a e8bf
00000230: 88dd b03d a0ba debf 731b e8bf 2b3f e73d
00000240: 1c57 e9bc 69c4 d7bf 30d7 debd 169d 13be
00000250: 0407 e7bf 1d01 b8bc 6129 4bbd c252 04be
00000260: b8ba e5bf e741 57bd 781d 7ebc 148e d8bf
00000270: 355d c6bf 72e5 e5bf 6221 fdbf dabf d9bf
00000280: c615 e2bf 17d6 dcbf 3ef6 633d 47b1 e1bf
00000290: 74bb f4bf 6247 77bd f59f d6bf 789b c6bf
000002a0: a562 aebd 9b96 dabf d016 edbf f3b0 e8bf
000002b0: 879a d8bf 4931 1f3c f0a0 e8bf a1ec f0bf
000002c0: 7c37 d7bf de9f d2bf 1861 e0bf 3509 d9bf
000002d0: 3262 eabf c725 c7bf 7410 e7bf 5626 5a3d
000002e0: 7714 833d fcdd cc3d 3e7f f3bf 71c9 d5bf
000002f0: cb58 debf 5b53 e7bf 4fe2 f0bf 127f f1bf
00000300: a2b7 c3bf 1bc9 d8bf ba89 003e 4be7 e2bf
00000310: 74c4 a6bc f80f efbf 1b9b 4d3d 2b3c d8bf
00000320: 0353 cdbf 5f60 cfbf cb59 02be d648 d6bf
00000330: 4e95 ea3b ac6d a8bd dcc3 f0bf 094d febd
00000340: 13a3 dfbf 9b50 033e 10b9 b6bd 4d99 eabf
00000350: 8468 dfbf a545 0d3e 888b dfbf 3249 debf
00000360: fa00 f3bf d87a 5dbd fdcb 973d d660 d4bf
00000370: 2f51 e8bf c34f e8bf 8862 70bd e4a3 9a3d
00000380: 90bf ddbf 23d3 dc3d 99c0 6ebd 5b1a 9ebd
00000390: 8c1e 49bc 142f c2bf 1ec6 eabf 0c19 2a3d
000003a0: 3fad d3bf b7ea dbbf c56c be3d 6da7 fbbf
000003b0: 1555 e2bf 9f45 713d a2cb ecbf e92a 04c0
000003c0: 1176 053b 08d7 debf 4289 d6bf 7d2d d8bf
000003d0: fc9b d9bf 9489 ecbf 70bf a13d 039c f0bf
000003e0: ce68 ddbf 753d ccbf 56a2 e2bf 1f38 e8bf
000003f0: 8d1b 0ebc 9843 403d d3c3 e5bf 25ab ecbf

net.out.bias f4 [64]
-0.14454566 -0.07267518 -0.16289444 -0.022549296 -0.16904497 0.016807133 -0.19674845 -0.15496646
-0.09216859 -0.17108813 -0.07659108 -0.13106465 -0.15339062 -0.075589634 -0.16658483 -0.14881149
-0.09341815 -0.05680613 -0.11030567 -0.17024693 -0.10188391 -0.00056271994 -0.111076854 -0.15670773
-0.022361252 -0.16829 0.0006838531 -0.09538125 -0.19147748 -0.09577374 -0.08234099 -0.05006565
-0.077479 -0.0014869211 -0.059102975 0.06979708 0.15599097 0.14394549 0.0885711 0.068090275
0.2430676 0.08736326 0.13529377 0.111551784 0.14916402 0.17673199 0.082039304 0.086538695
0.14482552 0.14492172 0.20686696 0.063139714 0.07747668 0.36184356 0.18873051 0.114663504
0.13314658 0.08662076 0.23078568 0.0741257 0.1870683 0.17222677 0.09643356 0.18163945
00000000: c703 14be bad6 94bd cdcd 26be 4db9 b8bc
00000010: 201a 2dbe 1daf 893c 6d78 49be 87af 1ebe
00000020: e3c2 bcbd ba31 2fbe c9db 9cbd d035 06be
00000030: 6e12 1dbe bdce 9abd 3795 2abe 0a62 18be
00000040: 0452 bfbd 8bad 68bd f0e7 e1bd 3655 2ebe
00000050: 83a8 d0bd 7f83 13ba 437c e3bd fe77 20be
00000060: f22e b7bc 3754 2cbe 9b44 333a 3f57 c3bd
00000070: ac12 44be 0625 c4bd 65a2 a8bd a411 4dbd
00000080: 4fad 9ebd cbe4 c2ba f615 72bd c5f1 8e3d
00000090: 19bc 1f3e 7266 133e c464 b53d ea72 8b3d
000000a0: b7e6 783e 82eb b23d 738a 0a3e 4375 e43d
000000b0: 74be 183e 3bf9 343e 3904 a83d 333b b13d
000000c0: 244d 143e 5c66 143e efd4 533e 654f 813d
000000d0: 18ac 9e3d 8f43 b93e 9242 413e b3d4 ea3d
000000e0: 9457 083e 3a66 b13d 1553 6c3e 37cf 973d
000000f0: d58e 3f3e 375c 303e f57e c53d b1ff 393e

v.layers.0.weight f4 [128, 131]
0.10328677 -0.07588903 0.059145138 -0.047686324 -0.010769338 -0.032560553 0.01801361 -0.048952464
0.033506114 -0.057721086 -0.068247944 0.038821474 -0.057914827 -0.07970325 -0.04907711 -0.08402161
0.026304124 -0.027384248 0.01463719 -0.07264762 0.07629614 -0.087070465 -0.069440536 -0.04869
-0.08598764 -0.08614397 0.028155956 0.047921117 -0.06050244 -0.03893213 -0.08055538 -0.069000624
-0.10127681 -0.038236093 0.016573219 -0.04486402 -0.0040988517 -0.055767983 -0.059612762 0.018023109
-0.078821674 -0.06962271 -0.08274788 0.01814573 -0.07509376 0.024983823 -0.048280053 -0.059811987
0.022378169 0.012600914 0.06966159 -0.063357346 0.08698158 -0.008114891 -0.049344808 -0.02550832
-0.07377849 0.05304504 -0.057357125 0.02059481 0.07533966 -0.078002006 0.018208066 0.010318262
-0.17100272 0.032411005 0.084954746 -0.088871144 0.20355849 0.07291501 -0.10236501 0.045341555
0.073827766 -0.10861752 -0.11186662 0.06249938 -0.16112264 -0.061375163 0.04249212 0.010629245
-0.013030342 0.08698787 0.07593964 -0.01929438 -0.13748069 0.06428304 0.010233348 0.028104058
0.02519827 -0.07667243 0.1556159 -0.1428847 0.04692176 -0.055224482 -0.082997665 -0.11803561
0.04268007 0.14126441 0.06371908 -0.046069402 -0.1471952 -0.13524963 -0.11006456 -6.907469e-05
-0.0009583801 -0.018652936 -0.041257318 0.015388367 0.0118744 0.06635269 0.06671852 0.07739307
0.008738178 0.028644176 0.06436225 0.02552411 0.051324192 0.010092747 -0.08087606 0.03903645
-0.04559137 -0.0069528907 -0.046243723 0.046836972 -0.02111014 -0.0418075 -0.08384135 0.044575132
0.0048659607 0.016155835 0.051114127 -0.067785 -0.14077215 -0.0053116228 -0.0677416 -0.0067648096
0.036677558 -0.09296781 -0.12333006 -0.0660076 -0.054852176 0.0041749133 -0.091759846 -0.06299444
-0.118280195 -0.07045561 -0.12719478 -0.041128706 -0.05380134 -0.035153642 -0.043965183 -0.11370673
-0.010661114 -0.0067464625 -0.023209317 -0.0388893 -0.097403966 0.078487 -0.049492076 -0.04861948
0.054331735 0.0033716622 -0.082544506 -0.11007589 -0.08271874 -0.07553039 0.005227148 -0.02638024
-0.02993262 -0.019189537 0.08526716 -0.08256874 -0.07698698 0.051815853 -0.028249769 -0.041416276
-0.0378028 -0.030004496 0.052627947 -0.039327696 -0.053128477 -0.058325972 -0.048578724 0.008651209
-0.042360064 -0.016831893 -0.044150777 -0.06548904 0.08361296 -0.06792745 0.043290325 -0.064482525
0.032253757 -0.0012850892 0.023333102 -0.034944393 0.02156123 -0.12777822 -0.08305982 -0.035726864
-0.13965857 -0.14171231 0.0014969406 -0.024691336 -0.06782522 -0.012192754 -0.07305452 -0.08756831
-0.061408445 0.0063302014 -0.021773187 -0.07596185 -0.049864806 -0.06336273 -0.0077002873 -0.051139742
-0.015862465 -0.08203935 -0.13088095 -0.023415562 -0.11624088 -0.09204498 0.015056242 -0.033177532
-0.02646276 -0.14087707 -0.04622 -0.03263299 0.03845242 -0.02062844 0.052802842 0.009261657
0.066055 0.013893074 0.07101148 -0.057490215 0.074402235 -0.07344827 -0.058124688 0.075778335
-0.036075987 -0.07704923 -0.0175775 0.08101292 0.0826435 -0.07941999 0.037317708 0.031681433
0.038262516 0.045857564 0.002109132 -0.018291263 -3.5172685e-05 -0.061824504 0.06603878 -0.07728317
00000000: 0488 d33d b56b 9bbd 2c42 723d bc52 43bd
00000010: e171 30bc 375e 05bd 4791 933c 6182 48bd
00000020: b53d 093d f26c 6cbd 94c5 8bbd 4403 1f3d
00000030: 1938 6dbd 753b a3bd 1405 49bd 8613 acbd
00000040: bf7b d73c ee54 e0bc d3d0 6f3c 47c8 94bd
00000050: 2741 9c3d 0052 b2bd d736 8ebd 2a6f 47bd
00000060: 4a1a b0bd 406c b0bd 52a7 e63c ef48 443d
00000070: 68d1 77bd 4c77 1fbd 38fa a4bd 3350 8dbd
00000080: 376a cfbd 739d 1cbd 8fc4 873c 56c3 37bd
00000090: a94f 86bb f86c 64bd 832c 74bd 33a5 933c
000000a0: 426d a1bd 5a96 8ebd b877 a9bd 5ba6 943c
000000b0: c2ca 99bd e0aa cc3c 4ec1 45bd 6afd 74bd
000000c0: 6c52 b73c 1074 4e3c bcaa 8e3d 7fc1 81bd
000000d0: 6623 b23d 52f4 04bc c81d 4abd d3f6 d0bc
000000e0: 2d19 97bd c245 593d 4eef 6abd 72b6 a83c
000000f0: ae4b 9a3d 84bf 9fbd 1529 953c ed0d 293c
00000100: 561b 2fbe 67c1 043d c1fc ad3d 1302 b6bd
00000110: a371 503e 7754 953d bfa4 d1bd 11b8 393d
00000120: 0333 973d dd72 debd 541a e5bd 5aff 7f3d
00000130: 55fd 24be 8664 7bbd 380c 2e3d 4926 2e3c
00000140: 377d 55bc b226 b23d 3e86 9b3d 3f0f 9ebc
00000150: bdc7 0cbe d4a6 833d c6a9 273c 7b3a e63c
00000160: 9a6c ce3c 6f06 9dbd c659 1f3e 5e50 12be
00000170: 0831 403d 1133 62bd aefa a9bd a7bc f1bd
00000180: 4cd1 2e3d 9ea7 103e 267f 823d 45b3 3cbd
00000190: 57ba 16be e17e 0abe 8769 e1bd 31dc 90b8
000001a0: cd3b 7bba 0bce 98bc 6ffd 28bd 7d1f 7c3c
000001b0: d88c 423c ebe3 873d b8a3 883d 4280 9e3d
000001c0: 932a 0f3c 31a7 ea3c 5bd0 833d f017 d13c
000001d0: 5139 523d 0d5c 253c 59a2 a5bd afe4 1f3d
000001e0: 04be 3abd 13d5 e3bb 0f6a 3dbd 20d8 3f3d
000001f0: 2cef acbc 573e 2bbd 04b5 abbd 6a94 363d
00000200: a372 9f3b 3e59 843c 0c5d 513d ddd2 8abd
00000210: 9326 10be 1f0d aebb 1cbc 8abd 56ab ddbb
00000220: 353b 163d e865 bebd 7894 fcbd fe2e 87bd
00000230: adac 60bd b6cd 883b 96ec bbbd 3b03 81bd
00000240: e33c f2bd 084b 90bd 593f 02be 9376 28bd
00000250: cb5e 5cbd 44fd 0fbd d614 34bd 13df e8bd
00000260: f4ab 2ebc 6e11 ddbb 7721 bebc 634a 1fbd
00000270: bb7b c7bd cbbd a03d 34b8 4abd 3825 47bd
00000280: f48a 5e3d 1bf7 5c3b 180d a9bd 786f e1bd
00000290: 7168 a9bd adaf 9abd 7f48 ab3b 601b d8bc
000002a0: 4135 f5bc 6033 9dbc 8ca0 ae3d cd19 a9bd
000002b0: 5aab 9dbd dc3c 543d 0f6c e7bc 1da4 29bd
000002c0: 1cd7 1abd fdcb f5bc 6790 573d 1416 21bd
000002d0: 3f9d 59bd 37e7 6ebd 7cfa 46bd cdbd 0d3c
000002e0: bf81 2dbd 0ae3 89bc 72d7 34bd 1e1f 86bd
000002f0: 463d ab3d 8c1d 8bbd 3251 313d 6a0f 84bd
00000300: 841c 043d 7070 a8ba 1025 bf3c da21 0fbd
00000310: 2da1 b03c 4bd8 02be 441b aabd 5556 12bd
00000320: a802 0fbe 081d 11be fe34 c43a 7c45 cabc
00000330: f3e7 8abd 1ec4 47bc 9c9d 95bd 0457 b3bd
00000340: 6c87 7bbd 946d cf3b af5d b2bc e391 9bbd
00000350: 0a3f 4cbd 52c4 81bd b152 fcbb e877 51bd
00000360: 00f2 81bc 3f04 a8bd a805 06be fed1 bfbc
00000370: b30f eebd 1482 bcbd 75ae 763c 2ae5 07bd
00000380: 6ec8 d8bc 1442 10be 2f51 3dbd 2caa 05bd
00000390: 4980 1d3d f9fc a8bc cb47 583d 34be 173c
000003a0: d847 873d c79f 633c 786e 913d dc7a 6bbd
000003b0: 3360 983d 0c6c 96bd 2714 6ebd ac31 9b3d
000003c0: 6ac4 13bd fdcb 9dbd b0fe 8fbc 1aea a53d
000003d0: ff40 a93d f3a6 a2bd 74da 183d 64c4 013d
000003e0: 28b9 1c3d 24d5 3b3d 5d39 0a3b 8fd7 95bc
000003f0: 6286 13b8 b13b 7dbd 573f 873d a346 9ebd

v.layers.0.bias f4 [128]
0.03459065 -0.007726026 -0.05812757 -0.111068256 -0.11997023 -0.11465595 -0.0408286 -0.122188024
-0.11803995 -0.03490165 -0.14078602 0.025667211 -0.05490269 0.021522082 -0.12248293 -0.037923254
-0.11539268 -0.13042478 -0.13021262 -0.00014285477 0.019884998 0.007937091 -0.060553014 -0.03457306
-0.12027502 -0.11925625 -0.14782298 -0.05255297 0.01703222 -0.022928227 0.022338167 -0.0791418
-0.025235942 -0.11685009 0.06999831 0.03485237 -0.11424568 0.037403043 -0.10863882 -0.08669133
-0.038655847 -0.07872978 -0.092085704 -0.053238418 -0.00645322 -0.10983648 -0.030882979 -0.10331747
-0.0967964 -0.06315544 -0.22371072 -0.104882084 -0.10781861 0.08320209 -0.007708881 -0.13961075
0.059896305 0.0050496734 -0.00025561175 -0.12523481 0.029824136 -0.020757604 -0.09093524 -0.0033223962
-0.14347896 -0.03427825 -0.055481505 -0.12725341 0.0033680073 -0.007590063 -0.14331573 0.19249438
-0.07061651 0.011967361 -0.03018211 -0.047601216 -0.14705758 0.0027201392 -0.12103698 -0.106654234
-0.03822589 0.022492435 -0.046360433 -0.01914664 -0.07044136 -0.10591293 0.0013448604 -0.040664475
-0.021965686 -0.02096016 -0.08627174 0.0155341895 -0.084179044 -0.033320583 -0.08150541 -0.010779119
0.13331005 0.021534443 -0.03639657 -0.022491677 -0.04116408 -0.07170733 0.018937035 -0.12751327
-0.040800214 -0.07288627 -0.059197124 -0.121421225 0.025199968 -0.13183947 -0.15220694 -0.031599965
-0.03591157 -0.14723594 -0.027720613 -0.14205238 -0.122742034 -0.04379077 -0.058541555 -0.04050708
-0.11068996 -0.11342643 -0.04500864 -0.100697845 -0.10002928 0.0104168365 0.03718856 -0.046831284
00000000: edae 0d3d 9a2a fdbb 2d17 6ebd c177 e3bd
00000010: f4b2 f5bd bdd0 eabd e43b 27bd b73d fabd
00000020: eebe f1bd 08f5 0ebd 362a 10be 0b44 d23c
00000030: a5e1 60bd 144f b03c 55d8 fabd 6a55 1bbd
00000040: ff52 ecbd 138e 05be 7556 05be 49cb 15b9
00000050: dde5 a23c 930a 023c 7006 78bd 7b9c 0dbd
00000060: c052 f6bd 9f3c f4bd e85e 17be c841 57bd
00000070: 2787 8b3c fad3 bbbc 88fe b63c 1915 a2bd
00000080: 9bbb cebc 1a4f efbd 465b 8f3d 5cc1 0e3d
00000090: a4f9 e9bd ef33 193d 087e debd 398b b1bd
000000a0: 9855 1ebd 143d a1bd 6e97 bcbd 8710 5abd
000000b0: 8875 d3bb f3f1 e0bd 4dfe fcbc 1c98 d3bd
000000c0: 313d c6bd a457 81bd 6c14 65be 6bcc d6bd
000000d0: 01d0 dcbd db65 aa3d c89a fcbb 1ff6 0ebe
000000e0: d455 753d bb77 a53b a103 86b9 8e3d 00be
000000f0: bf51 f43c da0b aabc 413c babd 8fbc 59bb
00000100: 26ec 12be 5a67 0cbd 9340 63bd b84e 02be
00000110: c9b9 5c3b 10b6 f8bb 5cc1 12be 3f1d 453e
00000120: 649f 90bd c012 443c 7940 f7bc 7ef9 42bd
00000130: 4396 16be 5d44 323b 3ce2 f7bd 896d dabd
00000140: c092 1cbd 0e42 b83c 70e4 3dbd 6ad9 9cbc
00000150: 8f43 90bd e1e8 d8bd 0746 b03a cb8f 26bd
00000160: 62f1 b3bc a4b4 abbc 3daf b0bd 1d83 7e3c
00000170: 1066 acbd 2a7b 08bd 4fec a6bd e79a 30bc
00000180: 6e82 083e 0069 b03c 9214 15bd 7740 b8bc
00000190: ab9b 28bd 4bdb 92bd d721 9b3c d792 02be
000001a0: 201e 27bd 6645 95bd af78 72bd b1ab f8bd
000001b0: 2a70 ce3c ed00 07be 23dc 1bbe f76e 01bd
000001c0: 0318 13bd 05c5 16be 5716 e3bc 2e76 11be
000001d0: 2d60 fbbd f35d 33bd 45c9 6fbd c0ea 25bd
000001e0: 6bb1 e2bd 1e4c e8bd fb5a 38bd ac3a cebd
000001f0: 27dc ccbd 61ab 2a3c 0853 183d 29d2 3fbd

v.layers.1.weight f4 [128, 128]
-0.044492047 -0.11124281 -0.055039614 0.011042748 -0.14062546 -0.013434718 -0.1446789 0.0019764523
0.043865606 -0.13783883 -0.019326713 -0.03365195 -0.13302821 -0.13429122 -0.012350502 -0.087170064
-0.07088294 -0.0104048345 0.05314825 -0.009701821 -0.13314533 -0.13261876 -0.012864085 -0.021807496
-0.0867033 -0.075658135 -0.023145068 -0.13722761 -0.017395927 0.016000027 -0.0341011 0.025363808
-0.09398757 -0.107789144 -0.059693202 -0.09584606 -0.1117781 -0.24710315 -0.03230848 -0.20832814
-0.14172699 -0.060237072 -0.13752522 -0.12623818 -0.14229006 -0.003053295 -0.024483163 -0.036355067
-0.107660614 -0.100309566 -0.048616044 -0.058878925 -0.09551294 0.02495101 -0.22162287 -0.049475428
-0.018968951 -0.06980137 0.027477823 -0.28713533 -0.11110809 -0.11403413 -0.121254526 -0.04060293
-0.07737971 0.018218346 0.082118094 -0.01636509 -0.0942269 -0.19139028 -0.11707352 -0.27773094
-0.013845092 0.023325857 -0.0942397 -0.02835208 -0.0404544 -0.106808305 0.0060428693 -0.05815111
-0.06940785 0.02651729 -0.06091916 -0.06862255 -0.09692488 -0.0965573 -0.038650643 -0.026826704
-0.14770316 -0.099463135 -0.12646617 -0.028509846 -0.03445154 -0.09306489 -0.07710164 -0.11094605
-0.17709117 -0.03075821 -0.076969735 -0.05991769 -0.010685366 -0.052096453 -0.1371794 -0.05396885
-0.07874568 -0.092305675 -0.18819875 -0.14380729 -0.048321154 -0.06482977 0.009604111 -0.04790874
-0.19729088 -0.11013582 0.0049401526 0.02804738 0.016450217 -0.016642746 0.015816942 -0.1920045
-0.0061462186 -0.09170089 -0.036314115 -0.18921894 -0.09405483 0.005853415 0.024677038 -0.010082558
-0.018332386 -0.054736663 -0.048676018 0.032076724 -0.121631235 -0.07613727 -0.10910691 -0.06344272
-0.030422755 -0.29090232 -0.0535643 -0.0010350208 -0.13380492 -0.022605466 -0.12563455 -0.021616846
0.0015983033 -0.04509546 0.060072925 -0.04232268 0.00397836 0.0140418485 -0.12083987 -0.020566218
0.008813401 -0.07094 0.012684341 -0.12757404 -0.05108977 0.016898021 -0.071200155 0.04519848
-0.073159285 0.030685803 0.03877925 0.08273274 -0.09269417 -0.12574875 -0.11164375 -0.023467798
-0.3160237 -0.05561253 -0.1385944 -0.06223643 -0.069068156 -0.14076361 -0.05585375 0.038628735
-0.07303241 -0.024521744 0.00958114 -0.042376876 -0.065369844 -0.027877182 0.024051765 0.008864536
-0.035476144 -0.058992628 -0.06712307 -0.05203091 -0.018314619 0.04198316 -0.28618896 0.009418907
-0.14139658 -0.022371579 -0.016078874 -0.12599957 -0.060887624 -0.10377155 -0.10873016 -0.20368269
-0.082576916 -0.06381379 -0.10591486 0.019717492 -0.0077959034 -0.02413342 -0.05917352 0.07799616
-0.05231657 0.028425489 -0.00455979 -0.017945914 0.001725081 0.025377218 -0.09546419 -0.06630787
0.057664294 -0.030384418 -0.11082092 0.079620644 -0.0849985 -0.062064063 -0.05274657 -0.0946519
-0.021991123 -0.096288644 -0.035030235 0.04500352 -0.030999316 0.0039101844 0.009727473 -0.06038223
-0.104697704 -0.06289038 -0.29652193 -0.14502737 -0.024215229 0.04612158 -0.11349944 -0.0730909
-0.24340506 0.029147401 -0.0771132 -0.12217834 -0.14367832 0.05513148 -0.1172988 -0.40164477
0.06422579 -0.08729354 0.065093465 0.049224988 -0.040394478 0.009163578 -0.009545017 -0.019964647
00000000: 4b3d 36bd 45d3 e3bd 3871 61bd a4ec 343c
00000010: 1f00 10be 4b1d 5cbc b526 14be 5e87 013b
00000020: 6cac 333d 9f25 0dbe 0e53 9ebc a1d6 09bd
00000030: 8c38 08be a383 09be c359 4abc 3886 b2bd
00000040: 132b 91bd 0a79 2abc fbb1 593d 63f4 1ebc
00000050: 4057 08be 36cd 07be e2c3 52bc a2a5 b2bc
00000060: 8091 b1bd a7f2 9abd ba9a bdbc 6585 0cbe
00000070: e781 8ebc 7d12 833c 98ad 0bbd c3c7 cf3c
00000080: 8e7c c0bd 8ec0 dcbd dc80 74bd f04a c4bd
00000090: ebeb e4bd 9c08 7dbe e655 04bd f953 55be
000000a0: e120 11be 26bb 76bd 69d3 0cbe 9544 01be
000000b0: 7cb4 11be ca19 48bb ea90 c8bc 0de9 14bd
000000c0: 2b7d dcbd 1a6f cdbd 9e21 47bd 072b 71bd
000000d0: 4a9c c3bd 0f66 cc3c 1bf1 62be bfa6 4abd
000000e0: c664 9bbc 05f4 8ebd 2c19 e13c 6703 93be
000000f0: a38c e3bd ba8a e9bd 4b54 f8bd 424f 26bd
00000100: 4179 9ebd a43e 953c 882d a83d 1510 86bc
00000110: 08fa c0bd d0fb 43be 3ec4 efbd c032 8ebe
00000120: 86d6 62bc de15 bf3c be00 c1bd 9f42 e8bc
00000130: 83b3 25bd 50be dabd 4303 c63b dc2f 6ebd
00000140: b425 8ebd ca3a d93c 5e86 79bd fb89 8cbd
00000150: 8d80 c6bd d5bf c5bd 2350 1ebd adc3 dbbc
00000160: 7f3f 17be 54b3 cbbd 5980 01be 7b8d e9bc
00000170: 0f1d 0dbd ce98 bebd 77e7 9dbd af37 e3bd
00000180: 6357 35be a4f8 fbbc 4fa2 9dbd 406c 75bd
00000190: ac11 2fbc 1763 55bd c278 0cbe 710e 5dbd
000001a0: 6a45 a1bd c20a bdbd 2cb7 40be 3842 13be
000001b0: 67ec 45bd 78c5 84bd 905a 1d3c f43b 44bd
000001c0: 9f06 4abe e48e e1bd 01e1 a13b 9ec3 e53c
000001d0: 9bc2 863c 5e56 88bc 8892 813c d49c 44be
000001e0: 3866 c9bb adcd bbbd 1cbe 14bd 9cc2 41be
000001f0: d29f c0bd 01ce bf3b 8027 ca3c 5031 25bc
00000200: cd2d 96bc 8d33 60bd 8160 47bd e262 033d
00000210: cc19 f9bd dbed 9bbd 7273 dfbd 42ee 81bd
00000220: 2439 f9bc 26f1 94be 3d66 5bbd 89a9 87ba
00000230: 2804 09be 192f b9bc 58a6 00be d015 b1bc
00000240: 297e d13a 04b6 38bd 070f 763d 8c5a 2dbd
00000250: e75c 823b c80f 663c e57a f7bd 7c7a a8bc
00000260: 1566 103c fe48 91bd fbd1 4f3c c5a2 02be
00000270: 8243 51bd b86d 8a3c 63d1 91bd 0b22 393d
00000280: 89d4 95bd cb60 fb3c fed6 1e3d c86f a93d
00000290: 71d6 bdbd 48c4 00be 7aa5 e4bd 8a3f c0bc
000002a0: dccd a1be f7c9 63bd b1eb 0dbe a0eb 7ebd
000002b0: 9b73 8dbd 5624 10be e7c6 64bd 2a39 1e3d
000002c0: 0492 95bd d3e1 c8bc 37fa 1c3c 6093 2dbd
000002d0: a0e0 85bd b05e e4bc 3508 c53c 8f3c 113c
000002e0: 6f4f 11bd 41a2 71bd d277 89bd 5d1e 55bd
000002f0: 8a08 96bc 89f6 2b3d 5c87 92be c251 1a3c
00000300: 44ca 10be 9a44 b7bc d8b7 83bc 0806 01be
00000310: 4d65 79bd 2e86 d4bd ebad debd 3292 50be
00000320: 161e a9bd ceb0 82bd e4e9 d8bd 9486 a13c
00000330: c774 ffbb 73b3 c5bc ef5f 72bd 73bc 9f3d
00000340: e649 56bd 92dc e83c 4a6a 95bb 4f03 93bc
00000350: 1d1c e23a e2e3 cf3c bb82 c3bd 6ccc 87bd
00000360: 6531 6c3d bee8 f8bc 14f6 e2bd 2610 a33d
00000370: b213 aebd e336 7ebd ca0c 58bd dbd8 c1bd
00000380: ba26 b4bc fb32 c5bd dd7b 0fbd 9c55 383d
00000390: 47f2 fdbc 0121 803b fb5f 1f3c 5b53 77bd
000003a0: c06b d6bd accc 80bd b9d1 97be 0e82 14be
000003b0: 045f c6bc fbe9 3c3d 6572 e8bd afb0 95bd
000003c0: 2d3f 79be 88c6 ee3c 87ed 9dbd a338 fabd
000003d0: 6920 13be 8cd1 613d 5a3a f0bd 62a4 cdbe
000003e0: d088 833d f5c6 b2bd b94f 853d 24a0 493d
000003f0: ae74 25bd d522 163c b462 1cbc e68c a3bc

v.layers.1.bias f4 [128]
-0.109797165 -0.13920869 -0.14375111 -0.0032859198 -0.14908996 -0.092351235 0.35826656 0.041674912
-0.2636449 0.66233116 0.814605 -0.03444013 -0.30391818 -0.36196142 -0.03930066 -0.060160987
-0.15685579 0.0047003683 -0.48356467 -0.42202857 0.753719 -0.26386547 -0.6204411 -0.25806516
-0.33559233 -0.0403594 -0.066947095 0.17360088 -0.13505997 -0.139083 -0.21758226 -0.23418643
0.5911182 -0.14945409 0.40773365 -0.34097296 0.013576001 0.3623485 -0.10862414 0.7194567
-0.14273857 0.05163459 -0.04282811 -0.05517635 -0.061411485 -0.087055735 -0.23512284 0.14309874
-0.12731631 -0.08613936 -0.045480005 0.18055478 -0.06101863 -0.2465249 0.37803012 0.75446874
-0.07353371 -0.11859213 -0.44016555 -0.12099585 -0.038580954 0.15183218 -0.35212147 -0.09019008
-0.09306182 -0.008311953 0.54936665 0.80384636 -0.1378748 -0.024934744 -0.024290122 -0.07551796
-0.358216 0.5410292 -0.1923218 -0.06510913 -0.101341695 -0.31790206 -0.13301934 -0.24646118
-0.104624614 -0.022418365 -0.050162483 -0.05968567 -0.29730755 -0.11425885 -0.027112218 -0.08116326
0.09217934 -0.250569 -0.31509888 -0.06919896 -0.081256725 -0.12190883 1.0653387 -0.011267213
-0.10470556 -1.2988188 -0.4218008 -0.43623185 0.80433506 0.43263954 -0.03404129 -0.25938848
-0.112553395 -0.3416053 -0.3258489 0.3768763 0.7688151 -0.052070137 -0.11358497 -0.1126796
-0.037056543 0.08761262 -0.061068363 -0.06817347 -0.24220927 -0.48596215 -0.1096406 0.35981402
-0.35632217 -0.17207417 -0.067986384 -0.08481709 0.7344102 0.64837307 -0.55810803 -0.08156705
00000000: 56dd e0bd b98c 0ebe 7e33 13be 9658 57bb
00000010: 0aab 18be a522 bdbd b76e b73e 50b3 2a3d
00000020: 77fc 86be 898e 293f f489 503f 1811 0dbd
00000030: 2a9b 9bbe 0253 b9be bbf9 20bd 5e6b 76bd
00000040: ce9e 20be 8c05 9a3b ca95 f7be 2114 d8be
00000050: baf3 403f 6019 87be 3ad5 1ebf 1e21 84be
00000060: c2d2 abbe e64f 25bd 8f1b 89bd 6ec4 313e
00000070: 294d 0abe c66b 0ebe e2cd 5ebe 91ce 6fbe
00000080: 8653 173f 7e0a 19be 77c2 d03e 0294 aebe
00000090: e06d 5e3c be85 b93e 5576 debd 502e 383f
000000a0: 0f2a 12be cb7e 533d 876c 2fbd 9900 62bd
000000b0: 9c8a 7bbd 474a b2bd 0bc4 70be 7a88 123e
000000c0: 355f 02be d569 b0bd 3e49 3abd 5ae3 383e
000000d0: acee 79bd 0671 7cbe 2a8d c13e dd24 413f
000000e0: d798 96bd 6ee0 f2bd 615d e1be accc f7bd
000000f0: 1007 1ebd e579 1b3e 4449 b4be 94b5 b8bd
00000100: 3297 bebd dc2e 08bc 4ba3 0c3f e0c8 4d3f
00000110: 0d2f 0dbe f343 ccbc 14fc c6bc 29a9 9abd
00000120: 1668 b7be e480 0a3f 02f0 44be f057 85bd
00000130: 3c8c cfbd 0fc4 a2be 3936 08be 5260 7cbe
00000140: 6e45 d6bd b8a6 b7bc 2d77 4dbd f678 74bd
00000150: b238 98be 8b00 eabd 711a debc ec38 a6bd
00000160: 86c8 bc3d 944a 80be a454 a1be 2fb8 8dbd
00000170: ed69 a6bd 56ab f9bd 055d 883f 1e9a 38bc
00000180: de6f d6bd b23f a6bf 46f6 d7be c859 dfbe
00000190: e7e8 4d3f ee82 dd3e e16e 0bbd 91ce 84be
000001a0: 6582 e6bd e4e6 aebe abd5 a6be eef5 c03e
000001b0: 11d1 443f 7f47 55bd 3d9f e8bd 90c4 e6bd
000001c0: 9ac8 17bd 3f6e b33d d222 7abd 889e 8bbd
000001d0: b505 78be 08d0 f8be 408b e0bd 8b39 b83e
000001e0: dc6f b6be 3634 30be 723c 8bbd 95b4 adbd
000001f0: 4f02 3c3f c7fb 253f 2be0 0ebf a00c a7bd

v.out.weight f4 [1, 128]
-0.20186505 -0.21822158 0.017162072 0.03522808 -0.061097316 -0.050535332 0.048198383 0.024006339
0.22010058 0.12822963 0.20698969 0.0011220505 0.09902019 0.21287157 -0.036792524 0.017902985
-0.16512841 0.23627107 0.11196522 0.08604822 0.16802704 -0.011852006 -0.0017962443 -0.020067578
0.2256627 -0.008781938 -0.043589458 0.03389306 0.013065775 -0.025681965 -0.12749766 -0.21917547
0.15138672 -0.06591978 -0.00094904564 -0.0038156747 0.012584208 0.18025155 -0.023311973 0.13704836
0.107031345 0.008677548 -0.010649253 -0.01161257 -0.029684458 -0.010330717 -0.11533559 0.03212381
-0.0063903998 0.018914282 -0.028707283 0.02285418 0.0203536 0.21815391 0.060428716 0.19805786
-0.0071833734 0.054313432 -0.13749185 0.044063967 -0.0015053267 0.07799962 -0.02981919 -0.027085157
-0.011924621 0.006838365 0.1091519 -0.19774534 -0.23727608 0.23875883 0.01699438 0.023315746
-0.18772669 -0.123312026 -0.11696536 -0.009191478 0.004475287 0.22703356 -0.120797105 -0.16869274
-0.022106627 -0.0063562617 -0.022873955 -0.0064533106 0.002325771 -0.012556885 -0.02702231 0.009743625
0.015555963 -0.060709976 -0.17431295 0.049739726 0.059495818 -0.0046433723 -0.2840324 0.023031311
0.018038386 -0.33634382 0.049444944 0.061885927 0.18426651 -0.016096167 -0.0073774317 -0.23181953
0.13540505 -0.123564914 -0.056943286 0.040698003 0.14568415 0.17297924 0.013933075 -0.035548635
-0.032048002 0.31099063 0.0016830701 -0.068018 0.11926521 -0.079692945 -0.012675879 0.07173767
0.06743731 -0.045708783 0.002479085 -0.005069237 0.201217 0.019052858 0.06793734 -0.017370818
00000000: b6b5 4ebe 7a75 5fbe 7997 8c3c 524b 103d
00000010: 2e41 7abd 23fe 4ebd ab6b 453d f1a8 c43c
00000020: 0c62 613e a14e 033e 1bf5 533e c411 933a
00000030: 19cb ca3d 01fb 593e c2b3 16bd 48a9 923c
00000040: 6c17 29be 0bf1 713e 054e e53d 0d3a b03d
00000050: 480f 2c3e eb2e 42bc f56f ebba c364 a4bc
00000060: 1f14 673e 1ee2 0fbc dc8a 32bd 73d3 0a3d
00000070: d511 563c fc62 d2bc bf8e 02be 896f 60be
00000080: 1f05 1b3e f300 87bd 60c9 78ba 6610 7abb
00000090: fe2d 4e3c dd93 383e c0f8 bebc 6856 0c3e
000000a0: 4033 db3d 462c 0e3c 347a 2ebc a642 3ebc
000000b0: d22c f3bc 2b42 29bc 1135 ecbd 4294 033d
000000c0: 8f66 d1bb 20f2 9a3c 892b ebbc b038 bb3c
000000d0: 98bc a63c bd63 5f3e 1a84 773d aecf 4a3e
000000e0: 8162 ebbb c377 5e3d aaca 0cbe 6b7c 343d
000000f0: 624e c5ba 44be 9f3d 6047 f4bc b1e1 ddbc
00000100: 7c5f 43bc 5d14 e03b 088b df3d c17d 4abe
00000110: 80f8 72be 327d 743e cc37 8b3c aa00 bf3c
00000120: 6d3b 40be 048b fcbd 898b efbd da97 16bc
00000130: 6ea5 923b 7c7b 683e 7964 f7bd cabd 2cbe
00000140: f518 b5bc 3048 d0bb 2962 bbbc 4b76 d3bb
00000150: f66b 183b 65bb 4dbc e45d ddbc baa3 1f3c
00000160: 70de 7e3c 06ab 78bd 187f 32be e2bb 4b3d
00000170: e3b1 733d 6e27 98bb b26c 91be 29ac bc3c
00000180: 3dc5 933c 4235 acbe c886 4a3d 197c 7d3d
00000190: 5cb0 3c3e 1cdc 83bc 62be f1bb 1962 6dbe
000001a0: 9fa7 0a3e 9a0f fdbd 5d3d 69bd f3b2 263d
000001b0: 3a2e 153e 7821 313e 8d47 643c 729b 11bd
000001c0: c444 03bd 2a3a 9f3e 769a dc3a 054d 8bbd
000001d0: 5241 f43d 0e36 a3bd 7dae 4fbc 33eb 923d
000001e0: 931c 8a3d 2239 3bbd 2578 223b d81b a6bb
000001f0: d40b 4e3e bd14 9c3c bb22 8b3d 3f4d 8ebc
