models/save/qoar_mappo_0.4 0.1 0.5.pth (torch, 995701 bytes, 33 tensors)

net.layers.0.weight f4 [128, 131]
0	0x3f67e7e5	0.9058822
1	0x3f5e6e0d	0.86886674
2	0x3f7987c4	0.97472787
3	0x3f82de9c	1.0224185
4	0x3f942023	1.1572307
5	0x3d328395	0.043582518
6	0x3f104a52	0.56363404
7	0x3f53bbae	0.8270825
8	0x3f8052f8	1.002532
9	0x3f8ccbba	1.0999672
10	0x3fb94385	1.447373
11	0x3f89dcc7	1.0770501
12	0x3f7cca0f	0.98745817
13	0x3f724b60	0.94646263
14	0x3f9472a7	1.1597489
15	0x3f77a1d5	0.9673131
16	0x3f309af2	0.6898643
17	0x3f86ac74	1.0521379
18	0xbd864424	-0.065559655
19	0x3f5ec50f	0.8701944
20	0x3f7f03be	0.99615085
21	0x3f5ef142	0.8708688
22	0x3fb16f1d	1.3862034
23	0x3f84e82f	1.0383357
24	0x3f3d8151	0.74025446
25	0x3f859187	1.0435036
26	0xbd382c93	-0.044964384
27	0x3efe3f4f	0.49657676
28	0x3fb4d122	1.4126322
29	0x3d1e5d04	0.038662925
30	0x3f935d07	1.1512765
31	0x3f6f95ed	0.93588144
32	0x3f3473c0	0.7048912
33	0xbda47184	-0.08029464
34	0x3d9b5c85	0.07586006
35	0x3d9cf903	0.07664683
36	0x3c9821a4	0.018570729
37	0xbd379f70	-0.044829786
38	0x3ca2ea4e	0.019887116
39	0xbd6b16c4	-0.057394758
40	0x3c8c5fd1	0.017135533
41	0xbdb0c8f1	-0.086320765
42	0x3caa09a3	0.020756548
43	0xbd6eef01	-0.0583334
44	0x3d22ac78	0.03971526
45	0x3daf4813	0.08558669
46	0x3c87c904	0.016575344
47	0x3d51776f	0.05113929
48	0x3cdc20dd	0.02687114
49	0xbb4882d0	-0.0030595548
50	0xbd8d8d63	-0.06911733
51	0x3c80af67	0.015708638
52	0xbda9369e	-0.082623705
53	0x3b915bab	0.0044359765
54	0x3daa7e4e	0.08324872
55	0x3a846aab	0.001010259
56	0x3f5517ae	0.8323926
57	0x3b64e9c7	0.0034929381
58	0x3cd450fa	0.025917519
59	0x3cc6f00e	0.024284389
60	0xbd04f8ff	-0.032464024
61	0xbcad0ff5	-0.021125773
62	0xbd85ac01	-0.06526948
63	0xbc5c53ab	-0.013447682
64	0x3ebf8963	0.37409505
65	0x3ef131a2	0.4710818
66	0x3fafd400	1.3736572
67	0x3f40505f	0.75122637
68	0x3f24fd61	0.64449126
69	0x3f77ad54	0.9674885
70	0x3ee3169f	0.44353196
71	0x3f354c2a	0.7081934
72	0x3f47e3f8	0.7808223
73	0x3f8488e7	1.0354279
74	0x3f40cedd	0.7531565
75	0x3f6f8994	0.935693
76	0x3f371805	0.71521026
77	0x3f7e763c	0.9939916
78	0x3f61777f	0.8807296
79	0x3f869dd3	1.0516914
80	0x3f1438b3	0.57899016
81	0x3f57e39e	0.8433169
82	0x3f93ec40	1.1556473
83	0x3f2b6196	0.6694578
84	0x3f82e3f5	1.0225817
85	0x3f732596	0.94979227
86	0x3f78c4e5	0.9717544
87	0x3f8c84be	1.097801
88	0x3f3f68a3	0.7476904
89	0x3f062667	0.5240235
90	0x3e188183	0.14893155
91	0x3f1a35f1	0.6023856
92	0x3f5f09c3	0.8712427
93	0x3d9d810a	0.07690628
94	0x3f4f0c65	0.8087829
95	0x3f4ddee7	0.80418247
96	0x3f82c949	1.0217677
97	0x3e4815b3	0.19539528
98	0x3dba1587	0.09086137
99	0x3e10a3be	0.14124963
100	0x3e8bd6b5	0.27312246
101	0xbe03f807	-0.12887584
102	0x3edd4f3a	0.43224508
103	0x3ebff917	0.37494728
104	0x3df5da25	0.120044984
105	0x3e6b89e3	0.23001818
106	0x3e90b6c6	0.28264445
107	0x3e5d35e1	0.21602584
108	0x3e9b2186	0.30299014
109	0x3ee6c781	0.45074084
110	0x3d8ed599	0.06974334
111	0x3f2827d6	0.65685785
112	0x3e985e2a	0.2975934
113	0x3e40ec3e	0.18840119
114	0x3d155a46	0.036463045
115	0x3e99e588	0.3005793
116	0x3eb4bed2	0.35301834
117	0x3d9bbe71	0.07604683
118	0x3e6b2cc1	0.22966291
119	0x3da47aa3	0.080312036
120	0x3f6ec0e4	0.9326308
121	0x3ec6d49b	0.3883408
122	0x3ec1d4c5	0.37857643
123	0xbd7cf9ea	-0.061761774
124	0xbd9f831a	-0.077886775
125	0xbdab8d88	-0.08376604
126	0x3b940289	0.004516904
127	0x3da22fee	0.07919298
128	0x3fb2aa1f	1.3958167
129	0x3faa73e8	1.3316622
130	0x3f8ec992	1.1155264
131	0x3f50c3bf	0.81548685
132	0x3f532b2f	0.8248777
133	0x3f8b7cd0	1.0897465
134	0x3f456aea	0.7711626
135	0x3f6b1b28	0.9183831
136	0xbd79dc4f	-0.06100112
137	0x3f0d4261	0.5517941
138	0x3f607130	0.8767271
139	0x3f77be89	0.9677511
140	0x3f897192	1.0737784
141	0x3face050	1.3505955
142	0x3f97a9a9	1.1848651
143	0x3f453719	0.770372
144	0x3f515b22	0.8177968
145	0x3f8e3a2c	1.1111503
146	0x3f5193db	0.81866235
147	0x3f3f79fb	0.747955
148	0x3f88e2b0	1.069418
149	0xbdab6590	-0.08368981
150	0x3f2e8b53	0.6818134
151	0x3f84c672	1.0373061
152	0x3f45b383	0.7722704
153	0x3fa11459	1.2584335
154	0x3f59b9f5	0.8504937
155	0x3f391cf4	0.72309804
156	0x3f814944	1.0100484
157	0x3d6abecb	0.05731086
158	0x3efdf816	0.49603337
159	0x3fac9443	1.3482746
160	0x3d2b3ba4	0.041804925
161	0x3f97085a	1.1799424
162	0x3f70abd0	0.94012165
163	0x3f400e53	0.7502186
164	0x3cf7b74c	0.03023877
165	0xbd8cb73d	-0.068708874
166	0x3d15d7de	0.03658282
167	0x3d1831a1	0.037156705
168	0xbc4fdd2a	-0.012687007
169	0x3da2133e	0.079138264
170	0x3d92abb3	0.07161655
171	0x3d2e4cf9	0.042553876
172	0x3ad8975b	0.00165246
173	0xbd08a04e	-0.033356003
174	0xbcd663ed	-0.026170695
175	0x3d42b7d1	0.047538582
176	0xbd5ab521	-0.053395394
177	0x3db287c1	0.08717299
178	0x3c7eed5e	0.015559522
179	0x3d771edb	0.06033216
180	0x3d44f6de	0.048086993
181	0x3c53c2fa	0.012924904
182	0x3d463a16	0.04839524
183	0x3d49f79f	0.049308416
184	0xbd8c7cac	-0.06859717
185	0xbd86231d	-0.06549666
186	0xbc682a8c	-0.0141703
187	0x3f69d670	0.9134283
188	0xbd9a5c57	-0.07537144
189	0x3db17fbf	0.08666944
190	0xbca1d20b	-0.019753477
191	0x3c804c91	0.01566151
192	0xbcc10636	-0.023562532
193	0x3d90d007	0.07070928
194	0x3d60d7ed	0.054893423
195	0x3eff3498	0.49844813
196	0x3f4e6cab	0.80634564
197	0x3fadc0af	1.3574427
198	0x3f4919a0	0.78554726
199	0x3f40599a	0.7513672
200	0x3f868b22	1.051121
201	0x3e9c5f25	0.3054134
202	0x3eeb6362	0.4597426
203	0x3f5b54eb	0.8567645
204	0x3f4e0fa0	0.8049259
205	0x3f418b9c	0.7560365
206	0x3f4b8232	0.7949554
207	0x3f475e4f	0.7787828
208	0x3f4fa7a0	0.8111515
209	0x3f4bfb44	0.79680276
210	0x3f7aaad6	0.97916925
211	0x3f213e63	0.6298582
212	0x3f5e2efe	0.86790454
213	0x3f8add4e	1.0848787
214	0x3f39a75a	0.72520983
215	0x3f6ffcba	0.93745005
216	0x3f48e21a	0.78470004
217	0x3f6776d9	0.9041572
218	0x3f80c76e	1.0060861
219	0x3f31836f	0.69341177
220	0x3f2ea94d	0.6822708
221	0x3d4c61e2	0.049898036
222	0x3f2c88dd	0.67396337
223	0x3f84a430	1.0362606
224	0x3e062813	0.13101225
225	0x3f5404a1	0.82819563
226	0x3f4b6599	0.794519
227	0x3f84414d	1.0332428
228	0x3e84c037	0.25927898
229	0xbc65cd69	-0.014026024
230	0x3d667e4c	0.05627279
231	0x3ecfb2e4	0.4056617
232	0xbdde817c	-0.10864541
233	0x3eec4921	0.46149543
234	0x3ec39485	0.3819925
235	0x3d9c3932	0.07628097
236	0x3e1f6104	0.15564352
237	0x3eaabcf9	0.333473
238	0x3e0592fe	0.13044354
239	0x3e8e4222	0.2778483
240	0x3ee803fa	0.45315534
241	0x3e4b57a3	0.1985765
242	0x3f21d726	0.63218915
243	0x3e6f3155	0.23358662
244	0x3e26cc11	0.16288783
245	0xbdce5ffe	-0.10076903
246	0x3e76192d	0.24033041
247	0x3e935b6c	0.28780687
248	0x3dece483	0.11567023
249	0x3e992ad6	0.29915494
250	0x3c818336	0.015809637
251	0x3f615890	0.8802576
252	0x3eecbfdf	0.46240136
253	0x3ed43fc7	0.41454908
254	0xbd813f02	-0.06310846
255	0xbd8608ab	-0.06544622

net.layers.0.bias f4 [128]
0	0x3fb25c02	1.3934329
1	0x3fa9840c	1.3243423
2	0x3fb722a6	1.4307449
3	0x3fa84f5d	1.314922
4	0x3fb7fdc6	1.437432
5	0x3fba155b	1.4537767
6	0x3faaf10f	1.3354815
7	0x3fb18fe0	1.3872032
8	0x3fc876d1	1.566126
9	0x3fa66840	1.3000565
10	0x3fa1b3c9	1.2632991
11	0xbe18114f	-0.14850353
12	0x3fa9b324	1.3257794
13	0x3f9b5820	1.2136269
14	0x3fd528fa	1.665313
15	0xbe03fea8	-0.12890112
16	0x3fc1ccea	1.514066
17	0x3fd3577f	1.6511077
18	0x3faed99b	1.3660158
19	0x3fbf43e0	1.4942589
20	0x3fa4da72	1.2879164
21	0x3fbfcb08	1.4983835
22	0x3fa41a2a	1.2820485
23	0x3fb7e18d	1.4365708
24	0x3fb8ae3e	1.4428174
25	0x3fd040e8	1.6269808
26	0x3fb251d4	1.3931222
27	0x3fc95082	1.5727694
28	0x3fbd9d63	1.4813656
29	0x3fa70cfd	1.3050839
30	0x3f9eb72e	1.2399652
31	0xbdfe6a1e	-0.12422584
32	0xbd1c2b5d	-0.038127292
33	0x3fb1bed1	1.3886358
34	0x3faf5b44	1.3699727
35	0x3fac8594	1.3478265
36	0x3fab6c37	1.33924
37	0x3fb4d442	1.4127276
38	0x3fa87209	1.3159801
39	0xbdd80fd3	-0.10549893
40	0x3fcde6bd	1.6086041
41	0x3fb38617	1.4025296
42	0x3fcea7a3	1.6144909
43	0x3fc84195	1.5645014
44	0x3faa6c81	1.3314363
45	0x3fae41be	1.3613813
46	0x3fabdf7d	1.3427578
47	0x3fac46ad	1.3459069
48	0x3fb1a341	1.3877946
49	0x3fab04de	1.336086
50	0x3fa2ff8f	1.273424
51	0x3faec6a4	1.365437
52	0x3fba081d	1.4533726
53	0x3fa98894	1.3244805
54	0x3fc5de53	1.5458473
55	0x3fb08dad	1.3793236
56	0x3fb56e2a	1.4174244
57	0x3faf515b	1.3696703
58	0x3fbd744e	1.4801118
59	0x3fb3be77	1.40425
60	0x3fa748a0	1.3069038
61	0x3fae9a9e	1.3640935
62	0x3faebced	1.3651406
63	0x3fa6c1e5	1.3027922
64	0x3fa8d383	1.3189548
65	0x3fbed52a	1.4908803
66	0x3fa6546b	1.2994512
67	0x3fa87a34	1.3162293
68	0x3fafa115	1.3721033
69	0x3fa7a678	1.3097677
70	0x3fa39583	1.2780002
71	0x3fd2407a	1.6425927
72	0x3fb27988	1.3943338
73	0x3fafe766	1.3742492
74	0x3fae555e	1.3619802
75	0x3fa58f91	1.2934438
76	0x3fa99829	1.324956
77	0x3faf0950	1.3674717
78	0x3fb3c4b8	1.4044409
79	0x3fb8a7c7	1.4426202
80	0x3fab550a	1.3385327
81	0x3fb26139	1.393592
82	0x3fd5c834	1.6701722
83	0x3f9b8c0b	1.2152113
84	0x3fad8531	1.3556272
85	0x3fa518b7	1.2898167
86	0x3fb57d71	1.4178907
87	0x3faa33b3	1.3297027
88	0x3fa942bf	1.3223494
89	0x3fb0bdb4	1.3807893
90	0x3fb89324	1.4419904
91	0x3fb078d0	1.3786869
92	0x3faa463a	1.3302681
93	0x3faad5fb	1.3346552
94	0x3fc22459	1.5167342
95	0x3fa29f6f	1.2704905
96	0x3fb10e3b	1.3832468
97	0x3fbe655f	1.4874686
98	0x3fbcb921	1.4743997
99	0x3fb77e12	1.4335349
100	0x3fb1f7da	1.3903763
101	0x3f9d6e5f	1.2299308
102	0x3fadbead	1.3573815
103	0x3fa55c64	1.291882
104	0x3fa6ea21	1.30402
105	0x3fa42afc	1.2825618
106	0x3fb565af	1.4171656
107	0x3fa35f19	1.2763397
108	0x3fa8edd5	1.319758
109	0x3fa74c2d	1.3070122
110	0x3fb62049	1.4228603
111	0x3fa77b60	1.3084526
112	0x3fc837a4	1.564198
113	0x3fc2f3df	1.5230674
114	0x3fafb922	1.3728373
115	0x3facd328	1.350194
116	0x3fb16675	1.3859392
117	0xbd9ffd1f	-0.07811951
118	0x3fb05257	1.3775128
119	0xbe0f22a8	-0.13978064
120	0x3fad6c0d	1.35486
121	0x3fa3cc73	1.2796768
122	0x3fae4e66	1.3617675
123	0x3faf3145	1.3686911
124	0x3fa25d08	1.2684641
125	0x3fbb5e7f	1.4638213
126	0x3fad00dd	1.3515888
127	0x3faa4094	1.3300958

net.layers.1.weight f4 [128, 128]
0	0x3fb326e2	1.3996241
1	0x3f950c0d	1.1644303
2	0x3fa9bd33	1.3260864
3	0x3f9fac7a	1.2474511
4	0x3fc6b7e1	1.5524865
5	0x3fbed126	1.4907577
6	0x3fa3b595	1.278979
7	0x3fbf2abe	1.4934919
8	0x3fdcedf7	1.7260121
9	0x3fb58a9d	1.4182926
10	0x3fa664a1	1.299946
11	0xbd6b7989	-0.05748895
12	0x3fab2473	1.3370498
13	0x3fa365bc	1.2765422
14	0x3fc8ca0d	1.5686661
15	0xbd8df6c3	-0.06931832
16	0x3fbc7db8	1.4725866
17	0x3fe59f40	1.7939224
18	0x3fb93ec6	1.4472282
19	0x3fbac233	1.4590515
20	0x3fb61e23	1.4227947
21	0x3fc92c3b	1.5716623
22	0x3fab5c3a	1.338752
23	0x3fb5a879	1.4192039
24	0x3fd37647	1.652047
25	0x3fdf0cc8	1.7425776
26	0x3fa880f2	1.3164351
27	0x3fda1c52	1.7039893
28	0x3fd4b69b	1.6618227
29	0x3fa2f49a	1.2730896
30	0x3fa92c8a	1.3216717
31	0x3d9f4328	0.07776481
32	0xbdd893ba	-0.105750516
33	0x3fbefb6b	1.4920477
34	0x3fbafd84	1.4608617
35	0x3fa9879c	1.324451
36	0x3fc30a4a	1.5237515
37	0x3fbef746	1.4919212
38	0x3fb46389	1.4092876
39	0xbd287184	-0.041123882
40	0x3fecd874	1.8503556
41	0x3fbc136a	1.4693425
42	0x3fbc9c89	1.4735271
43	0x3fee67ec	1.8625464
44	0x3fa86875	1.3156878
45	0x3f99fa15	1.2029444
46	0x3fd8e71b	1.6945528
47	0x3fb51859	1.4148055
48	0x3fc16fc6	1.5112236
49	0x3fa667d9	1.3000442
50	0x3f9a9295	1.2075983
51	0x3f981a63	1.1883053
52	0x3fc75167	1.5571717
53	0x3faea61e	1.3644445
54	0x3fd4ed24	1.663487
55	0x3fbb8b55	1.4651896
56	0x3fca8938	1.5823126
57	0x3fa3819f	1.2773932
58	0x3fc393cb	1.5279478
59	0x3fb24b07	1.3929147
60	0x3f90e37e	1.1319425
61	0x3f9c5103	1.2212223
62	0x3fc0f8db	1.5075945
63	0x3fa5618b	1.2920393
64	0x3fb41eb3	1.4071869
65	0x3fd2f935	1.6482302
66	0x3fa0cff1	1.2563459
67	0x3fb45e2c	1.4091239
68	0x3fadc1ff	1.3574828
69	0x3f94e451	1.1632177
70	0x3fa2214d	1.2666413
71	0x3fbc9e6d	1.4735848
72	0x3fad3347	1.3531274
73	0x3fa117d5	1.2585398
74	0x3fae1b43	1.360207
75	0x3fb138af	1.3845423
76	0x3fa6dc11	1.3035909
77	0x3f98ba22	1.1931803
78	0x3fa96fc2	1.3237231
79	0x3fb07940	1.3787003
80	0x3fbb4dba	1.4633095
81	0x3fb1f0e3	1.3901638
82	0x3fe48be5	1.7855192
83	0x3fa642a2	1.2989085
84	0x3fa6a353	1.3018593
85	0x3fba4d46	1.4554832
86	0x3fb63f14	1.4238
87	0x3faf0578	1.3673544
88	0x3fa701b0	1.304739
89	0x3fc9fbea	1.5780003
90	0x3fbe6dff	1.4877318
91	0x3fa56ce1	1.2923852
92	0x3f98c762	1.1935847
93	0x3fc771d2	1.558161
94	0x3fdac23a	1.7090523
95	0x3f92f767	1.1481751
96	0x3f9c05bf	1.2189254
97	0x3fbea5bc	1.4894328
98	0x3fb12252	1.3838599
99	0x3fbc280b	1.469972
100	0x3fb4291d	1.4075047
101	0x3fa842ad	1.3145348
102	0x3fa15817	1.2605008
103	0x3fa49136	1.2856815
104	0x3f95991d	1.1687351
105	0x3f9290f3	1.1450485
106	0x3fb67c6c	1.425672
107	0x3f95a6ca	1.1691525
108	0x3f9c867a	1.2228539
109	0x3fac16ff	1.3444518
110	0x3fb0199c	1.3757815
111	0x3f90e822	1.1320841
112	0x3fc9d9db	1.5769609
113	0x3fba69f5	1.4563586
114	0x3fac7089	1.3471843
115	0x3fb81868	1.4382448
116	0x3fb32743	1.3996357
117	0x3d35c6a1	0.04437888
118	0x3fad8100	1.3554993
119	0xbd7fcaf0	-0.062449396
120	0x3f9b5c72	1.2137587
121	0x3fae37b3	1.3610748
122	0x3fb722db	1.4307512
123	0x3fad4398	1.3536253
124	0x3f96210d	1.1728836
125	0x3fd72b55	1.6810099
126	0x3f9b4be8	1.213254
127	0x3fac0cf9	1.3441459
128	0x3fb91c39	1.4461738
129	0x3fb2a5e9	1.3956882
130	0x3fcb904f	1.5903414
131	0x3faf3e97	1.3690976
132	0x3fcc17fb	1.5944818
133	0x3fcf29b7	1.6184605
134	0x3fb865f2	1.4406111
135	0x3fb4a1db	1.4111894
136	0x3fd27846	1.6442955
137	0x3fb8f5eb	1.4450048
138	0x3fac3b58	1.345561
139	0x3d2da9bc	0.0423982
140	0x3faf1bc9	1.3680354
141	0x3fb756c1	1.432335
142	0x3fd1bb90	1.6385365
143	0xbc8188d5	-0.015812317
144	0x3fd05916	1.6277187
145	0x3fc9cbe1	1.5765344
146	0x3fb7e036	1.4365299
147	0x3fd43f68	1.658185
148	0x3fc65268	1.5493898
149	0x3fd51b4f	1.6648959
150	0x3fba6dbc	1.4564738
151	0x3fc7f8c1	1.5622789
152	0x3fc9fcc0	1.5780258
153	0x3fe91e4e	1.8212373
154	0x3fb4bce8	1.412015
155	0x3fd68bb4	1.6761384
156	0x3fd2e35c	1.6475635
157	0x3fb3b961	1.4040948
158	0x3fb0f342	1.3824236
159	0x3c640c48	0.013918944
160	0x3e0d0c4a	0.13774219
161	0x3fb8954c	1.4420562
162	0x3fac23e6	1.3448455
163	0x3fbd675b	1.4797167
164	0x3fc55498	1.5416441
165	0x3fcc7659	1.5973617
166	0x3fbc9ca9	1.4735309
167	0x3cf8fcdc	0.03039401
168	0x3fde5086	1.7368324
169	0x3fb8415c	1.4394946
170	0x3fc89e45	1.56733
171	0x3fd08eef	1.629362
172	0x3fc01444	1.5006185
173	0x3fac1a84	1.3445592
174	0x3fcacad1	1.5843145
175	0x3fc801f6	1.5625598
176	0x3fd1a015	1.6376978
177	0x3fafd434	1.3736634
178	0x3fa5eedd	1.296352
179	0x3fae1f14	1.3603234
180	0x3fc4d62d	1.5377861
181	0x3fba6f05	1.456513
182	0x3fdfe0d1	1.7490484
183	0x3fc448b4	1.5334687
184	0x3fc22c20	1.5169716
185	0x3fbfca2c	1.4983573
186	0x3fd22e66	1.642041
187	0x3fc2ded7	1.5224255
188	0x3fb1d5b0	1.3893337
189	0x3fb72f70	1.4311352
190	0x3fd20477	1.6407613
191	0x3fb109cf	1.3831118
192	0x3fbcbf4e	1.4745882
193	0x3fd44c60	1.6585808
194	0x3fb50a34	1.4143739
195	0x3faf725e	1.3706777
196	0x3fbcac15	1.4740015
197	0x3fa38c47	1.2777184
198	0x3fa8ff8a	1.3202984
199	0x3fc8dca3	1.5692333
200	0x3fa9dcb6	1.3270481
201	0x3fb880f3	1.4414352
202	0x3fb28745	1.3947531
203	0x3fbe620c	1.4873672
204	0x3fbfbc66	1.497937
205	0x3fa3a682	1.2785189
206	0x3fc7f229	1.5620776
207	0x3fc192dc	1.5122943
208	0x3fcd89f0	1.605772
209	0x3fb615a9	1.422536
210	0x3fdbd659	1.7174789
211	0x3fafa2d0	1.3721561
212	0x3fc0b2a7	1.505452
213	0x3fbc8950	1.4729404
214	0x3fc6fe08	1.5546274
215	0x3fb4ae41	1.4115678
216	0x3fa7044e	1.3048189
217	0x3fcd1cb8	1.6024389
218	0x3fc64dd6	1.5492504
219	0x3fcc772d	1.597387
220	0x3fb7e2dd	1.4366108
221	0x3fcf1c0e	1.6180437
222	0x3fd8bf59	1.6933395
223	0x3f9d3171	1.2280713
224	0x3fbe43b7	1.4864415
225	0x3fbf666b	1.495313
226	0x3fc347ab	1.5256246
227	0x3fcf8593	1.6212639
228	0x3fcf6c04	1.6204839
229	0x3fae1601	1.3600465
230	0x3fbdf190	1.4839344
231	0x3fb142d3	1.3848518
232	0x3fb6e2fd	1.4288021
233	0x3fafd981	1.3738252
234	0x3fbb7744	1.4645772
235	0x3fb4880c	1.4104018
236	0x3fbe0662	1.4845698
237	0x3fb717f5	1.4304186
238	0x3fbc7283	1.4722446
239	0x3fafbe05	1.3729864
240	0x3fcf6947	1.6204003
241	0x3fc41758	1.5319624
242	0x3fbeed4d	1.4916168
243	0x3fb07abe	1.3787458
244	0x3fd2abdd	1.6458699
245	0xbbab79e5	-0.005233037
246	0x3fbb0771	1.4611646
247	0xbc537ba1	-0.012907893
248	0x3fa6c0c2	1.3027575
249	0x3fb62b30	1.423193
250	0x3fbd4f31	1.4789792
251	0x3fc01c88	1.5008707
252	0x3fb870c0	1.4409409
253	0x3fdd4aef	1.7288493
254	0x3fa98612	1.324404
255	0x3fbad582	1.4596407

net.layers.1.bias f4 [128]
0	0x3f0212d1	0.5080996
1	0x3f0e29c1	0.5553246
2	0x3ee31013	0.443482
3	0x3ecfed48	0.4061072
4	0xbca82367	-0.020524694
5	0xbda010e9	-0.07815725
6	0xbba5bfe3	-0.005058275
7	0xbde25439	-0.110512204
8	0x3eddc884	0.43317044
9	0x3f07f83c	0.5311315
10	0xbd7c6d99	-0.061627958
11	0x3ecc62df	0.39919183
12	0xbd028871	-0.031868402
13	0x3efd07ac	0.49419916
14	0x3edc413f	0.4301853
15	0xbe11c5fa	-0.14235678
16	0xbe0cac86	-0.13737687
17	0x3eca37c8	0.39495683
18	0x3c19d8eb	0.009390096
19	0x3f1ea13f	0.6196479
20	0x3ef74843	0.4829732
21	0x3f03798c	0.5135734
22	0x3edfb214	0.4369055
23	0x3f0938da	0.53602374
24	0x3f09ca13	0.53823966
25	0x3f0750e6	0.52857816
26	0xbdea1191	-0.11429132
27	0x3f03af2d	0.5143917
28	0xbcfe0b81	-0.031011345
29	0x3f140b2c	0.57829547
30	0x3efa9bb7	0.48946926
31	0xbc50399d	-0.012709049
32	0x3f15708b	0.5837485
33	0x3ef26c4f	0.47348258
34	0xbd6a9743	-0.05727316
35	0xbda9bf1c	-0.08288404
36	0xbdd5ce8f	-0.104397886
37	0xbd19790d	-0.03746896
38	0x3ed5f313	0.41787013
39	0xbd77ecc1	-0.06052852
40	0x3edaf666	0.42766112
41	0x3ef7fd0d	0.4843525
42	0xbdaa6bef	-0.08321368
43	0x3ed75f0d	0.42064705
44	0x3ee6b5a9	0.4506047
45	0x3ebfb325	0.37441364
46	0xbd3375f3	-0.043813657
47	0xbd1eef08	-0.038802177
48	0x3ef09b12	0.4699331
49	0xbe01efc6	-0.12689123
50	0x3ecc2056	0.3986842
51	0x3f3a4961	0.7276822
52	0x3f0c17c3	0.5472376
53	0xbc8ed7dc	-0.017436914
54	0x3efc3ba7	0.4926426
55	0x3f02f646	0.51157033
56	0x3eff56d1	0.49870923
57	0xbda7d833	-0.081955336
58	0xbddd658e	-0.10810386
59	0x3ef577d4	0.47942984
60	0xbe040726	-0.12893352
61	0x3eec8ab9	0.46199587
62	0x3f036ef1	0.5134116
63	0x3ed291c2	0.4112683
64	0xbe01cd84	-0.12676054
65	0x3f0d6602	0.55233777
66	0xbda1e04c	-0.07904109
67	0x3ef046c8	0.46929002
68	0xbce24a95	-0.027623454
69	0x3d848a84	0.06471732
70	0xbcc27e2c	-0.023741804
71	0xbd610359	-0.054934833
72	0xbdc7a753	-0.097487114
73	0x3eab660b	0.3347629
74	0x3ec42fab	0.38317618
75	0x3ebebfab	0.37255606
76	0x3ee4716c	0.44617784
77	0x3ed6b12a	0.4193204
78	0x3ee2bcba	0.44284612
79	0x3ee9d43e	0.4566974
80	0x3f1968d6	0.5992559
81	0x3f0440bf	0.51661295
82	0x3efd6b4e	0.4949593
83	0xbd943bf1	-0.072379954
84	0x3f0a0abd	0.53922635
85	0x3f009ce2	0.50239384
86	0x3efd144f	0.49429557
87	0xbe0d7fae	-0.13818237
88	0x3efd906e	0.49524254
89	0xbe0c70da	-0.13714924
90	0x3f017d12	0.5058147
91	0x3f0aafc5	0.54174453
92	0x3ef99e37	0.4875352
93	0x3f0a01e1	0.53909117
94	0x3ef81349	0.48452213
95	0x3edb686b	0.42853102
96	0xbd3071df	-0.043077346
97	0x3f012d52	0.5045978
98	0xbcc7ecc3	-0.024404889
99	0x3ee8ef4f	0.45495078
100	0xbe0435ad	-0.129111
101	0xbdad7577	-0.0846967
102	0x3f0168ae	0.50550354
103	0xbda32929	-0.07966835
104	0x3ec06e80	0.37584305
105	0x3ee7b730	0.45256948
106	0x3ef0fa9e	0.47066206
107	0xbd81f6bc	-0.06345889
108	0x3f032e38	0.512424
109	0xbdb809d6	-0.08986251
110	0xbc76bc67	-0.015059567
111	0xbd22a2e8	-0.03970614
112	0x3f17acd1	0.5924807
113	0x3ec2dfff	0.3806152
114	0x3f05ac33	0.5221588
115	0x3f04ed12	0.5192424
116	0xbe07db84	-0.13267332
117	0x3ef92ce6	0.48667067
118	0x3eedd755	0.46453348
119	0x3eef6930	0.4675994
120	0x3ef54e17	0.4791114
121	0x3ed7e4a8	0.42166638
122	0xbd8e5011	-0.06948865
123	0x3efc0c2c	0.49228036
124	0x3f02c18d	0.51076585
125	0x3f05d7e9	0.5228258
126	0x3a00ecea	0.00049181154
127	0x3ed32971	0.41242555

net.out.weight f4 [64, 128]
0	0xbf4b0971	-0.7931128
1	0xbf2c2689	-0.672463
2	0xbf4b1e67	-0.79343265
3	0xbf6acf6a	-0.9172274
4	0x3ba14e27	0.0049226466
5	0x3e0a8725	0.13528116
6	0xbd817c0b	-0.063224874
7	0x3dea30e0	0.114351034
8	0xbf4da1c1	-0.8032494
9	0xbf873f93	-1.0566276
10	0xbb4b39e2	-0.0031009843
11	0xbf677e57	-0.90427154
12	0xbd17cb3f	-0.037059065
13	0xbf4b2f94	-0.79369473
14	0xbf5c853c	-0.861408
15	0x3d342ee7	0.043990042
16	0x3dfe94b6	0.12430708
17	0xbf6526ee	-0.89512527
18	0xbddedf4b	-0.108824335
19	0xbf2f50c7	-0.6848263
20	0xbf4f7646	-0.81039846
21	0xbf5c3a34	-0.8602631
22	0xbf559f96	-0.83446634
23	0xbf447a46	-0.76749074
24	0xbf54fa0c	-0.8319404
25	0xbf84ddde	-1.0380208
26	0xbc66d853	-0.014089662
27	0xbf72939c	-0.94756484
28	0x3db46eb0	0.088101745
29	0xbf7d72a6	-0.99003065
30	0xbf72da59	-0.9486442
31	0xbd814bb8	-0.0631327
32	0xbf761fa8	-0.96142054
33	0xbf79377e	-0.973503
34	0xbda2722e	-0.07931934
35	0x3e1617f0	0.14657569
36	0x3d7f4140	0.062318087
37	0xbc714df4	-0.014728058
38	0xbf3664d2	-0.7124759
39	0x3c5828f6	0.01319336
40	0xbf5f4221	-0.8721028
41	0xbf6c9462	-0.92413914
42	0x3d91784c	0.07103023
43	0xbf5c4fa9	-0.8605905
44	0xbf53fbd8	-0.8280616
45	0xbf667e46	-0.9003643
46	0xbb432691	-0.0029777626
47	0xbd468372	-0.0484652
48	0xbf6341c8	-0.8877225
49	0x3dccfc9c	0.10009119
50	0xbf6e5525	-0.9309867
51	0xbf32459f	-0.69637483
52	0xbf552b80	-0.832695
53	0x3da96276	0.08270733
54	0xbf80fafb	-1.0076593
55	0xbf711fbf	-0.94189066
56	0xbf610de6	-0.8791183
57	0x3e0e7553	0.13911943
58	0x3d606a97	0.054789152
59	0xbf52eb62	-0.82390416
60	0x3c73c2db	0.014878
61	0xbf75e1c2	-0.96047604
62	0xbf5ee9fb	-0.87075776
63	0xbf6de4c4	-0.92927194
64	0xbd0db5b9	-0.034597132
65	0xbf42e278	-0.76126814
66	0x3d420afb	0.047373753
67	0xbf6782a3	-0.9043371
68	0xbd5ea027	-0.054351952
69	0xbdfcc178	-0.12341589
70	0xbc903a5d	-0.017605955
71	0x3c8162d3	0.015794193
72	0xbd8569b0	-0.06514299
73	0xbf53b05b	-0.8269097
74	0xbf5cd573	-0.862632
75	0xbf5a8b68	-0.8536897
76	0xbf7643ea	-0.9619738
77	0xbf627c4b	-0.88470906
78	0xbf5f5e5a	-0.87253344
79	0xbf760fec	-0.96118045
80	0xbf7734f2	-0.96565163
81	0xbf5cbca5	-0.8622535
82	0xbf6a194b	-0.91444844
83	0x3d9529dd	0.072833754
84	0xbf5cddd2	-0.8627597
85	0xbf588e0e	-0.8459176
86	0xbf4995c9	-0.7874418
87	0x3e1340de	0.14380214
88	0xbf518cd5	-0.8185552
89	0x3db4f10e	0.0883504
90	0xbf5e9fe7	-0.8696274
91	0xbf708dbd	-0.93966275
92	0xbf5cb057	-0.86206573
93	0xbf508e93	-0.8146755
94	0xbf56c276	-0.83890474
95	0xbf5847e9	-0.84484726
96	0x3d556027	0.05209365
97	0xbf723e0f	-0.94625944
98	0x3da7bf4d	0.081907846
99	0xbf5a158f	-0.85189146
100	0xbda44be6	-0.08022289
101	0xbe053b10	-0.13010812
102	0xbf607220	-0.8767414
103	0x3cdaa890	0.026691705
104	0xbf66bdcc	-0.9013336
105	0xbf697c5f	-0.912054
106	0xbf6c7fd7	-0.9238257
107	0xbdbd7bad	-0.09252105
108	0xbf54550b	-0.82942265
109	0xbc89d728	-0.016826227
110	0x3ce3b39c	0.027795605
111	0xbd1037ff	-0.035209652
112	0xbf5c69b8	-0.86098814
113	0xbf5b44b8	-0.8565173
114	0xbf580575	-0.84383327
115	0xbf662c92	-0.8991176
116	0x3d85fba3	0.065421365
117	0xbf55d15d	-0.8352259
118	0xbf6488e8	-0.892714
119	0xbf61e467	-0.8823914
120	0xbf42e323	-0.76127833
121	0xbf6f3520	-0.9344044
122	0x3cd3179f	0.0257681
123	0xbf658948	-0.896626
124	0xbf5feec0	-0.8747368
125	0xbf5e52e6	-0.8684524
126	0x3d8d8621	0.06910349
127	0xbf708d9b	-0.9396607
128	0xbf62fa9b	-0.88663644
129	0xbf625d16	-0.8842329
130	0xbf70912a	-0.939715
131	0xbf806def	-1.0033549
132	0x3d852286	0.065007254
133	0x3ddb18aa	0.10698064
134	0x3ccf61de	0.025315221
135	0xbdd7a2d9	-0.105291076
136	0xbf542eb4	-0.82883763
137	0xbfaa100a	-1.3286145
138	0x3d97b1e9	0.074069805
139	0xbf7c417d	-0.9853743
140	0xbd1fec9a	-0.039044
141	0xbf8a0fa0	-1.0786018
142	0xbf71db62	-0.94475377
143	0x3dbc8a83	0.092061065
144	0x3ddf4e65	0.109036244
145	0xbf490755	-0.7852681
146	0x3c617317	0.01376035
147	0xbf8a2dc8	-1.0795221
148	0xbf49b1af	-0.7878675
149	0xbfa27e6f	-1.2694834
150	0xbf69f1f2	-0.91384804
151	0xbf871af4	-1.05551
152	0xbf586f1a	-0.8454453
153	0xbf9503b2	-1.1641753
154	0x3dea0197	0.114260845
155	0xbf6781b4	-0.90432286
156	0x3d1e06f6	0.038580857
157	0xbf866251	-1.0498754
158	0xbf8b6829	-1.0891162
159	0xbc5c2b4b	-0.013438056
160	0xbf8ba4cd	-1.0909668
161	0xbf840c37	-1.0316228
162	0xbc287189	-0.010280975
163	0x3dbe7b0e	0.093008146
164	0xbdeac805	-0.11463932
165	0x3d9a57bf	0.075362675
166	0xbf870a4a	-1.0550015
167	0x3d20f4df	0.039296027
168	0xbf7bbfe2	-0.98339665
169	0xbf49de05	-0.788544
170	0x3d627ff6	0.055297814
171	0xbf69125a	-0.9104363
172	0xbf8e102d	-1.1098686
173	0xbf3deb01	-0.7418671
174	0x3e116421	0.14198352
175	0xbda9cfb5	-0.0829157
176	0xbfa2052d	-1.265783
177	0x3da27aff	0.07933616
178	0xbf8097e3	-1.0046352
179	0xbf7f1828	-0.99646235
180	0xbfa26594	-1.2687249
181	0xbd96ef7b	-0.07369896
182	0xbfb08a44	-1.3792195
183	0xbf8aa0de	-1.0830343
184	0xbf91ac01	-1.1380616
185	0x3bea4e53	0.0071504503
186	0x3cb54cac	0.022131287
187	0xbf5f17be	-0.871456
188	0xbd67cd7c	-0.05659245
189	0xbf75060f	-0.9571237
190	0xbf6edde7	-0.93307346
191	0xbf75bc34	-0.959903
192	0x3d0c518c	0.034257457
193	0xbf4f4db3	-0.80977935
194	0xbd92b11d	-0.07162688
195	0xbf7b2c81	-0.9811478
196	0xbd14a578	-0.036290616
197	0xbcaf3bc9	-0.021390812
198	0xbdc46d2d	-0.09591136
199	0x3c8a47bb	0.016879907
200	0x3cfd5588	0.030924574
201	0xbf7be134	-0.9839051
202	0xbf6ee37f	-0.9331588
203	0xbf774b25	-0.96599036
204	0xbf8a984a	-1.0827725
205	0xbf6a897d	-0.9161604
206	0xbf80bb90	-1.005724
207	0xbf841959	-1.0320235
208	0xbf51e599	-0.81990963
209	0xbf81f433	-1.0152649
210	0xbf493a53	-0.7860462
211	0x3c30d8a5	0.01079384
212	0xbf9de232	-1.2334654
213	0xbf88dcac	-1.0692344
214	0xbf441067	-0.7658753
215	0x3de91902	0.11381723
216	0xbf7dbcf3	-0.9911644
217	0x3d932d35	0.07186357
218	0xbf82b4a0	-1.0211372
219	0xbf539498	-0.8264861
220	0xbf9198c5	-1.1374747
221	0xbf85d5b7	-1.0455846
222	0xbf80176f	-1.0007151
223	0xbf875e83	-1.0575718
224	0xbd70d241	-0.058794264
225	0xbf8a62bd	-1.0811383
226	0x3d5f0b6a	0.054454245
227	0xbf820ae5	-1.0159575
228	0xbd9f4408	-0.07776648
229	0x3c747ead	0.01492278
230	0xbf7a63e0	-0.9780865
231	0x3de52aa7	0.11189776
232	0xbf80d543	-1.0065082
233	0xbf831401	-1.024048
234	0xbf8073e6	-1.0035369
235	0xbdcc9cdc	-0.09990856
236	0xbf43f6c6	-0.7654842
237	0x3c4b1f61	0.012397618
238	0xbd97f03a	-0.074188665
239	0x3b96c894	0.0046015475
240	0xbf662a6b	-0.89908475
241	0xbf6b76b7	-0.9197802
242	0xbf4f3ee3	-0.8095533
243	0xbf3a4a59	-0.72769696
244	0x3d7d5006	0.061843894
245	0xbf5a10f4	-0.8518212
246	0xbf69aa37	-0.9127535
247	0xbf723de3	-0.9462568
248	0xbf595e1e	-0.84909236
249	0xbf8051a1	-1.0024911
250	0x3d012b3a	0.031535365
251	0xbf63ec3e	-0.8903235
252	0xbf5b7c0b	-0.8573615
253	0xbf6cdd6e	-0.92525375
254	0xbd3dcf18	-0.046340078
255	0xbf798bee	-0.9747914

net.out.bias f4 [64]
0	0xbd09fa75	-0.03368612
1	0xbe05d101	-0.1306801
2	0xbc71fb4d	-0.014769387
3	0xbe280294	-0.16407233
4	0xbdc13669	-0.09434206
5	0x3d228b90	0.03968388
6	0xbde7b5cb	-0.11313971
7	0xbe224d06	-0.15849695
8	0xbe07ec1a	-0.1327366
9	0xbe0bb9b4	-0.13645059
10	0x3dacee58	0.08443898
11	0xbe4df1f4	-0.20111829
12	0xbdb55181	-0.08853436
13	0xbd3b499d	-0.0457245
14	0xbe1a4ea3	-0.1506906
15	0xbe39ac6d	-0.18132181
16	0xbdc6b2d0	-0.097020745
17	0xbb3e2082	-0.0029011075
18	0xbd735f8b	-0.05941729
19	0xbd8bdcc7	-0.06829219
20	0xbcb66e82	-0.022269491
21	0xbdc9b323	-0.09848621
22	0xbe32a757	-0.17446648
23	0xbd8ba7a4	-0.06819084
24	0xbd2e00a7	-0.04248109
25	0xbdd906c8	-0.105969965
26	0xbe360995	-0.17777093
27	0xbd8db0bf	-0.06918477
28	0xbd8e58a6	-0.06950502
29	0xbda4fd0a	-0.08056076
30	0xbda87d9f	-0.08227085
31	0x3dde3e98	0.108517826
32	0x3da68d0f	0.081323735
33	0x3e1dbbea	0.15403715
34	0x3dc890cc	0.09793243
35	0x3e0dcaf9	0.13846959
36	0x3dc6a327	0.096990876
37	0x3e346a02	0.17618564
38	0x3dc2ff63	0.095213674
39	0x3e2c3030	0.16815257
40	0x3e14960e	0.14510366
41	0x3df47bfb	0.1193771
42	0x3e52b9ae	0.20578644
43	0x3e2da9d1	0.16959311
44	0x3e684433	0.22682266
45	0x3dd24b32	0.102682486
46	0x3e1da921	0.15396549
47	0x3e0b343d	0.13594146
48	0x3e3d47ab	0.1848437
49	0x3dcdc2bf	0.100469105
50	0x3e13ee18	0.14446294
51	0x3e61b892	0.22043064
52	0x3eec0126	0.46094626
53	0x3dda46c6	0.1065803
54	0x3e7521fb	0.23938744
55	0x3dad31ef	0.0845679
56	0x3e2a3d6b	0.16624992
57	0x3d9d41ee	0.07678591
58	0x3e7222e8	0.23646128
59	0x3e59105e	0.2119765
60	0x3db3dfdc	0.08782932
61	0x3e2e4b3e	0.1702089
62	0x3e015308	0.1262933
63	0x3e4ec9f9	0.20194234

v.layers.0.weight f4 [128, 131]
0	0xbc2aa2f1	-0.010414825
1	0x3d972172	0.07379426
2	0x3d9b67dd	0.0758817
3	0x3d4f810d	0.05066018
4	0x3c66d684	0.01408923
5	0x3cbdc0a2	0.023163144
6	0xbbe6ef7f	-0.007047593
7	0x3d537268	0.05162278
8	0x3d01f5d5	0.031728584
9	0xbd7ab079	-0.061203454
10	0x3cd7116a	0.02625342
11	0x3c64d8d0	0.013967708
12	0xbcc403ff	-0.023927687
13	0x3d819854	0.063278824
14	0x3d8d552c	0.06901011
15	0xbcf43337	-0.029809577
16	0xbc01c5ae	-0.007920666
17	0xbcabc117	-0.020966096
18	0xbc8a44a8	-0.016878441
19	0x3d47428b	0.048647445
20	0x3db0df70	0.08636367
21	0xbd7f35e8	-0.06230727
22	0xbd82ae66	-0.0638092
23	0x3db436be	0.08799504
24	0x3da335eb	0.079692684
25	0xbcc2e3d9	-0.023790287
26	0x3cb564cd	0.022142792
27	0x3dc3a97d	0.09553812
28	0xbd346d19	-0.044049356
29	0x3d9da008	0.07696539
30	0xba97b49f	-0.0011574215
31	0xbb93958d	-0.004503912
32	0x3dd07179	0.10177893
33	0xbd621dc4	-0.055204168
34	0x3dab79a0	0.083728075
35	0x3da892cf	0.082311265
36	0xbda7f50c	-0.08201036
37	0xbd59871f	-0.053107377
38	0x3d987db4	0.07445851
39	0xbda46589	-0.08027179
40	0xbd2b0b86	-0.041759036
41	0xbd014818	-0.031562895
42	0x3d99aae4	0.07503298
43	0xbd3b6cb4	-0.045757964
44	0xbaf19013	-0.0018429778
45	0x3d69b0ab	0.05705325
46	0x3c4b3f9c	0.012405302
47	0x3d84890a	0.064714506
48	0xbd8dfa3e	-0.069324955
49	0x3d79377c	0.06084393
50	0x3d9bf73f	0.07615518
51	0x3da0d047	0.07852226
52	0xbcf6319a	-0.030052949
53	0x3c336c48	0.010951109
54	0x3d8d11c5	0.06888155
55	0x3d8f705e	0.07003854
56	0xbf152f6f	-0.582755
57	0x3d6b758d	0.057485152
58	0xbcd46810	-0.025928527
59	0x3c3b9a33	0.011450338
60	0x3cd07d3a	0.025450338
61	0xbd9e6a19	-0.0773508
62	0xbcc97688	-0.024592653
63	0xbd1f94be	-0.03896021
64	0xbd9c1974	-0.07622042
65	0x3ec49c5c	0.38400543
66	0x3dd026fb	0.10163685
67	0xbe8009b8	-0.25007415
68	0xbdc5dea8	-0.09661609
69	0x3d8061bb	0.062686406
70	0x3ea72fdc	0.326537
71	0x3e2b3c91	0.16722323
72	0xbf0636c7	-0.52427334
73	0x3e384edf	0.17998837
74	0xbe17f0c2	-0.14837936
75	0xbd497cdb	-0.049191337
76	0xbf05365f	-0.5203609
77	0xbd21d9b8	-0.039514273
78	0xbeda25d3	-0.42606983
79	0xbed7e3d9	-0.4216602
80	0x3ea9612d	0.33081952
81	0xbbde0ad1	-0.0067761918
82	0xbd542abf	-0.05179858
83	0x3e86f877	0.2636144
84	0x3d72bdc1	0.059262995
85	0x3e0d3b81	0.1379223
86	0xbe2d6619	-0.16933478
87	0x3e91621d	0.28395167
88	0x3e04dd22	0.1297498
89	0x3e6d5f46	0.23180875
90	0xbe810810	-0.25201464
91	0x3dc2713f	0.09494256
92	0xbe009a6b	-0.12558906
93	0xbd418ff9	-0.047256444
94	0x3e639856	0.2222608
95	0xbe9a1283	-0.30092248
96	0xbe7ae66c	-0.24501961
97	0xbf267d07	-0.65034527
98	0x3d6b9a5a	0.057520248
99	0x3c1df2d5	0.009640415
100	0x3efac939	0.48981646
101	0x3dbcca29	0.092182465
102	0x3ebb7dac	0.36619318
103	0xbeea484a	-0.45758277
104	0x3e2b00e4	0.16699558
105	0xbb39714c	-0.002829629
106	0x3d0f06d7	0.034918632
107	0xbe3dac42	-0.18522742
108	0x3ea14859	0.3150051
109	0xbe88f2b2	-0.26747662
110	0x3e698db8	0.22807968
111	0x3b67e571	0.003538456
112	0xbf2389b0	-0.6388197
113	0xbe4bff1b	-0.19921534
114	0x3e1dd321	0.1541257
115	0x3e44ee6e	0.19231579
116	0x3e25360d	0.161339
117	0x3e8813fa	0.2657774
118	0xbeb5c1cc	-0.35499418
119	0x3ddcd3b7	0.10782569
120	0xbfb6bdf7	-1.4276723
121	0xbe66f2c1	-0.22553541
122	0xbe9eaca6	-0.30991095
123	0x3e7dc0d2	0.24780586
124	0x3cc10cc9	0.023565667
125	0x3ce2f68b	0.027705451
126	0xbda997aa	-0.08280881
127	0xbd11c631	-0.0355894
128	0xbd463ea7	-0.048399594
129	0x3d8b5894	0.06804004
130	0x3d7cd6ca	0.061728276
131	0xbe7bd1d5	-0.24591763
132	0xbe61a36b	-0.22034995
133	0xbe45bc39	-0.19310082
134	0xbe4cd869	-0.20004429
135	0xbe0a1a21	-0.1348653
136	0xbd40e993	-0.047097754
137	0xbddf4898	-0.10902518
138	0xbe44b3a1	-0.19209148
139	0xbe461344	-0.19343287
140	0xbe80b57e	-0.25138468
141	0xbe06b0e8	-0.13153422
142	0xbe8554ab	-0.2604116
143	0xbe0735ae	-0.13204071
144	0xbe7be27d	-0.24598117
145	0xbe1b34a2	-0.15156797
146	0xbe6c52bb	-0.23078434
147	0xbe0dd768	-0.13851702
148	0xbe422c3c	-0.18962187
149	0x3d1f92b8	0.03895828
150	0xbe53b8e1	-0.20675994
151	0xbe849290	-0.25893068
152	0xbe89c362	-0.26906878
153	0xbe557edf	-0.20849179
154	0xbe5ef9eb	-0.21775024
155	0xbe369844	-0.17831522
156	0xbe44f050	-0.19232297
157	0xbd9dfcd3	-0.07714238
158	0xbdfc60dd	-0.12323163
159	0xbe298b04	-0.16556937
160	0x3d4b4cbf	0.049633738
161	0xbe5fbc1a	-0.21849099
162	0xbe419989	-0.18906225
163	0xbe311ae0	-0.17295408
164	0xbd70aa7c	-0.058756337
165	0xbd911732	-0.07084502
166	0x3d0efd21	0.03490937
167	0xbd3cae10	-0.046064436
168	0x3daf3828	0.08555633
169	0x3c89423c	0.016755216
170	0xba4679bc	-0.00075712404
171	0xbd9e862d	-0.07740436
172	0xbd03e80d	-0.032203723
173	0x3da9981a	0.08280964
174	0xbd9f5d2e	-0.077814445
175	0x3d5d6087	0.054047134
176	0xbd86427c	-0.0655565
177	0xbd415359	-0.047198627
178	0xbd9fafb7	-0.07797187
179	0x3ce7b88d	0.028286243
180	0xbcb80a35	-0.022465805
181	0x3bd9d738	0.0066479705
182	0xbdaa97bc	-0.08329722
183	0x3d38889c	0.045052156
184	0x3cfda07c	0.030960314
185	0x3ce46569	0.027880387
186	0xbcd6034b	-0.026124617
187	0xbe099a53	-0.13437776
188	0xbd94f106	-0.07272534
189	0x3b97adae	0.0046288585
190	0xbd7a61cd	-0.061128426
191	0x3d9268e0	0.071489096
192	0xbda672c2	-0.08127357
193	0xbd5e7d7a	-0.054318883
194	0x3c842685	0.016131649
195	0x3eb76161	0.35816482
196	0xbea35412	-0.31900078
197	0x3e95112c	0.29114664
198	0xbf03d49b	-0.51496285
199	0xbee28d1c	-0.44248283
200	0xbda32373	-0.07965746
201	0xbd9dca95	-0.07704655
202	0x3ea97ef3	0.33104667
203	0xbe5d72a3	-0.21625762
204	0xbe74544d	-0.23860283
205	0xbdff2944	-0.12459043
206	0x3d2639e4	0.040582553
207	0xbe5be8dc	-0.21475548
208	0x3d9fd94b	0.07805117
209	0x3bdf8989	0.0068218154
210	0xbeb8524d	-0.3600029
211	0x3ec66f4c	0.38756788
212	0xbeaded80	-0.3397026
213	0xbe4d0c0e	-0.2002413
214	0xbcfd591a	-0.030926276
215	0x3e8a52a5	0.27016178
216	0xbe0c2756	-0.1368688
217	0x3e86e153	0.26343784
218	0xbc291007	-0.010318763
219	0xbe620487	-0.2207204
220	0x3eb9718c	0.36219442
221	0x3db278c9	0.08714444
222	0x3c8f967f	0.017527817
223	0x3ea5a3c0	0.32351494
224	0x3d72092e	0.059090786
225	0x3c2d0709	0.010560759
226	0x3e8ae95a	0.27131158
227	0x3e7af775	0.2450846
228	0xbd8b773e	-0.06809853
229	0xbdb1a72e	-0.08674465
230	0x3d3e03ff	0.04639053
231	0x3b60b267	0.0034286024
232	0x3d56814b	0.052369397
233	0xbda26b1a	-0.07930584
234	0xbda44236	-0.08020441
235	0x3ce58994	0.028019704
236	0x3d19f48a	0.037586726
237	0xbe4596b0	-0.19295764
238	0x3c62ec52	0.013850288
239	0xbd0b27aa	-0.033973373
240	0xbe927665	-0.28605953
241	0x3bfa8f3e	0.0076464703
242	0xbd2b01ef	-0.04174989
243	0x3daab586	0.08335404
244	0xbd873f50	-0.06603873
245	0xbd47b431	-0.04875583
246	0x3cc77ba7	0.024350954
247	0xbd84c1a5	-0.06482247
248	0xbebf90b7	-0.37415096
249	0x3d360ca1	0.044445638
250	0xbc81b749	-0.015834467
251	0xbe941ffb	-0.2893065
252	0x3d76c891	0.06024987
253	0x3e805816	0.25067204
254	0xbda5ff8e	-0.08105384
255	0xbc39ca65	-0.0113397585

v.layers.0.bias f4 [128]
0	0x3b22bcb6	0.0024831719
1	0xbe7a27aa	-0.24429193
2	0xbd8b9439	-0.068153806
3	0xbcaa529d	-0.020791346
4	0xbd6ee329	-0.058322106
5	0xbdce72ef	-0.100805156
6	0x3d1bb13c	0.03801082
7	0xbe49233d	-0.19642349
8	0xbde70c49	-0.1128164
9	0xbcc5799c	-0.02410584
10	0xbd2e1acf	-0.042506035
11	0xbe011810	-0.12606835
12	0xbd6c0b43	-0.057627928
13	0x3c6af49a	0.014340544
14	0xbd84b97d	-0.064806916
15	0xbe06bb96	-0.13157496
16	0xbaba8aed	-0.0014232077
17	0xbddce628	-0.10786086
18	0x3ca1bd2f	0.01974353
19	0xbde62de8	-0.11239225
20	0x3cb4b0e2	0.022057
21	0x3c60b98a	0.013716111
22	0xbdc02a58	-0.093830764
23	0xbe05f7e3	-0.13082843
24	0xbe031470	-0.12800765
25	0x3c5c96ef	0.01346372
26	0xbc31c3a5	-0.010849868
27	0xbd30f4b5	-0.04320212
28	0xbd9e0a38	-0.07716793
29	0xbd696000	-0.05697632
30	0xbd2fcdcb	-0.04292087
31	0x3e30fc4c	0.17283744
32	0xbd8d796d	-0.06907926
33	0xbceb2d91	-0.028708251
34	0x3c87c94f	0.016575484
35	0x3d1d70e0	0.038437724
36	0xbe0900c6	-0.13379201
37	0x3e34b270	0.17646194
38	0x3bd25c37	0.0064196843
39	0xbdaad829	-0.083420105
40	0xbcaa6153	-0.02079836
41	0xbda4b294	-0.080418736
42	0x3cb30f7a	0.021857966
43	0xbbe9f11a	-0.0071393372
44	0xbdc8d671	-0.098065265
45	0xbd5e1c08	-0.05422595
46	0xbdd6cedd	-0.10488675
47	0x3bb85b3d	0.005626111
48	0xbd241c58	-0.040066093
49	0xbc66d948	-0.01408989
50	0xbd495e5d	-0.049162257
51	0xbdc84158	-0.09778088
52	0x3e6147ec	0.22000092
53	0xbd784496	-0.060612284
54	0xbdb05227	-0.08609419
55	0xbdd7298b	-0.105059706
56	0xbe090777	-0.13381754
57	0xbbd93643	-0.006628783
58	0xbdf815a6	-0.12113504
59	0xbd07fd12	-0.03320033
60	0xbd0372ab	-0.032091778
61	0x3d285b3b	0.04110263
62	0xbdfb0ebb	-0.12258669
63	0xbd164e6d	-0.036695886
64	0xbe05c4e6	-0.13063392
65	0xbdb9092a	-0.09034951
66	0xbda24222	-0.0792277
67	0xbdcbc526	-0.099497125
68	0x3e701f3a	0.23449412
69	0xbd7b8bb1	-0.061412517
70	0x3e404d66	0.18779525
71	0xbdc4cdf3	-0.09609594
72	0x3e3d165a	0.18465558
73	0xbdb82598	-0.089915454
74	0x3e1909e1	0.14945175
75	0x3d424c1b	0.04743586
76	0x3d150ebd	0.03639101
77	0xbdaa84f3	-0.08326139
78	0x3e30ad6f	0.1725366
79	0x3d40eaba	0.047098853
80	0xbc0a21f3	-0.008430946
81	0xbdb70b84	-0.08937743
82	0x3cdf9ab2	0.027295444
83	0x3c421b6c	0.011847358
84	0xbd8c7905	-0.0685902
85	0x3bc2634b	0.005932247
86	0x3d927c9d	0.07152674
87	0x3e1a88d4	0.15091258
88	0xbd72ea41	-0.059305433
89	0xbd949a5a	-0.07256003
90	0xbd80e0e2	-0.06292893
91	0x3cb8504e	0.02249923
92	0xbcb0deb6	-0.021590572
93	0xbd448abd	-0.047983874
94	0xbd91b5ed	-0.07114778
95	0x3c637be2	0.013884516
96	0xbd1ff3f1	-0.039051
97	0x3dc63f94	0.09680095
98	0xbe154a29	-0.14579071
99	0xbc6f2db5	-0.0145983
100	0xbd033413	-0.032032084
101	0x3e25c039	0.16186608
102	0xbcf9cf13	-0.030494248
103	0xbd671106	-0.05641272
104	0x3c94b780	0.018153906
105	0x3ce02dd9	0.027365612
106	0xbe09c2c6	-0.13453206
107	0xbd123d2f	-0.03570288
108	0xbdea005a	-0.11425848
109	0xbddfe74a	-0.10932787
110	0xbe4db5d8	-0.20088899
111	0xbca30e87	-0.019904388
112	0xbcac8165	-0.021057794
113	0x3e2076e2	0.1567035
114	0x3b39f32d	0.0028373704
115	0xbcbf8eaa	-0.023383457
116	0xbddf0f1d	-0.108915545
117	0xbccef9a3	-0.02526552
118	0xbdff650b	-0.12470444
119	0xbe16010d	-0.14648838
120	0xbdd98b29	-0.10622246
121	0x3e8bc27c	0.27296817
122	0xbc937948	-0.018002167
123	0xbcc9c78c	-0.024631284
124	0xbc7a8121	-0.015289576
125	0xbdf6549b	-0.12027856
126	0xbd50706d	-0.050888468
127	0xbd078f0a	-0.033095397

v.layers.1.weight f4 [128, 128]
0	0xbce11f6e	-0.027480807
1	0x3d429650	0.04750663
2	0xbdb3731f	-0.08762192
3	0x3aed2b05	0.0018094486
4	0xbdc2352c	-0.09482798
5	0xbd977801	-0.07395936
6	0xbdd66cdf	-0.10469984
7	0xbd39a20a	-0.045320548
8	0xb9d56ed2	-0.00040709093
9	0xbd7e2b43	-0.062052976
10	0x3c013286	0.007885581
11	0xbcb37a89	-0.021909015
12	0x3c0c79f3	0.008573997
13	0xbd0a331b	-0.033740144
14	0xbde9149a	-0.113808826
15	0xbdb46b97	-0.08809584
16	0x3c8fba8c	0.017545007
17	0xbcd0fcd0	-0.025511175
18	0x3d3ae642	0.045629747
19	0xbc618469	-0.013764479
20	0xbd50fb10	-0.05102068
21	0xbbb13b80	-0.0054087043
22	0xbd2b01d1	-0.04174978
23	0x3c06de74	0.008231748
24	0xbd372f90	-0.044723094
25	0xbd0b4e74	-0.034010366
26	0xbdc10fa6	-0.09426813
27	0xbd64c6a7	-0.055853512
28	0xbdefee74	-0.11715403
29	0xbdbe0b95	-0.09279553
30	0xbd95bd5d	-0.07311509
31	0xbe16947d	-0.14705081
32	0xbd86358d	-0.06553183
33	0xbcb44917	-0.022007508
34	0xbd5fcc11	-0.054637972
35	0xbc966520	-0.018358767
36	0x3c05e78d	0.008172882
37	0xbdf89316	-0.121374294
38	0x3c893fd4	0.016754068
39	0xbe16c490	-0.1472342
40	0xbd779971	-0.060449068
41	0xbdace338	-0.08441776
42	0x3cc7af8b	0.024375698
43	0x3c86f4d2	0.016474161
44	0xbd34aa49	-0.04410771
45	0xbdf0d81a	-0.11759968
46	0xbd0ac12d	-0.033875633
47	0xbe0f3b69	-0.13987507
48	0xbd592bbb	-0.05302022
49	0xbd4cef80	-0.050033092
50	0xba9447f7	-0.0011312951
51	0xbdc770ed	-0.09738336
52	0xbdb1cb42	-0.086813465
53	0xbe13e5b6	-0.14443097
54	0xbdfd94f8	-0.12381929
55	0xbbd52f05	-0.0065058493
56	0x3c3e1e40	0.011603892
57	0xbddbb94d	-0.10728703
58	0x3b34ce27	0.0027588697
59	0xbdd287dc	-0.10279819
60	0x3d14aceb	0.03629772
61	0xbd500605	-0.05078699
62	0xbdd7d0d9	-0.105378814
63	0xbc4b6d5d	-0.012416211
64	0xbe076cd5	-0.1322511
65	0xbd72a268	-0.059236914
66	0xbc961bda	-0.018323828
67	0xbdd14f30	-0.10220182
68	0xbd00608e	-0.03134208
69	0xbdfc3942	-0.123156086
70	0xbc109061	-0.008823485
71	0xbd49c1a2	-0.04925693
72	0xbc67c5f2	-0.014146315
73	0xbd783564	-0.060597792
74	0xbd2a37df	-0.04155719
75	0x3c2ac3c2	0.010422649
76	0xbddd7492	-0.1081325
77	0xbd9cd87d	-0.07658479
78	0xbc917064	-0.017753787
79	0x3cafcd6c	0.021460257
80	0xbd7677db	-0.060172897
81	0xbc01a973	-0.007913935
82	0xbd389163	-0.045060527
83	0xbc71ee2d	-0.014766258
84	0xbe14c0fb	-0.14526741
85	0xbd1371c6	-0.035997175
86	0xbccc5737	-0.024943931
87	0xbdb72476	-0.08942501
88	0xbda97fb1	-0.08276308
89	0xbd5def71	-0.054183427
90	0xbded3229	-0.11581833
91	0xbe0a3039	-0.13494958
92	0xbe04551b	-0.1292309
93	0xbe0699bd	-0.13144584
94	0xbdabf16c	-0.08395657
95	0xbdb2fe15	-0.087398686
96	0x3c50242e	0.012703938
97	0xbe05a107	-0.13049708
98	0xbe15bbfa	-0.14622489
99	0xbe0fc5f7	-0.14040361
100	0xbc65574a	-0.013997862
101	0xbba4c209	-0.0050280136
102	0xbd964c11	-0.07338727
103	0xbc6f24c5	-0.014596169
104	0x3c6e7327	0.014553822
105	0xbdfaf2c3	-0.122533344
106	0xbd1ddd8d	-0.038541365
107	0xbc578e0c	-0.013156425
108	0xbd0d4f19	-0.03449926
109	0x3cb1bee8	0.021697477
110	0xbd240d6f	-0.040051874
111	0xbde20085	-0.11035255
112	0xbe07631a	-0.13221398
113	0x3c690f5e	0.014224855
114	0xbc18d03b	-0.00932699
115	0xbca1cf87	-0.019752277
116	0xbd9edb1d	-0.07756636
117	0xbdb10f32	-0.086454764
118	0xbd115451	-0.0354808
119	0x3c3376fa	0.010953659
120	0xbe022418	-0.12709081
121	0xbd6ba791	-0.05753285
122	0xbda1deb4	-0.079038054
123	0xbe12b687	-0.14327441
124	0x3db10be9	0.0864485
125	0xbddc5389	-0.107581206
126	0xbd9d66ba	-0.07685609
127	0xbdc12bc6	-0.09432177
128	0xbd91ae06	-0.071132705
129	0x3a224554	0.000619014
130	0xbdb49c49	-0.088188715
131	0xba931a3a	-0.0011223026
132	0x3d85cc1f	0.06533074
133	0xbcabd169	-0.020973878
134	0xbd3a433d	-0.04547428
135	0x3d9f4113	0.07776084
136	0x3d97514b	0.07388552
137	0x3dc01eb3	0.093808554
138	0x3d7b15a6	0.061299942
139	0x3d424211	0.047426287
140	0xbd86b17d	-0.06576822
141	0xbcdff893	-0.02734021
142	0xbd0b507c	-0.034012303
143	0x3e064b51	0.13114668
144	0x3c3a9b2f	0.011389538
145	0xbcb4f978	-0.022091612
146	0xbd890654	-0.0669066
147	0x3d3e2324	0.04642023
148	0x3c601f7c	0.013679381
149	0x3d101d33	0.035184097
150	0x3c9468dc	0.018116407
151	0xbc2a23d0	-0.010384515
152	0x3d1a8c47	0.037731435
153	0x3dc99353	0.09842553
154	0x3ddba357	0.10724514
155	0x3d36761b	0.044546228
156	0x3d93676c	0.071974605
157	0x3d8793d5	0.066199936
158	0x3d504125	0.050843377
159	0x3e1757ed	0.14779635
160	0x3d42e676	0.047583066
161	0x3d28a405	0.041172046
162	0xbcb9e306	-0.022691261
163	0x3cfb763a	0.030696023
164	0xbc69e4f4	-0.014275778
165	0x3e5e0c52	0.21684387
166	0x3d97a1e8	0.07403928
167	0xbc377060	-0.011196226
168	0x3dd81186	0.10550217
169	0x3c7437df	0.014905899
170	0xbcd37214	-0.025811233
171	0xbd84b091	-0.0647899
172	0xbdebf47c	-0.11521241
173	0x3d7150c0	0.0589149
174	0x3e023183	0.127142
175	0xbcd9920f	-0.026558904
176	0xbdcdadb0	-0.10042894
177	0x3db55e18	0.088558376
178	0xbc52b357	-0.012860141
179	0xbc546563	-0.012963626
180	0x3e633450	0.22187924
181	0xbc9effa1	-0.019409003
182	0xbd85e97b	-0.065386735
183	0x3d718d14	0.058972433
184	0x3d28ea39	0.041238997
185	0xbd3375a1	-0.04381335
186	0xbb68216c	-0.0035420312
187	0xbebc1311	-0.36733297
188	0x3c7369f6	0.014856806
189	0x3dbf0f1a	0.09329052
190	0x3d063b7d	0.032771576
191	0x3da97770	0.08274734
192	0xbcb8178e	-0.02247217
193	0x3e059137	0.13043676
194	0xbd38a238	-0.04507658
195	0xbb03b14a	-0.0020094686
196	0x3df98b10	0.12184727
197	0xbd0fb332	-0.035083003
198	0x3e2c620a	0.16834274
199	0x3dc6391c	0.096788615
200	0x3cf1666b	0.029467782
201	0xbdc47965	-0.09593467
202	0xbce36436	-0.027757745
203	0xbdad6073	-0.08465662
204	0xbce0387b	-0.027370682
205	0xbcdf5bd6	-0.02726547
206	0x3dfae280	0.12250233
207	0x3c8ccee1	0.017188491
208	0x3c3137c0	0.0108165145
209	0x3dfffcc0	0.1249938
210	0x3d9a8e50	0.07546675
211	0x3db39d1d	0.08770201
212	0xbed8cd6c	-0.42344224
213	0x3d889583	0.06669142
214	0xbc530031	-0.012878464
215	0x3d8e0d94	0.069361836
216	0x3c4f024b	0.012634824
217	0xbd82a068	-0.06378251
218	0xbdab0b4b	-0.08351763
219	0x3d877a25	0.06615094
220	0x3c2c13a6	0.010502731
221	0x3c52ab40	0.012858212
222	0xbcd8869c	-0.026431374
223	0x3d380aac	0.044932052
224	0x3d12f21a	0.035875417
225	0xbdfe3724	-0.12412861
226	0x3da3d53c	0.079996556
227	0x3d7b7a23	0.061395776
228	0x3ca55310	0.020181209
229	0x3e21b63e	0.15792176
230	0xbd568bf7	-0.052379575
231	0x3dbf31f1	0.093356974
232	0x3e1219f2	0.1426771
233	0x3e0227a5	0.12710436
234	0x3db778af	0.089585654
235	0xbdb80ed5	-0.08987204
236	0x3ee03e68	0.43797612
237	0x3e066e2e	0.13127968
238	0x3e07cf19	0.13262595
239	0x3d1b9f9e	0.03799402
240	0x3d5f7450	0.054554284
241	0x3e3b03cb	0.18263166
242	0x3d34a155	0.04409917
243	0xbc5133ff	-0.0127687445
244	0xbcacc5b4	-0.021090366
245	0xbd35e0f3	-0.04440398
246	0x3e03ddac	0.1287753
247	0x3d88cf6c	0.066801876
248	0x3d5a647d	0.05331849
249	0x3da258b0	0.07927072
250	0x3d2a1bed	0.04153054
251	0x3c800709	0.015628355
252	0x3d23965b	0.039938312
253	0xbd8a2275	-0.067448534
254	0x3d41c41d	0.04730617
255	0x3d9cd3de	0.07657598

v.layers.1.bias f4 [128]
0	0xbda0b2e0	-0.07846618
1	0x3ecfb1b6	0.4056527
2	0xbd13ca92	-0.036081858
3	0xbdc213a7	-0.09476405
4	0x3e84c4d4	0.25931418
5	0x3e46d6f8	0.19417942
6	0xbd516978	-0.051125973
7	0x3d2e7dcf	0.04260045
8	0xbdb6a694	-0.08918491
9	0x3e708afc	0.23490518
10	0xbcb42e97	-0.021994872
11	0x3da4b1aa	0.08041699
12	0xbd41e698	-0.047339052
13	0xbcf3317a	-0.029686678
14	0xbd734526	-0.059392117
15	0xbb8445f0	-0.0040366575
16	0xbd1e9ea1	-0.0387255
17	0x3e2823c3	0.16419892
18	0xbdb959d0	-0.090503335
19	0xbdfb4663	-0.122692846
20	0x3cd12914	0.025532283
21	0xbd778ff8	-0.060440034
22	0xbd4f90b6	-0.050675116
23	0x3e9d4a0b	0.30720553
24	0xbd5a2578	-0.05325839
25	0xbd8f13c8	-0.06986195
26	0x3e058fce	0.13043138
27	0xbd0c8383	-0.034305107
28	0xbd8821ab	-0.06647047
29	0x3cdec6cc	0.027194403
30	0xbd8c3bea	-0.06847365
31	0xba0d221d	-0.00053838064
32	0xbdd81dba	-0.10552545
33	0xbcce6dbd	-0.025198812
34	0xbe06f66c	-0.1317994
35	0xbe25ed62	-0.16203836
36	0xbcb9eb59	-0.02269523
37	0xbd4297ee	-0.047508173
38	0x3c806d83	0.01567722
39	0x3deaa73f	0.11457681
40	0x3e657b6b	0.22410361
41	0xbd10c83e	-0.035347216
42	0x3e70bf74	0.23510534
43	0x3d48dd1f	0.049039003
44	0xbd70415e	-0.05865609
45	0x3cfdb88e	0.030971792
46	0x3e241986	0.16025361
47	0x3e2a6129	0.16638626
48	0xbd9661b6	-0.07342856
49	0x3e01710e	0.12640783
50	0xbd9ac89a	-0.07557793
51	0xbe1521e2	-0.14563707
52	0xbc53f6f2	-0.012937294
53	0xbdd46bf1	-0.10372151
54	0x3e0a64df	0.13515042
55	0xbda03526	-0.07822637
56	0xbdd20f46	-0.102568194
57	0xbc4e376a	-0.012586454
58	0x3e8fd0f4	0.28089106
59	0xbdeb3a56	-0.11485736
60	0xbbd1dfd3	-0.0064048558
61	0xbda3a261	-0.07989956
62	0xbd4f8a4f	-0.05066901
63	0xbde33c06	-0.11095433
64	0xbd3ce84d	-0.046119977
65	0xbdb290c5	-0.08719019
66	0xbda00271	-0.07812966
67	0xbc6897fc	-0.014196392
68	0xbdc9ac2a	-0.09847291
69	0x3e9de177	0.3083608
70	0x3e14cd17	0.1453136
71	0x3e92a911	0.28644612
72	0xbde27189	-0.11056811
73	0xbda0945d	-0.07840798
74	0xbcd747c5	-0.02627934
75	0x3e1bac47	0.15202437
76	0xbd8970f7	-0.067109995
77	0x3e3abe6c	0.18236703
78	0xbe19b15c	-0.15009063
79	0x3dc2a4ab	0.09504064
80	0xbdc925ec	-0.09821686
81	0xbce16a7a	-0.027516592
82	0xbe10d620	-0.14144182
83	0xbbdc063f	-0.006714612
84	0xbca4b86f	-0.020107476
85	0x3e246929	0.1605574
86	0x3e05942c	0.13044804
87	0xbd57acfc	-0.052655205
88	0xbcd6300c	-0.026145957
89	0x3d8455b8	0.06461662
90	0xbd8e0389	-0.06934268
91	0xbdfe32db	-0.12412044
92	0xbd24af8d	-0.04020648
93	0xbd0745f9	-0.033025716
94	0xbe0beecd	-0.13665314
95	0x3df6890e	0.1203786
96	0x3dfab9f1	0.12242497
97	0x3e5516ae	0.20809433
98	0xbd9b5898	-0.07585257
99	0x3e45e34e	0.19324991
100	0x3edfd871	0.4371982
101	0x3b4b7ce1	0.0031049775
102	0x3dc871b1	0.0978731
103	0xbcfa542b	-0.030557713
104	0xbc10e775	-0.008844246
105	0x3ee0937c	0.43862522
106	0x3e0b9ef8	0.1363486
107	0x3c280f65	0.010257577
108	0x3e8820e4	0.26587594
109	0x3c93400c	0.017974876
110	0xbd8a3805	-0.06748966
111	0x3dd294c0	0.10282278
112	0xbdf932d0	-0.12167895
113	0xbe136f95	-0.14398034
114	0x3ea3b352	0.31972748
115	0xbd0cadfa	-0.034345604
116	0xbd291d7e	-0.04128789
117	0x3ead275b	0.33819088
118	0x3e4c3099	0.19940414
119	0xbd4d6688	-0.05014661
120	0xbdeaac6b	-0.11458667
121	0x3e5ae292	0.21375492
122	0x3cd970fd	0.026543135
123	0xbc88b6e2	-0.016688768
124	0xbdc21b18	-0.09477824
125	0x3da487cb	0.08033713
126	0xbc91d445	-0.017801413
127	0xbd4777c2	-0.048698194
