models/qoar_mappo.pth (torch, 962037 bytes, 33 tensors)

net.layers.0.weight f4 [128, 131]
1.0507671 0.79452825 0.6381373 1.0847119 0.9725924 -0.14728071 0.13419798 0.88187516
0.9584493 1.272417 0.93001604 0.8357712 0.9687141 0.6064542 0.6994158 0.7684907
0.7115002 0.7402667 0.49643382 0.74510604 0.2930763 0.03406921 -0.1334328 -0.064091004
-0.13608047 -0.072937556 -0.0500265 0.11181024 -0.13281259 0.10660558 -0.12521592 0.06012534
-0.07146519 0.101722 0.79185784 -0.14430179 0.11520747 0.14144169 -0.017553626 -0.08272287
0.08935339 0.07384298 -0.033844378 0.018958589 -0.062374204 0.014640815 -0.1276383 -0.004215541
-0.0758706 0.143456 -0.10928662 -0.0010464801 -0.06686137 -0.10687491 -0.008279216 0.091453426
-0.017322851 -0.113141865 0.07020144 -0.09164313 0.1262401 0.10499636 -0.11854968 0.069273695
0.98882425 1.1027862 0.9376362 0.9648155 1.1334974 0.368319 0.21572243 0.6291276
1.1321614 0.91359943 0.740035 0.97258174 0.7547902 0.762585 1.1123285 0.6336987
0.9242778 1.0117265 0.52221817 0.92083734 0.023278734 -0.13152976 -0.17301267 0.08803664
-0.03026179 0.5034113 0.16322914 0.08696227 -0.05507305 -0.11917297 0.07828102 -0.5904206
-0.028892841 0.054954417 0.8589622 -0.22987737 -0.057911523 0.31602988 -0.23149107 -0.114685506
-0.069369115 -0.1651205 0.09717683 0.0129582565 0.005201991 -0.0019495491 0.06019318 -0.0696881
-0.062249772 0.03541046 -0.05564925 -0.11251283 -0.09201178 0.03980805 -0.04447171 0.03922058
0.1303035 0.0964272 -0.086770914 0.030454466 0.14530072 -0.06428925 0.03695258 0.049336668
0.9011866 0.8008267 0.8161535 0.9061018 0.87688977 0.46753088 0.5721826 0.77756536
0.11787163 0.12734143 0.88507515 0.8328747 0.8734755 1.1016717 0.6377693 1.0143638
0.5316424 0.77296495 0.9871627 0.5446152 0.62094957 0.4938689 0.93384916 0.48475075
0.09179973 -0.03287509 0.13167518 -0.10269615 0.08591455 -0.13845345 0.0029838365 -0.09351558
0.08647655 -0.106775954 0.14244129 0.04949866 0.019063262 1.0075942 0.09088866 0.15021524
-0.06918919 -0.12226473 -0.05996414 0.12954657 0.026927177 -0.004194122 -0.023129985 0.051734865
0.10482998 -0.122445844 -0.109531775 -0.10344915 -0.06856655 0.010180138 -0.058561217 0.11549903
0.014455617 -0.13159089 0.07149777 0.044226903 -0.054592192 0.044228572 0.12973534 -0.014224779
-0.1125164 0.1256529 0.035148766 1.0501277 0.8140941 0.6941235 1.1440057 0.9075385
0.22415282 0.19045947 0.70498514 1.0132962 0.7163215 0.76345205 1.0195149 0.7721305
0.84466213 1.2378045 1.0737936 0.8945873 0.8001341 0.78395915 0.7982888 0.64995027
-0.23796357 -0.16402736 -0.19887498 0.080138184 0.297203 0.43560496 0.012708176 -0.07066956
-0.008451579 0.26757243 -0.38912737 -0.1115825 0.02831216 0.904617 -0.27312788 -0.36032403
0.15475792 -0.20075148 -0.14541286 -0.08756782 -0.089939676 0.040046953 0.107812546 0.13626768
0.124752186 0.14328074 0.10261803 -0.07231016 0.053997185 -0.00310679 -0.059591025 0.099062055
0.103664584 -0.12937486 0.08485046 -0.059922818 0.036618277 0.12612617 0.09735319 -0.0019386898
00000000: 897f 863f 3466 4b3f f75c 233f d7d7 8a3f
00000010: d1fb 783f c1d0 16be 326b 093e 92c2 613f
00000020: ef5c 753f 8fde a23f 8815 6e3f 1af5 553f
00000030: a6fd 773f 9540 1b3f ea0c 333f cebb 443f
00000040: e124 363f 1e82 3d3f 932c fe3e 45bf 3e3f
00000050: 190e 963e 288c 0b3d 9ca2 08be 2542 83bd
00000060: ae58 0bbe 4960 95bd 96e8 4cbd c4fc e43d
00000070: 0600 08be 0754 da3d 9a38 00be fd45 763d
00000080: 575c 92bd a053 d03d 32b7 4a3f d9c3 13be
00000090: e5f1 eb3d 17d6 103e 9fcc 8fbc 9c6a a9bd
000000a0: e9fe b63d fd3a 973d 67a0 0abd 0b4f 9b3c
000000b0: 187c 7fbd 07e0 6f3c 9db3 02be 8522 8abb
000000c0: 0c62 9bbd 21e6 123e aad1 dfbd 0c2a 89ba
000000d0: 9dee 88bd 3ce1 dabd 8ca5 07bc ef4b bb3d
000000e0: a7e8 8dbc ecb6 e7bd c6c5 8f3d 65af bbbd
000000f0: 1645 013e 5508 d73d 2dca f2bd 5edf 8d3d
00000100: 9623 7d3f 1928 8d3f ed08 703f 26fe 763f
00000110: 7116 913f 4f94 bc3e 57e6 5c3e 820e 213f
00000120: aaea 903f a7e1 693f ef72 3d3f 1efb 783f
00000130: ee39 413f c538 433f c860 8e3f 143a 223f
00000140: 789d 6c3f 4180 813f 17b0 053f ffbb 6b3f
00000150: 0bb3 be3c bdaf 06be 3c2a 31be 8e4c b43d
00000160: 93e7 f7bc 90df 003f 8a25 273e 4619 b23d
00000170: 4794 61bd f510 f4bd cd51 a03d ce25 17bf
00000180: aeb0 ecbc e217 613d f2e4 5b3f f964 6bbe
00000190: a234 6dbd abce a13e ff0b 6dbe 3ce0 eabd
000001a0: 6511 8ebd 5915 29be a504 c73d de4e 543c
000001b0: 7775 aa3b 0388 ffba 208d 763d a2b8 8ebd
000001c0: 9ef9 7ebd 8f0a 113d 78f0 63bd 206d e6bd
000001d0: ac70 bcbd c40d 233d f827 36bd c2a5 203d
000001e0: 486e 053e a07b c53d f3b4 b1bd a57b f93c
000001f0: b6c9 143e 15aa 83bd 975b 173d 3f15 4a3d
00000200: 2ab4 663f fb02 4d3f 70ef 503f 4af6 673f
00000210: d97b 603f 3560 ef3e 8f7a 123f 860e 473f
00000220: ae66 f13d cb65 023e 4994 623f 4737 553f
00000230: 179c 5f3f 9403 8d3f d944 233f acd6 813f
00000240: b719 083f 08e1 453f b2b6 7c3f e76b 0b3f
00000250: 8df6 1e3f 62dc fc3e bd10 6f3f 4031 f83e
00000260: 7f01 bc3d 08a8 06bd dcd5 063e 5c52 d2bd
00000270: f8f3 af3d bec6 0dbe 788c 433b 1985 bfbd
00000280: 9e1a b13d 5aad dabd 21dc 113e 1bbf 4a3d
00000290: 8f2a 9c3c d9f8 803f d523 ba3d 06d2 193e
000002a0: 10b3 8dbd ee65 fabd f59c 75bd dba7 043e
000002b0: 6296 dc3c d86e 89bb 187b bdbc f0e7 533d
000002c0: 1ab1 d63d e3c4 fabd 3252 e0bd 26dd d3bd
000002d0: 9f6c 8cbd 98ca 263c e3dd 6fbd c18a ec3d
000002e0: 41d7 6c3c c3bf 06be 6c6d 923d 4527 353d
000002f0: 109c 5fbd 0529 353d 57d9 043e 0c0f 69bc
00000300: 006f e6bd 27ab 003e 27f8 0f3d 966a 863f
00000310: 7968 503f 14b2 313f c76e 923f 7154 683f
00000320: 5188 653e cf07 433e e879 343f b1b3 813f
00000330: d960 373f 9871 433f 777f 823f 58aa 453f
00000340: c73b 583f 6170 9e3f 1272 893f ac03 653f
00000350: 97d5 4c3f 8cb1 483f a85c 4c3f 2463 263f
00000360: b9ac 73be caf6 27be e2a5 4bbe 7d1f a43d
00000370: fe2a 983e 9d07 df3e f435 503c 34bb 90bd
00000380: 7e78 0abc 41ff 883e b43b c7be 5e85 e4bd
00000390: e7ee e73c fb94 673f 6bd7 8bbe 647c b8be
000003a0: dc78 1e3e cc91 4dbe 1ce7 14be c256 b3bd
000003b0: 4b32 b8bd 4608 243d d3cc dc3d c189 0b3e
000003c0: 137e ff3d 30b8 123e 6729 d23d 5917 94bd
000003d0: 272c 5d3d 499b 4bbb b815 74bd 0ce1 ca3d
000003e0: 194e d43d d87a 04be 14c6 ad3d a171 75bd
000003f0: 0cfd 153d 3827 013e 1c61 c73d a31b feba

net.layers.0.bias f4 [128]
0.9352845 1.0101725 1.1787055 1.1063222 1.1645994 1.0647349 1.2417656 0.9192829
1.047925 -0.05288947 1.2709006 -0.09396078 1.13175 0.8220601 1.0228463 1.0589354
1.2118223 0.75735635 1.1163994 1.1679465 -0.13111605 1.080291 0.9858149 1.2036312
-0.020648245 1.1826583 0.9494786 1.1850706 -0.07729852 1.151788 1.2578292 0.81821287
1.026086 0.98456216 0.99933815 1.2963247 1.1446853 0.1868341 1.1637933 1.0011687
1.3063117 1.2585206 0.7987506 0.8098236 0.9840469 -0.107306495 0.98905635 1.1603309
0.79883355 1.0421504 0.9315495 -0.07880131 -0.10690151 0.0 0.78432626 -0.051648207
1.0151473 1.1482779 1.1412386 0.9406646 1.0215255 1.0106323 0.9502589 0.90790033
1.2393929 0.9040003 1.2560501 -0.059390794 0.8779126 0.82927066 -0.066368125 1.0499539
1.095953 0.91790676 0.8317193 0.8780957 0.4327545 1.3203918 -0.10065542 1.0749846
0.70667887 1.0685873 0.9355189 1.0668347 0.8104034 -0.08821797 0.16269493 1.0588528
1.1357975 1.1291701 0.949257 1.0524604 1.083815 1.0687059 1.0681602 1.0127347
1.1222875 -0.06791582 1.1301106 1.0450953 1.0351474 -0.018911252 -0.01678843 1.2444246
1.1408292 1.0804577 0.9341292 1.0716485 0.8162183 1.1644039 0.99050987 1.0833302
1.0797926 1.0867591 1.2446467 1.2052964 1.0409267 1.0356936 1.0742347 1.1859121
1.0723974 0.93502194 0.91511005 1.2495674 1.0307059 0.9010617 1.0582286 1.1432412
00000000: ce6e 6f3f 554d 813f d2df 963f f79b 8d3f
00000010: 9811 953f 3c49 883f 2df2 9e3f 2056 6b3f
00000020: 6822 863f a1a2 58bd dfac a23f 826e c0bd
00000030: 2fdd 903f 8872 523f a1ec 823f 328b 873f
00000040: fe1c 9b3f 1be2 413f 2de6 8e3f 457f 953f
00000050: 4943 06be fa46 8a3f 5e5e 7c3f 9610 9a3f
00000060: 8226 a9bc 5961 973f 0811 733f 65b0 973f
00000070: b04e 9ebd ca6d 933f 8c00 a13f 6676 513f
00000080: c956 833f 440c 7c3f a0d4 7f3f f8ed a53f
00000090: 0c85 923f 7051 3f3e 2ef7 943f 4c26 803f
000000a0: 3935 a73f 3417 a13f eb7a 4c3f 9950 4f3f
000000b0: 7fea 7b3f 82c3 dbbd cc32 7d3f b985 943f
000000c0: 5b80 4c3f 2f65 853f 077a 6e3f 9562 a1bd
000000d0: 2eef dabd 0000 0000 9bc9 483f 128d 53bd
000000e0: 59f0 813f c5fa 923f 1b14 923f 65cf 703f
000000f0: 59c1 823f 665c 813f 2b44 733f 286c 683f
00000100: 6da4 9e3f 906c 673f 40c6 a03f c343 73bd
00000110: e1be 603f 154b 543f 03ec 87bd e464 863f
00000120: 3048 8c3f f0fb 6a3f 8eeb 543f e1ca 603f
00000130: ff91 dd3e 9902 a93f 6e24 cebd 1899 893f
00000140: e8e8 343f 78c7 883f 2b7e 6f3f 0a8e 883f
00000150: 9976 4f3f a0ab b4bd 8099 263e 7d88 873f
00000160: d061 913f a588 903f 8202 733f 06b7 863f
00000170: 73ba 8a3f 5bcb 883f 79b9 883f 4aa1 813f
00000180: 1ea7 8f3f 7317 8bbd 77a7 903f afc5 853f
00000190: b67f 843f c5eb 9abc e487 89bc 4e49 9f3f
000001a0: b106 923f 704c 8a3f 1723 6f3f c72b 893f
000001b0: aff3 503f 300b 953f 0e92 7d3f 90aa 8a3f
000001c0: a536 8a3f ec1a 8b3f 9550 9f3f 2747 9a3f
000001d0: 163d 853f 9c91 843f 8680 893f f8cb 973f
000001e0: 5144 893f 995d 6f3f a744 6a3f d3f1 9f3f
000001f0: 2cee 833f fbab 663f 0974 873f ba55 923f

net.layers.1.weight f4 [128, 128]
0.08515159 0.042326562 -0.14368542 -0.13029239 -0.19213848 0.19453715 0.05844704 -0.0065775886
-0.20947896 -0.0819344 0.09171721 -0.16317198 -0.18781975 -0.12571834 -0.06290204 -0.016890708
0.03346305 -0.013555745 0.059039965 -0.16611323 0.02113369 -0.16250168 -0.05391427 -0.09173076
0.0053147674 0.20211215 0.0536051 0.028081475 -0.08063868 -0.00563095 -0.19076402 0.06731153
-0.12155189 -0.11676113 -0.038187385 -0.065488644 -0.07974447 0.06864232 -0.039493572 -0.17923257
-0.19478548 -0.1978958 -0.014944766 -0.022202926 0.040253334 -0.039116003 -0.013033471 -0.15585135
-0.18463221 -0.06831362 -0.16689366 0.16576824 0.07676915 0.1182279 -0.18027772 -0.19258253
0.045784917 -0.14782433 -0.14119543 -0.013963778 -0.0729945 -0.11517395 -0.07249454 0.11623849
-0.15098393 -0.06152797 0.08840062 -0.15164578 -0.06829988 0.026914693 -0.18837625 -0.18094033
-0.009829481 -0.18129501 -0.07056756 0.2327333 0.057157796 0.14095421 -0.0032542136 -0.06693556
-0.16535997 -0.19315837 -0.016305553 -0.091337 0.065621056 0.04759978 -0.0127200335 -0.18987001
-0.001612064 0.013870409 0.07131355 0.0562415 0.06884703 -0.12465138 -0.16131869 -0.1482194
-0.025233088 -0.06628386 0.09582365 0.07685978 -0.01043783 -0.16954824 -0.20422849 -0.11307817
-0.1923034 -0.14609678 -0.010475452 -0.01637786 -0.21095811 0.04952305 -0.2098884 -0.15578969
-0.20546673 -0.0714986 0.008845752 0.075376265 -0.20337568 0.010859967 0.020582642 -0.19248064
0.08728801 -0.048163958 -0.090535246 -0.026824668 0.09371486 -0.1584609 -0.03026596 -0.1861503
1.3211925 1.0297339 0.99223894 1.2104403 0.972304 1.1511996 1.1371795 1.0009266
1.4296312 -0.12304318 1.0894722 0.0032036605 1.371779 0.89623034 1.1564102 1.375036
1.2207885 1.1261411 0.8996627 0.94562083 0.17606243 1.0362868 1.1313685 1.5093408
0.31582928 1.0289859 1.253209 1.4579871 -0.016675886 1.1589236 1.499427 0.9621744
1.097531 1.1022662 1.0099972 1.3134586 1.0727094 0.28633106 0.8786209 1.35764
1.2084277 0.99405104 0.9391307 1.033557 1.074494 0.10288144 1.1767794 1.3305695
0.9693779 1.3475951 1.0204052 -0.122438006 0.12856165 -0.07747769 0.8709628 -0.04879965
0.9663668 1.2124883 1.4338244 1.1939064 1.20785 1.0831294 0.97048366 1.3803313
1.1647706 1.11977 1.0617707 -0.07254669 1.0871756 1.4527072 0.04078784 1.1612371
1.2619448 1.0818195 1.0827717 1.2476952 0.3804778 1.423544 -0.10172215 0.9643424
0.65964353 0.9700795 0.9045279 1.4511381 1.1250091 -0.029960448 0.97638685 1.124235
1.5138175 0.9863103 1.2893373 1.0391011 1.1598932 1.2346315 1.3695638 1.0646043
0.9702053 -0.034001414 1.3306142 1.0523033 0.94783604 0.03544646 -0.08000424 1.319277
1.2357261 1.3223852 1.0788244 1.4976677 1.038351 1.0223815 1.2317489 1.1719633
0.9338343 1.1859871 1.2563678 1.109151 1.4069691 1.2110205 1.0057086 1.5360695
1.0192752 1.3079126 1.2645535 1.2984715 0.87429184 1.2408351 1.247712 1.2321761
00000000: f563 ae3d 9e5e 2d3d 4522 13be 5e6b 05be
00000010: f3bf 44be bf34 473e 2a66 6f3d d088 d7bb
00000020: a781 56be 39cd a7bd 3cd6 bb3d 8e16 27be
00000030: d253 40be 4fbc 00be c9d2 80bd 625e 8abc
00000040: 8d10 093d ea18 5ebc e4d3 713d 9619 2abe
00000050: 8f20 ad3c d766 26be 36d5 5cbd 56dd bbbd
00000060: 8027 ae3b 7df6 4e3e 0591 5b3d 1f0b e63c
00000070: e425 a5bd d583 b8bb a557 43be a1da 893d
00000080: 33f0 f8bd 7620 efbd 606a 1cbd e91e 86bd
00000090: 1251 a3bd 5894 8c3d 03c4 21bd be88 37be
000000a0: d875 47be 32a5 4abe e4da 74bc e9e2 b5bc
000000b0: aee0 243d 1a38 20bd 578a 55bc 7f97 1fbe
000000c0: 3a10 3dbe 03e8 8bbd 2ce6 2abe 26bf 293e
000000d0: 2539 9d3d 7821 f23d b99a 38be 5b34 45be
000000e0: f788 3b3d 435f 17be 8995 10be 54c8 64bc
000000f0: 247e 95bd 52e0 ebbd 0478 94bd 720e ee3d
00000100: 889b 1abe c104 7cbd 620b b53d 0849 1bbe
00000110: cfe0 8bbd 347c dc3c b4e5 40be 6c48 39be
00000120: d50b 21bc 66a5 39be ba85 90bd a351 6e3e
00000130: 4b1e 6a3d 4d56 103e a544 55bb 8315 89bd
00000140: 2054 29be 4fcb 45be 3993 85bc e50e bbbd
00000150: 5564 863d fdf7 423d b067 50bc 496d 42be
00000160: e44b d3ba b640 633c d70c 923d 7d5d 663d
00000170: acff 8c3d 3949 ffbd ba30 25be d4c6 17be
00000180: 9fb5 cebc d5bf 87bd 313f c43d a968 9d3d
00000190: 6f03 2bbc 0e9e 2dbe 4621 51be 8795 e7bd
000001a0: 2feb 44be 659a 15be 3ba1 2bbc dd2a 86bc
000001b0: 6705 58be afd8 4a3d fcec 56be 5587 1fbe
000001c0: df65 52be dc6d 92bd c6ed 103c df5e 9a3d
000001d0: b741 50be 01ee 313c ee9c a83c a519 45be
000001e0: 0ec4 b23d 9247 45bd 8b6a b9bd 68bf dbbc
000001f0: 94ed bf3d 9343 22be 52f0 f7bc 2f9e 3ebe
00000200: d61c a93f 52ce 833f 5f03 7e3f b5ef 9a3f
00000210: eae8 783f 825a 933f 198f 913f 5d1e 803f
00000220: 28fe b63f 10fe fbbd d373 8b3f 81f4 513b
00000230: 7496 af3f 5a6f 653f 4005 943f 2e01 b03f
00000240: cc42 9c3f 6425 903f 4b50 663f 3514 723f
00000250: b649 343e 0ca5 843f afd0 903f 1432 c13f
00000260: 60b4 a13e cfb5 833f 2769 a03f 529f ba3f
00000270: de9b 88bc 9c57 943f 39ed bf3f 1051 763f
00000280: e57b 8c3f 0f17 8d3f 9747 813f 691f a83f
00000290: 8b4e 893f fc99 923e 4ded 603f 26c7 ad3f
000002a0: c2ad 9a3f 217a 7e3f df6a 703f 994b 843f
000002b0: 0589 893f 81b3 d23d b5a0 963f 1a50 aa3f
000002c0: 2629 783f ff7d ac3f a39c 823f c7c0 fabd
000002d0: aaa5 033e a0ac 9ebd 6bf7 5e3f 24e2 47bd
000002e0: d163 773f d132 9b3f 8f87 b73f edd1 983f
000002f0: d49a 9a3f fca3 8a3f 9e71 783f b2ae b03f
00000300: 3417 953f a054 8f3f 1ae8 873f 5c93 94bd
00000310: 9228 8b3f 4ff2 b93f 2611 273d 6ba3 943f
00000320: 6887 a13f 1079 8a3f 4398 8a3f 7ab4 9f3f
00000330: fccd c23e b136 b63f b453 d0bd 25df 763f
00000340: 66de 283f 2157 783f 248f 673f e5be b93f
00000350: 4c00 903f 9d6f f5bc 7df4 793f efe6 8f3f
00000360: c6c4 c13f d57e 7c3f 0109 a53f 4401 853f
00000370: 6177 943f 6808 9e3f de4d af3f f444 883f
00000380: 605f 783f 1145 0bbd 9151 aa3f e0b1 863f
00000390: 62a5 723f 4f30 113d 43d9 a3bd 12de a83f
000003a0: 462c 9e3f eb43 a93f eb16 8a3f 93b3 bf3f
000003b0: b0e8 843f 66dd 823f f3a9 9d3f e502 963f
000003c0: c40f 6f3f 6dce 973f a9d0 a03f a9f8 8d3f
000003d0: 9017 b43f b802 9b3f 0fbb 803f ed9d c43f
000003e0: 9c77 823f ae69 a73f e4dc a13f 5034 a63f
000003f0: 97d1 5f3f afd3 9e3f 07b5 9f3f f2b7 9d3f

net.layers.1.bias f4 [128]
-0.05807892 0.2455607 0.30285454 -0.06320328 0.46115962 -0.061146468 0.34327856 0.4548638
0.3785846 0.2756836 0.30006844 -0.06035411 0.27373484 0.3228056 -0.060296196 0.33004597
0.28517866 -0.055681765 0.30633196 0.31396908 -0.03977393 0.26920897 0.0 0.21469781
0.3461509 -0.0623044 0.31399938 0.25243723 0.30390814 0.2819078 0.3208126 0.31366828
0.3207145 0.29037258 0.4814022 0.28483427 0.2694204 0.28642738 0.34779164 0.32800874
0.707758 0.28895682 0.2875379 0.45328477 0.27089608 0.25783598 0.403148 -0.13165341
-0.05945315 -0.059458807 0.3310948 -0.051102176 0.26808834 0.3287518 0.25747553 0.26043004
0.27337062 -0.05754089 0.44654864 0.25827405 0.62674004 0.3948101 0.33139926 -0.058509517
0.18565167 0.41868097 0.36939982 -0.06617207 -0.06003305 0.14339852 0.22835012 0.24848637
0.34850517 -0.059405323 -0.060154874 0.5362625 0.3108504 0.39603812 -0.03522149 0.30564708
0.32411212 0.30014697 0.40982604 -0.059449937 0.3301527 0.26935956 -0.052442044 0.40008968
0.31264573 0.32897812 0.2013776 -0.104772374 0.30174294 0.31240886 0.27119982 -0.07563512
0.39974064 0.34701118 0.32213715 0.24757025 0.28704345 0.31254008 -0.13116282 0.28339514
0.27454498 0.4253023 0.14453778 0.29483256 0.3181489 0.3283786 0.052914735 -0.07984737
0.32783335 0.34770373 0.287208 0.3440515 0.3194905 0.34035048 0.31637827 0.33980894
0.2853852 -0.07143385 0.31691754 0.2560213 -0.08395242 0.29671302 0.2776863 -0.055248126
00000000: 29e4 6dbd 4474 7b3e c00f 9b3e b970 81bd
00000010: 1d1d ec3e b874 7abd 35c2 af3e e8e3 e83e
00000020: d7d5 c13e 6726 8d3e 92a2 993e df35 77bd
00000030: f926 8c3e c746 a53e 25f9 76bd c9fb a83e
00000040: f002 923e 9012 64bd 8bd7 9c3e 8ec0 a03e
00000050: fde9 22bd c2d5 893e 0000 0000 bed9 5b3e
00000060: b13a b13e e632 7fbd 87c4 a03e 743f 813e
00000070: d999 9b3e 3856 903e 8d41 a43e 2199 a03e
00000080: b134 a43e b7ab 943e 597a f63e ccd5 913e
00000090: 78f1 893e 9ca6 923e bf11 b23e c3f0 a73e
000000a0: a12f 353f 26f2 933e 2b38 933e f114 e83e
000000b0: e4b2 8a3e 1403 843e 6a69 ce3e 27d0 06be
000000c0: 2585 73bd 148b 73bd 4285 a93e 8450 51bd
000000d0: e042 893e 2852 a83e d5d3 833e 1657 853e
000000e0: 3cf7 8b3e ffaf 6bbd 06a2 e43e 7f3c 843e
000000f0: 0972 203f 8d24 ca3e 2aad a93e ada7 6fbd
00000100: 791b 3e3e 5a5d d63e f921 bd3e 3985 87bd
00000110: 37e5 75bd 10d7 123e 9dd4 693e 3673 7e3e
00000120: 456f b23e ff52 73bd f564 76bd 8048 093f
00000130: c927 9f3e 82c5 ca3e 6944 10bd c67d 9c3e
00000140: 06f2 a53e ddac 993e b8d4 d13e c781 73bd
00000150: c609 a93e 7fe9 893e 78cd 56bd 8ed8 cc3e
00000160: 1a13 a03e d26f a83e ee35 4e3e e692 d6bd
00000170: 0d7e 9a3e 0ef4 9f3e b4da 8a3e 96e6 9abd
00000180: ceaa cc3e 73ab b13e 29ef a43e 0e83 7d3e
00000190: 5cf7 923e 4105 a03e 8c4f 06be 2b19 913e
000001a0: 2991 8c3e 39c1 d93e b601 143e 4bf4 963e
000001b0: 6ae4 a23e 3d21 a83e 1fbd 583d 0587 a3bd
000001c0: c6d9 a73e 3906 b23e ed0c 933e 8527 b03e
000001d0: 4294 a33e 6b42 ae3e 55fc a13e 70fb ad3e
000001e0: 021e 923e e94b 92bd 0443 a23e 3915 833e
000001f0: 3fef abbd c5ea 973e e62c 8e3e dc4b 62bd

net.out.weight f4 [64, 128]
0.015967622 -1.0730605 -1.1502092 0.023115637 -1.0852522 0.13834341 -0.9992549 -0.9994196
-0.8722081 -1.2021039 -1.032901 0.058435388 -0.8769715 -1.0954487 -0.012227075 -0.49964154
-1.1619397 -0.023467544 -0.8123482 -1.021374 -0.03076151 -1.0702493 0.124243215 -0.9310466
-0.8947939 0.17956178 -0.9248773 -1.0925272 -0.9825661 -0.9841463 -1.0502759 -1.1515392
-0.92734987 -1.0798472 -0.94486594 -0.9115249 -0.9949299 -0.9736083 -1.3490678 -0.9309831
-0.8595993 -1.3417627 -0.86658376 -0.85840327 -1.0908157 -1.1587158 -1.052324 -0.068238616
0.04733015 0.04948239 -1.1444954 -0.036507767 -1.1456912 -0.867143 -1.2570261 -1.0243814
-1.0949214 0.026193993 -1.1709433 -0.7154558 -1.130776 -0.7100002 -0.61048317 -0.002165549
-1.1092098 -1.4007815 -0.9969496 -0.19834816 0.10749994 -0.8803025 -0.8846967 -0.90647805
-1.1670865 -0.107921876 0.15726274 -1.0465369 -1.2380084 -0.93324304 0.07612821 -1.2621508
-0.89791155 -1.170794 -0.97477895 -0.086021446 -0.88239026 -0.8310453 0.0050031557 -0.9588444
-0.7662076 -0.67624784 -0.97792166 0.15214899 -0.94183755 -1.0237423 -1.1351507 0.067885846
-0.6949309 -1.0140804 -1.111888 -1.174843 -1.0637312 -1.0963427 -0.102461115 -0.9263221
-0.9961344 -1.1071814 -0.8355526 -0.82475305 -0.89624906 -0.8889793 -0.18019621 -0.07648556
-0.77361745 -0.9647397 -0.69922924 -0.6240844 -0.7916303 -1.2437203 -1.2043121 -1.1138291
-0.96516275 -0.050833747 -0.8382159 -0.72851235 -0.036909126 -1.2314674 -0.9459265 -0.035168394
-0.011649362 -1.3107427 -1.0807989 0.038131867 -1.3108197 0.0946688 -1.0390993 -1.1011513
-0.8490867 -0.8611324 -0.8913213 -0.13251573 -1.057668 -1.0433491 0.10737552 -1.2461543
-1.2130736 -0.22049929 -0.8167253 -0.86521995 -0.16007318 -0.91153884 -0.06146199 -0.77094764
-0.9598556 0.19986527 -1.0825378 -0.8632108 -0.9212689 -0.9387243 -1.0143807 -1.0522487
-0.8096365 -0.8753446 -1.1434784 -0.9199359 -0.8212538 -1.1386648 -1.2913266 -0.9386136
-1.3750714 -0.9346314 -1.0584216 -1.202845 -1.1527629 -1.0944436 -1.0172997 -0.0785983
0.002183105 0.065773174 -0.8092778 -0.05153291 -1.088408 -0.9443917 -1.2434108 -1.0943832
-1.0912443 0.061705515 -1.1512917 -0.9570843 -1.3179885 -0.94933754 -0.92289084 0.097777076
-0.9386909 -1.0828427 -1.2793044 0.049926944 -0.14984065 -1.2635394 -1.0698974 -1.1663046
-1.2042198 0.040790785 -0.019378955 -1.517647 -1.0116893 -1.2894927 0.09190495 -1.0913379
-0.8493796 -0.9310701 -1.1596003 -0.11058457 -0.8454324 -0.9235574 0.002018514 -1.1671102
-1.0134236 -0.9279559 -1.1170417 -0.0186903 -1.0265365 -1.2590722 -0.9068056 0.15464815
-1.011983 -0.9679868 -0.83616245 -1.02708 -1.2180644 -1.1095788 0.04614303 -1.083644
-0.77169985 -0.8578839 -0.6905383 -0.76537246 -1.4163831 -0.89186674 -0.013004457 -0.046734672
-1.0390612 -0.97809803 -1.0652958 -0.7982912 -0.7924988 -1.0926967 -1.1997033 -1.0081615
-1.0591584 0.14441872 -1.1768594 -1.0556123 -0.18242233 -0.77123505 -0.96790993 0.022629462
00000000: 88ce 823c 0c5a 89bf 0e3a 93bf 015d bd3c
00000010: 8be9 8abf e5a9 0d3e 2bcf 7fbf f7d9 7fbf
00000020: 0849 5fbf 8ade 99bf 1a36 84bf f259 6f3d
00000030: 3481 60bf aa37 8cbf 1254 48bc 04d1 ffbe
00000040: 71ba 94bf 023f c0bc 0df6 4fbf 62bc 82bf
00000050: 90ff fbbc eefd 88bf 3a73 fe3d 1259 6ebf
00000060: 3711 65bf 0bdf 373e c2c4 6cbf eed7 8bbf
00000070: 7489 7bbf 03f1 7bbf 716f 86bf a365 93bf
00000080: cd66 6dbf 6f38 8abf bce2 71bf b259 69bf
00000090: bab3 7ebf 653e 79bf 41ae acbf e954 6ebf
000000a0: b30e 5cbf e1be abbf 6fd8 5dbf 51c0 5bbf
000000b0: d99f 8bbf cd50 94bf 8eb2 86bf b0c0 8bbd
000000c0: 42dd 413d 0cae 4a3d d37e 92bf 2b89 15bd
000000d0: 02a6 92bf 15fd 5dbf 3be6 a0bf ee1e 83bf
000000e0: 6226 8cbf c994 d63c 78e1 95bf 1c28 37bf
000000f0: 45bd 90bf 93c2 35bf a048 1cbf e2eb 0dbb
00000100: 96fa 8dbf cf4c b3bf 1738 7fbf c81b 4bbe
00000110: ee28 dc3d 815b 61bf 7c7b 62bf f20e 68bf
00000120: 1763 95bf 2506 ddbd 7c09 213e ecf4 85bf
00000130: 0f77 9ebf 04e9 6ebf 1be9 9b3d 288e a1bf
00000140: 88dd 65bf 94dc 95bf 1d8b 79bf 032c b0bd
00000150: 54e4 61bf 63bf 54bf 83f1 a33b d476 75bf
00000160: 2e26 44bf 941e 2dbf 1359 7abf f2cc 1b3e
00000170: 441c 71bf fd09 83bf 9e4c 91bf bc07 8b3d
00000180: fee6 31bf 63cd 81bf 5952 8ebf 4161 96bf
00000190: 5828 88bf f554 8cbf 22d7 d1bd 7223 6dbf
000001a0: aa02 7fbf 1fb8 8dbf c6e6 55bf 0423 53bf
000001b0: 9470 65bf 2694 63bf 5b85 38be 76a4 9cbd
000001c0: cb0b 46bf 2ef9 76bf b000 33bf ffc3 1fbf
000001d0: 49a8 4abf 3a32 9fbf e626 9abf f491 8ebf
000001e0: e814 77bf 0c37 50bd 5195 56bf c97f 3abf
000001f0: 062e 17bd b9a0 9dbf 3d28 72bf bc0c 10bd
00000200: f7dc 3ebc 6bc6 a7bf 9e57 8abf 2930 1c3d
00000210: f1c8 a7bf b7e1 c13d 3501 85bf 87f2 8cbf
00000220: bf5d 59bf 2c73 5cbf a22d 64bf 34b2 07be
00000230: aa61 87bf 778c 85bf b2e7 db3d fc81 9fbf
00000240: ff45 9bbf 91ca 61be e914 51bf 0e7f 5dbf
00000250: 39ea 23be 9c5a 69bf 91bf 7bbd d35c 45bf
00000260: 19b9 75bf 7ba9 4c3e 9990 8abf 62fb 5cbf
00000270: 47d8 6bbf 3c50 70bf 3ad7 81bf 16b0 86bf
00000280: 5644 4fbf 9516 60bf 805d 92bf eb80 6bbf
00000290: b03d 52bf c5bf 91bf 314a a5bf fb48 70bf
000002a0: 5702 b0bf 0144 6fbf 5c7a 87bf d3f6 99bf
000002b0: bc8d 93bf ba16 8cbf e036 82bf 25f8 a0bd
000002c0: 6d12 0f3b 16b4 863d d42c 4fbf 2c14 53bd
000002d0: f450 8bbf a8c3 71bf 1628 9fbf c014 8cbf
000002e0: e5ad 8bbf ecbe 7c3d 875d 93bf 7a03 75bf
000002f0: d9b3 a8bf c907 73bf 9342 6cbf 593f c83d
00000300: 0c4e 70bf 979a 8abf 3fc0 a3bf 3280 4c3d
00000310: d46f 19be a9bb a1bf 66f2 88bf 7849 95bf
00000320: e023 9abf 3d14 273d 9dc0 9ebc 4242 c2bf
00000330: 097f 81bf 190e a5bf aa38 bc3d f6b0 8bbf
00000340: f170 59bf 9c5a 6ebf c86d 94bf 2a7a e2bd
00000350: 426e 58bf 426e 6cbf 0c49 043b de63 95bf
00000360: ddb7 81bf 858e 6dbf 39fb 8ebf 661c 99bc
00000370: 8c65 83bf 4729 a1bf 6924 68bf 165c 1e3e
00000380: a988 81bf fccd 77bf be0e 56bf 5c77 83bf
00000390: 89e9 9bbf ae06 8ebf 7900 3d3d d9b4 8abf
000003a0: 1f8e 45bf 479e 5bbf 1ec7 30bf 73ef 43bf
000003b0: 0b4c b5bf 6151 64bf a510 55bc db6c 3fbd
000003c0: f5ff 84bf a264 7abf 9d5b 88bf d05c 4cbf
000003d0: 34e1 4abf 7cdd 8bbf e18f 99bf 700b 81bf
000003e0: 8192 87bf 80e2 133e 54a3 96bf 4e1e 87bf
000003f0: ebcc 3abe a96f 45bf f2c8 77bf 6c61 b93c

net.out.bias f4 [64]
-0.15217265 -0.17372938 -0.1793887 -0.16574474 -0.16984197 -0.12155161 -0.11791589 -0.2059999
-0.1527152 -0.27965817 -0.16442575 -0.12071301 -0.15846112 -0.1307818 -0.22130916 -0.17654125
-0.15083326 -0.12902543 -0.17632745 -0.042808287 -0.01962851 0.19088534 -0.0004069219 -0.031048058
0.1326271 0.2113253 0.30298588 0.21523158 0.25618234 0.32307315 0.25248203 0.24696009
0.2531084 0.23407306 0.25489506 0.2354055 0.21862286 0.23387104 0.26730612 0.21953721
0.24520563 0.23236515 0.27854595 0.20686491 0.26186156 0.25284025 0.26445302 0.23419109
0.2390022 0.25433132 0.27095038 0.23753466 0.27573207 0.22943363 0.25215504 0.23807566
0.24694219 0.24046794 0.24250358 0.26730755 0.27600524 0.59341896 0.2820484 0.26899844
00000000: 26d3 1bbe 1de6 31be acb1 37be fdb8 29be
00000010: 0eeb 2dbe 0df0 f8bd e37d f1bd a3f1 52be
00000020: 6061 1cbe 5b2f 8fbe 395f 28be 6238 f7bd
00000030: a243 22be aaeb 05be de9e 62be 3bc7 34be
00000040: 0974 1abe 3e1f 04be 2f8f 34be be57 2fbd
00000050: f8cb a0bc 7277 433e 2258 d5b9 7f58 febc
00000060: 66cf 073e a965 583e f720 9b3e ab65 5c3e
00000070: 552a 833e d869 a53e 5345 813e 1be3 7c3e
00000080: 6d97 813e d9b0 6f3e 9b81 823e 240e 713e
00000090: acde 5f3e e47b 6f3e 59dc 883e 5dce 603e
000000a0: 2f17 7b3e 21f1 6d3e 939d 8e3e 65d4 533e
000000b0: b812 863e 4774 813e 6366 873e cacf 6f3e
000000c0: febc 743e b737 823e 02ba 8a3e 493c 733e
000000d0: c12c 8d3e a6f0 6a3e 771a 813e 1bca 733e
000000e0: 6ade 7c3e 3a3d 763e dc52 783e 89dc 883e
000000f0: 8f50 8d3e 4eea 173f a668 903e 2aba 893e

v.layers.0.weight f4 [128, 131]
-0.18651545 -0.16465226 -0.17535472 -0.04930535 0.09117102 -0.03396702 -0.10567281 -0.14662737
0.024112033 0.08619538 -0.06170708 -0.008321346 -0.14500615 -0.2099892 -0.06572153 -0.11695081
-0.07274088 -0.1572197 -0.001353638 -0.13824517 0.061214462 0.041546855 -0.103086516 0.05999757
-0.07122379 -0.0060236747 -0.10690043 -0.0076400884 0.10695371 0.10037725 -0.0754759 -0.0033589841
0.07128257 0.01767923 0.13064747 0.09236105 0.0850489 0.052457873 0.08287046 0.09755791
-0.089175195 -0.1507902 0.017826177 0.03393066 -0.12845513 -0.08550696 -0.082940094 0.088791266
0.07654564 0.08680857 -0.09339802 0.11923661 -0.041090973 -0.10134237 0.12639557 -0.010380885
-0.14094444 0.052056108 0.111514054 0.023043917 -0.07666425 -0.03947897 0.08527966 0.03988458
-0.098060384 -0.16140571 0.033708658 0.00011478073 -0.22250564 -0.13350895 0.081329495 -0.12050538
-0.09650624 0.035729494 -0.11954704 -0.03720002 0.03654747 -0.05437711 0.06274544 -0.0605787
-0.07714147 -0.19642583 0.055724606 -0.040093742 -0.15314263 0.08803461 -0.04708144 -0.133719
0.037546128 -0.10702113 -0.17762497 0.12615971 -0.20831743 -0.14581472 0.0142808715 0.037296884
-0.071273305 -0.199663 -0.15021174 -0.115594365 -0.09828184 0.032462455 0.012980373 0.08356926
0.04173627 -0.20688768 -0.07171366 -0.106771655 0.12935054 -0.036843073 0.13764924 -0.10382733
-0.079594664 0.049479824 0.10539987 -0.07305571 0.08706986 -0.13083996 -0.06850971 -0.10119793
0.036169264 0.0064354646 -0.02993382 -0.017301215 0.076410085 -0.011472507 0.13148035 -0.14932255
-0.025413334 0.038649783 -0.023637917 -0.0079670735 -0.15095487 0.04210786 -0.25664744 -0.269055
0.026380766 0.093186684 -0.049510676 -0.07387363 -0.18227674 -0.1793067 -0.16222906 0.0668183
0.015832564 -0.16741022 0.040064946 -0.040568776 0.008072471 -0.09811289 -0.031340376 -0.12105575
-0.11393552 -0.05058511 -0.14906387 -0.021921342 0.15023927 -0.0033209994 -0.06689009 -0.05257748
0.13758859 0.11519216 0.0037577737 0.009376862 0.14569753 -0.07763425 -0.032978974 -0.07716669
-0.13307491 -0.029134227 -0.112496465 0.034253027 0.14534828 -0.072504856 -0.085207246 0.12064303
0.151383 0.056132745 -0.07892249 -0.13052498 -0.013135297 -0.073724054 -0.00508204 0.006474946
0.09671814 -0.025416806 -0.08680084 -0.033763163 0.049756974 -0.07390009 0.048224453 -0.09081953
-0.09594036 0.11652337 0.06953399 -0.21715063 -0.13749266 -0.18812986 0.022507781 -0.02277831
-0.20298429 -0.18959917 -0.014270929 -0.1700739 -0.11247301 -0.11918835 0.054976966 -0.024691464
-0.118565425 -0.16516307 -0.024597056 -0.05410866 0.058159363 -0.05879553 -0.09634999 -0.0676728
-0.028569046 -0.10527491 0.0053139767 -0.0018190144 -0.07533918 0.06228107 -0.05918954 -0.13225235
-0.0294472 0.06488416 -0.027634662 -0.08176885 -0.081499755 -0.028956179 -0.10053722 -0.07187316
0.08425288 -0.0078112367 0.016817512 -0.019825146 -0.078224 -0.07856631 0.008831177 -0.123406224
0.15067254 0.011340672 -0.1446857 0.10598485 -0.08391261 0.11874713 0.0784257 -0.14251411
-0.09503877 0.08979749 0.08141258 -0.013370999 0.081586435 -0.10620805 -0.079182506 -0.082957394
00000000: e8fd 3ebe 9a9a 28be 3090 33be 68f4 49bd
00000010: dfb7 ba3d 0121 0bbd fc6a d8bd 7c25 16be
00000020: 9986 c53c 3487 b03d 90c0 7cbd 4156 08bc
00000030: 7e7c 14be 6907 57be 0299 86bd e883 efbd
00000040: 2cf9 94bd 33fe 20be 8e6c b1ba 2490 0dbe
00000050: 04bc 7a3d 092d 2a3d 061f d3bd 03c0 753d
00000060: c7dd 91bd 3f62 c5bb 9dee dabd b559 fabb
00000070: 8c0a db3d 9692 cd3d 1c93 9abd 6722 5cbb
00000080: 99fc 913d 08d4 903c 73c8 053e ca27 bd3d
00000090: 1e2e ae3d 11de 563d fdb7 a93d 71cc c73d
000000a0: 7ca1 b6bd bf68 1abe 3408 923c e0fa 0a3d
000000b0: be89 03be 461e afbd 7fdc a9bd 32d8 b53d
000000c0: f6c3 9c3d b1c8 b13d 7647 bfbd 5332 f43d
000000d0: 024f 28bd 978c cfbd d76d 013e 9614 2abc
000000e0: bd53 10be c938 553d 7b61 e43d 99c6 bc3c
000000f0: 2502 9dbd b3b4 21bd 1aa7 ae3d 035e 233d
00000100: e2d3 c8bd 8a47 25be 1712 0a3d 6fb6 f038
00000110: 85d8 63be 92b6 08be 1490 a63d 86cb f6bd
00000120: 10a5 c5bd 1759 123d 14d5 f4bd 0c5f 18bd
00000130: cdb2 153d 88ba 5ebd ae80 803d 5f21 78bd
00000140: 59fc 9dbd da23 49be 7c3f 643d 5639 24bd
00000150: 6cd1 1cbe 7d4b b43d 78d8 40bd a2ed 08be
00000160: f8c9 193d e52d dbbd 52e3 35be 0330 013e
00000170: 2a51 55be 7450 15be 51fa 693c 9ec4 183d
00000180: bdf7 91bd 7574 4cbe 1bd1 19be bdbc ecbd
00000190: fd47 c9bd 5af7 043d a1ab 543c 5c26 ab3d
000001a0: a7f3 2a3d 5dda 53be 9dde 92bd 19ab dabd
000001b0: 7874 043e c3e8 16bd ecf3 0c3e 6ca3 d4bd
000001c0: 8702 a3bd 5bab 4a3d e3db d73d 3b9e 95bd
000001d0: af51 b23d e9fa 05be d24e 8cbd dc40 cfbd
000001e0: 3926 143d 97e0 d23b c537 f5bc 47bb 8dbc
000001f0: e47c 9c3d 2ff7 3bbc c9a2 063e 03e8 18be
00000200: a02f d0bc 3c4f 1e3d 4ea4 c1bc 5488 02bc
00000210: ea93 1abe 4b79 2c3d 4b67 83be 94c1 89be
00000220: 7a1c d83c a9d8 be3d b5cb 4abd 0f4b 97bd
00000230: c1a6 3abe 2d9c 37be 601f 26be 08d8 883d
00000240: 4bb3 813c 966d 2bbe 241b 243d 722b 26bd
00000250: 6642 043c 69ef c8bd c45e 00bd 14ec f7bd
00000260: 0757 e9bd 5532 4fbd 33a4 18be 6394 b3bc
00000270: 53d8 193e 20a5 59bb acfd 88bd 7c5b 57bd
00000280: 06e4 0c3e dee9 eb3d fb44 763b 69a1 193c
00000290: bc31 153e b5fe 9ebd f614 07bd 9209 9ebd
000002a0: ca44 08be e7aa eebc 8c64 e6bd e74c 0c3d
000002b0: 2ed6 143e 6d7d 94bd 2381 aebd b113 f73d
000002c0: 2504 1b3e 73eb 653d 1da2 a1bd 57a8 05be
000002d0: 6e35 57bc a3fc 96bd 3e87 a6bb c92b d43b
000002e0: 2914 c63d e836 d0bc a4c4 b1bd 3e4b 0abd
000002f0: f8cd 4b3d ee58 97bd 0187 453d 97ff b9bd
00000300: 617c c4bd cea3 ee3d d667 8e3d bc5c 5ebe
00000310: e0ca 0cbe 1da5 40be 3d62 b83c 9499 babc
00000320: 1ddb 4fbe 4926 42be 9dd0 69bc da27 2ebe
00000330: 4058 e6bd 0619 f4bd 872f 613d c145 cabc
00000340: 6ed2 f2bd 8220 29be c47f c9bc 0ba1 5dbd
00000350: 8338 6e3d 95d3 70bd 2553 c5bd 0998 8abd
00000360: a209 eabc 5f9a d7bd de20 ae3b ff6b eeba
00000370: 6e4b 9abd 6f1a 7f3d bb70 72bd 296d 07be
00000380: 413b f1bc fde1 843d 1662 e2bc 6d76 a7bd
00000390: 58e9 a6bd 8235 edbc 75e6 cdbd 3c32 93bd
000003a0: c68c ac3d 67f5 ffbb e1c4 893c 5868 a2bc
000003b0: e833 a0bd 60e7 a0bd a4b0 103c 67bc fcbd
000003c0: e749 1a3e 3ace 393c 7d28 14be 960e d93d
000003d0: 60da abbd b231 f33d a79d a03d 38ef 11be
000003e0: b0a3 c2bd bfe7 b73d a4bb a63d 0912 5bbc
000003f0: ca16 a73d 9b83 d9bd 702a a2bd 91e5 a9bd

v.layers.0.bias f4 [128]
-0.06036975 -0.046431486 -0.06570515 0.011978456 -0.059214734 -0.05154964 -0.14298466 -0.020220635
-0.086397074 -0.13625488 -0.08800211 -0.06276689 -0.043432202 -0.07856568 -0.06565874 -0.14483573
-0.08867519 -0.03941857 -0.05945262 -0.061537787 0.030801624 -0.10375052 -0.05867396 -0.074482456
-0.15199815 -0.034316193 -0.053204432 -0.03504551 -0.059451945 -0.060447056 -0.06340837 -0.06594683
-0.07397419 -0.09192228 -0.048772965 -0.08867231 -0.057495397 -0.08407328 -0.025749646 -0.06382814
0.023327436 -0.0594423 -0.024499455 -0.10820718 -0.06552291 -0.06264618 -0.05196004 -0.053127047
-0.18681888 -0.040694512 -0.054795958 -0.046157897 -0.066474535 -0.10900616 -0.059118915 0.0
-0.05943506 -0.016519234 -0.06526483 -0.073637806 -0.07638865 -0.060230132 -0.08371736 -0.06609468
-0.057366434 -0.058400854 0.0 -0.045097467 -0.059726484 -0.052362766 0.0 -0.019142697
-0.046729032 -0.08401511 -0.059421323 0.0 -0.030125724 -0.057725888 -0.08364321 -0.061275158
-0.04296477 -0.051589243 -0.0579755 0.015864322 -0.095498495 -0.046824485 -0.07678493 -0.18164097
-0.059028372 -0.145948 -0.05215795 -0.059433337 -0.069203615 -0.08011477 -0.059345987 -0.028284563
-0.04876459 -0.05191521 -0.053759538 -0.05369264 0.007506825 -0.07993399 -0.13053952 -0.081021525
-0.047287077 -0.109762505 -0.059439797 -0.05924378 -0.09236254 -0.053540006 -0.07098036 -0.11278396
-0.06479926 -0.059434168 -0.09906928 -0.08238264 -0.13647325 0.076401204 -0.05944776 -0.040813413
-0.05944319 -0.052577496 -0.07458682 -0.05044343 -0.062010016 -0.044284858 -0.04534722 -0.06930227
00000000: 4546 77bd f12e 3ebd 6c90 86bd 4941 443c
00000010: 268b 72bd b725 53bd 926a 12be bfa5 a5bc
00000020: f3f0 b0bd 6686 0bbe 733a b4bd ed8b 80bd
00000030: f7e5 31bd 0be7 a0bd 1778 86bd d14f 14be
00000040: 579b b5bd 5e75 21bd 9784 73bd 0c0f 7cbd
00000050: b053 fc3c 277b d4bd 1b54 70bd 428a 98bd
00000060: 67a5 1bbe 238f 0cbd e4ec 59bd e18b 0fbd
00000070: e283 73bd 5597 77bd 3fdc 81bd 220f 87bd
00000080: c87f 97bd c041 bcbd 29c6 47bd d499 b5bd
00000090: 4b80 6bbd 9d2e acbd ecf0 d2bc 54b8 82bd
000000a0: 2e19 bf3c c579 73bd 15b3 c8bc ba9b ddbd
000000b0: e030 86bd a44c 80bd 0dd4 54bd bf9b 59bd
000000c0: 734d 3fbe 4aaf 26bd ba71 60bd 1010 3dbd
000000d0: cd23 88bd 9f3e dfbd ad26 72bd 0000 0000
000000e0: 2d72 73bd 5853 87bc 91a9 85bd 6bcf 96bd
000000f0: a771 9cbd dfb3 76bd 0274 abbd a65c 87bd
00000100: 11f9 6abd bc35 6fbd 0000 0000 1fb8 38bd
00000110: c2a3 74bd 577a 56bd 0000 0000 25d1 9cbc
00000120: f166 3fbd 1d10 acbd c663 73bd 0000 0000
00000130: 39ca f6bc fb71 6cbd 224d abbd a9fb 7abd
00000140: d4fb 2fbd 3e4f 53bd b877 6dbd e5f5 813c
00000150: b794 c3bd 08cb 3fbd 6b41 9dbd 1700 3abe
00000160: bcc7 71bd 6473 15be 93a3 55bd 5f70 73bd
00000170: a0ba 8dbd 3613 a4bd c714 73bd 07b5 e7bc
00000180: 61bd 47bd 0ba5 54bd f632 5cbd d0ec 5bbd
00000190: d0fb f53b 6fb4 a3bd 27ac 05be 9dee a5bd
000001a0: 18b0 41bd 2acb e0bd 2577 73bd 9ba9 72bd
000001b0: 9228 bdbd c44c 5bbd 275e 91bd 47fb e6bd
000001c0: 79b5 84bd 3e71 73bd d6e4 cabd 3bb8 a8bd
000001d0: a5bf 0bbe 3c78 9c3d 7f7f 73bd f72b 27bd
000001e0: b47a 73bd 805b 57bd fac0 98bd c59d 4ebd
000001f0: 37fe 7dbd 0a64 35bd 02be 39bd 59ee 8dbd

v.layers.1.weight f4 [128, 128]
-0.032802224 -0.31155136 0.013411917 -0.34753928 -0.13904965 -0.14254248 -0.09861387 -0.026487056
0.08601534 0.061244756 -0.07955587 -0.17059894 -0.11370905 0.03232887 0.09867433 -0.043973602
0.048567537 -0.017066158 0.053086832 -0.033936027 0.5185848 0.009994452 -0.03564281 0.20137367
-0.21006314 -0.028415367 0.11820488 -0.15400665 0.009515534 -0.14260533 -0.099742904 -0.10049738
-0.06484663 -0.17781588 0.20628893 -0.2018658 0.15142395 0.0735021 -0.0126584815 0.056740772
0.5756328 0.138939 0.17179553 0.024261178 -0.10803955 -0.07292168 -0.0076703005 -0.19708364
-0.7657598 -0.009769435 -0.09852149 -0.019479988 -0.11963001 0.2076281 -0.15600772 0.072411284
-0.052376043 -0.18545777 -0.059533108 -0.17986153 0.01580979 -0.040181436 -0.05019906 0.07445779
-0.06975799 -0.13731045 -0.106876194 0.056269653 -0.17706545 -0.009017784 0.14769433 0.0022785955
-0.04001159 -0.13524501 -0.10480928 -0.0416776 0.00036728263 0.01687293 -0.0045953155 -0.19101559
-0.0664387 -0.09253441 -0.30675346 0.07580116 -0.39811686 -0.692219 0.08320459 0.02868659
0.06753073 -0.29944742 -0.24644977 -0.008163014 -0.35652572 -0.013792147 -0.18083252 -0.09284403
-0.028193258 -0.07301693 -0.20469512 0.11723219 -0.52884424 0.07814894 0.578788 -0.14855738
-0.05756287 0.054050643 -0.13074046 0.023310514 -0.0951224 0.13305494 0.07038802 0.022508914
0.01876409 -0.063186765 -0.036578476 -0.13425866 -0.55648065 -0.65690154 0.013246292 -0.9891844
-0.08208783 -0.14127661 -0.16285689 -0.15029407 0.124396294 -0.038401604 0.15520999 0.015374431
0.02904168 0.0956455 -0.16159612 0.06784594 0.14924604 -0.06228529 0.031083448 -0.07895751
0.15107527 0.054835055 -0.1175166 -0.003297919 0.16014278 0.124988236 0.19455275 -0.10550927
0.17165281 0.06418777 0.045742903 0.0006653961 -0.3167804 0.0020571118 0.072219156 -0.105298966
-0.15456812 -0.07183722 0.031897172 0.14531985 0.039456777 0.027773522 -0.19395778 0.05236835
0.19271 -0.04401033 0.07015826 -0.07891677 -0.11842392 -0.04436879 0.1808916 -0.12424469
0.08638405 -0.04793066 -0.07855221 0.058543887 0.050730545 -0.058387898 -0.014998711 -0.04706052
0.07992811 0.0054872767 -0.06307374 -0.03510007 -0.039733827 -0.09625319 0.059254244 -0.09378145
0.05265313 -0.04194672 0.090049334 0.07672628 -0.0063314415 0.03703317 -0.0083035175 0.24305226
0.05059657 0.09231355 0.07023178 -0.014906765 0.14518763 0.015723912 0.12353388 0.04087116
0.12838876 0.11670444 -0.043395873 0.14304745 -0.034798615 -0.008153497 -0.04006598 -0.052028038
0.088277526 -0.028771305 0.05293383 0.017285058 0.043368127 0.06059086 0.18302393 -0.019002294
0.1942594 0.07158406 0.025820473 0.1983151 0.2104739 0.11735359 0.08784972 -0.005876757
0.06440629 0.13926499 0.18083666 0.11850916 -0.1087158 0.10909462 -0.103612095 -0.14991069
-0.08050076 0.10001851 0.11501742 0.01633655 -0.022236954 -0.01034825 -0.04467898 -0.048709366
0.049080823 -0.08690175 0.07783274 0.09130839 0.097823806 0.06545278 0.0975551 -0.050494082
0.18760623 -0.009040648 -0.053626258 0.029410448 0.049523965 0.08876438 0.07385699 0.08281617
00000000: a05b 06bd a983 9fbe a8bd 5b3c abf0 b1be
00000010: 0863 0ebe a8f6 11be 12f6 c9bd 62fb d8bc
00000020: d028 b03d c8db 7a3d 30ee a2bd 7db1 2ebe
00000030: 4ae0 e8bd 476b 043d c415 ca3d aa1d 34bd
00000040: c1ee 463d 54ce 8bbc 9471 593d 8100 0bbd
00000050: f9c1 043f c5bf 233c 32fe 11bd e634 4e3e
00000060: cb1a 57be 58c7 e8bc 6615 f23d ebb3 1dbe
00000070: 0be7 1b3c 2207 12be 0246 ccbd 92d1 cdbd
00000080: 4fce 84bd 5e15 36be 683d 533e e9b5 4ebe
00000090: e10e 1b3e 4588 963d 8565 4fbc 0369 683d
000000a0: ac5c 133f 0646 0e3e 2beb 2f3e 61bf c63c
000000b0: d743 ddbd f657 95bd 2557 fbbb 4bd0 49be
000000c0: d608 44bf fb0f 20bc a3c5 c9bd 7f94 9fbc
000000d0: 9400 f5bd 769c 543e 7dc0 1fbe 5e4c 943d
000000e0: 4388 56bd a4e8 3dbe fdd8 73bd 9f2d 38be
000000f0: 8883 813c 4a95 24bd 889d 4dbd 537d 983d
00000100: 47dd 8ebd 1c9b 0cbe e8e1 dabd 027b 663d
00000110: a550 35be 54bf 13bc 2f3d 173e 7d54 153b
00000120: 31e3 23bd ab7d 0abe 3fa6 d6bd 22b6 2abd
00000130: d78f c039 1939 8a3c 4d94 96bb 9799 43be
00000140: 0311 88bd ae82 bdbd ca0e 9dbe a33d 9b3d
00000150: f9d5 cbbe 4435 31bf 2b67 aa3d 2400 eb3c
00000160: 8d4d 8a3d 2c51 99be 545d 7cbe 2abe 05bc
00000170: 8a8a b6be 75f8 61bc 292c 39be 0325 bebd
00000180: 8cf5 e6bc e689 95bd 999b 51be 6e17 f03d
00000190: 5662 07bf 8d0c a03d 732b 143f 6d1f 18be
000001a0: 0bc7 6bbd 3564 5d3d d4e0 05be b1f5 be3c
000001b0: 88cf c2bd 8e3f 083e 9827 903d 9d64 b83c
000001c0: 26b7 993c 1068 81bd 50d3 15bd 1a7b 09be
000001d0: 8475 0ebf b32a 28bf fa06 593c 303b 7dbf
000001e0: aa1d a8bd d1aa 10be f5c3 26be b0e6 19be
000001f0: 7cc3 fe3d 004b 1dbd 5eef 1e3e 0ae5 7b3c
00000200: d1e8 ed3c cae1 c33d 7479 25be d0f2 8a3d
00000210: f4d3 183e dc1e 7fbd b7a2 fe3c 7ab4 a1bd
00000220: 7ab3 1a3e b99a 603d 8bac f0bd e621 58bb
00000230: 78fc 233e d5f9 ff3d d638 473e 3f15 d8bd
00000240: c1c5 2f3e e174 833d e95c 3b3d fa6d 2e3a
00000250: 0a31 a2be 9cd0 063b a3e7 933d fca6 d7bd
00000260: 1b47 1ebe 641f 93bd 9ca6 023d bace 143e
00000270: 6e9d 213d 4c85 e33c de9c 46be 3280 563d
00000280: c555 453e 2d44 34bd 22af 8f3d 1e9f a1bd
00000290: 3d88 f2bd 0cbc 35bd a63b 393e 0074 febd
000002a0: 1fea b03d f152 44bd fbdf a0bd b7cb 6f3d
000002b0: d5ca 4f3d 2628 6fbd 27bd 75bc 88c2 40bd
000002c0: 59b1 a33d 9dce b33b ce2c 81bd 17c5 0fbd
000002d0: f0bf 22bd 6420 c5bd 94b4 723d 7d10 c0bd
000002e0: cfaa 573d 53d0 2bbd c96b b83d ab22 9d3d
000002f0: fb77 cfbb 18b0 173d 7a0b 08bc b1e2 783e
00000300: 593e 4f3d e30e bd3d aed5 8f3d 813b 74bc
00000310: 11ac 143e 6fcf 803c 55ff fc3d 8468 273d
00000320: 5878 033e bd02 ef3d dfbf 31bd 087b 123e
00000330: fe88 0ebd 3f96 05bc 3a1c 24bd 5a1b 55bd
00000340: d9ca b43d cdb1 ebbc 25d1 583d 6599 8d3c
00000350: c7a2 313d 1f2e 783d a06a 3b3e b3aa 9bbc
00000360: f0eb 463e aa9a 923d 7585 d33c 1d13 4b3e
00000370: 7886 573e 1457 f03d 8eea b33d d091 c0bb
00000380: 72e7 833d 7b9b 0e3e 3f2d 393e eeb4 f23d
00000390: 64a6 debd 006d df3d 9432 d4bd 3082 19be
000003a0: 95dd a4bd 81d6 cc3d 418e eb3d 3ad4 853c
000003b0: 462a b6bc b58b 29bc 4e01 37bd 7983 47bd
000003c0: f908 493d 8bf9 b1bd c666 9f3d e5ff ba3d
000003d0: d957 c83d 1b0c 863d f8ca c73d e2d2 4ebd
000003e0: d91b 403e 3a1f 14bc 35a7 5bbd 2eee f03c
000003f0: a4d9 4a3d 19ca b53d 5542 973d 869b a93d

v.layers.1.bias f4 [128]
-0.044390712 0.054748777 -0.32174122 0.04938311 -0.37834433 -0.18599331 0.25658715 -0.11911307
-0.51391625 -0.3332805 -0.04430788 -0.19284065 -0.18602073 -0.34978047 -0.40676343 0.10967137
0.18470462 0.14072932 -0.44338074 -0.25104448 -0.119201206 -0.23800905 0.58213896 -0.36005393
0.1544367 -0.030115943 -0.084334955 -0.39812696 -0.6535133 -0.59194833 0.08076958 -0.24935648
-0.1297445 -0.06219162 -0.25539365 -0.090372756 0.10880937 -0.30275652 -0.29270983 0.16212983
-0.07746963 -0.2281154 -0.09905311 -0.25423193 0.19390298 -0.19383049 -0.06861087 -0.013611735
-0.2153285 -0.048985373 -0.07330918 -0.055223588 -0.13257535 0.140904 0.5020245 -0.17735025
-0.47667482 -0.10467444 -0.27966568 0.17485784 0.1764682 -0.19228584 -0.058847472 0.027905853
-0.5872441 -0.2185634 -0.31242245 0.018426483 -0.19868578 -0.07995623 -0.16045055 0.14482944
-0.09119679 0.1321456 0.3274754 0.0640598 -0.19550781 -0.27562234 0.26739228 -0.10184427
0.22269365 -0.029242437 -0.059453793 -0.26134083 0.042056978 -0.04019579 0.0029902393 -0.55059636
-0.34762332 -0.3163936 -0.33759317 -0.19606917 0.17013572 0.18933974 0.11120115 -0.13833298
0.071384005 0.016841074 -0.19707757 -0.057980377 0.0591374 -0.14746581 0.23286492 0.16297616
0.17074116 0.3406305 -0.20997357 0.44667876 -0.37869695 0.27769268 0.20848356 -0.18905362
-0.1719983 -0.28869727 0.31002825 -0.102243155 -0.10232481 -0.12075554 -0.1185438 -0.06538119
0.001353641 -0.076384306 0.20350875 -0.25160843 -0.4938146 0.097264916 -0.059760466 -0.4712225
00000000: 09d3 35bd 4140 603d 44bb a4be f245 4a3d
00000010: 59b6 c1be 0875 3ebe 645f 833e 8ef1 f3bd
00000020: 0490 03bf bea3 aabe 2e7c 35bd 0578 45be
00000030: 387c 3ebe 6d16 b3be 4c43 d0be 629b e03d
00000040: 3523 3d3e 591b 103e cd02 e3be e788 80be
00000050: c31f f4bd a5b8 73be 0f07 153f fd58 b8be
00000060: a724 1e3e b6b5 f6bc ceb7 acbd 4cd7 cbbe
00000070: a64c 27bf ed89 17bf 866a a53d 4e57 7fbe
00000080: bedb 04be a4bc 7ebd f5c2 82be 5a15 b9bd
00000090: 72d7 de3d e702 9bbe 10de 95be 5d05 263e
000000a0: 66a8 9ebd 1597 69be 5bdc cabd b02a 82be
000000b0: 818e 463e 807b 46be db83 8cbd c103 5fbc
000000c0: 137f 5cbe e3a4 48bd 2023 96bd 2132 62bd
000000d0: d5c1 07be 2349 103e ad84 003f 4e9b 35be
000000e0: b90e f4be 8e5f d6bd 5730 8fbe ef0d 333e
000000f0: 14b4 343e 94e6 44be 0c0a 71bd d19a e43c
00000100: a155 16bf 15cf 5fbe d6f5 9fbe 23f3 963c
00000110: 4974 4bbe 18c0 a3bd 264d 24be 2b4e 143e
00000120: 62c5 babd 2d51 073e dbaa a73e c931 833d
00000130: 3333 48be 5f1e 8dbe a4e7 883e bb93 d0bd
00000140: ce09 643e d68d efbc d285 73bd 77ce 85be
00000150: f043 2c3d 57a4 24bd e4f7 433b e2f3 0cbf
00000160: affb b1be 58fe a1be 03d9 acbe 5bc6 48be
00000170: 0f38 2e3e 47e2 413e 6ebd e33d 29a7 0dbe
00000180: c731 923d 4bf6 893c b4ce 49be d57c 6dbd
00000190: 0f3a 723d 4701 17be 2474 6e3e 39e3 263e
000001a0: c5d6 2e3e 1f67 ae3e 5003 57be 14b3 e43e
000001b0: 91e4 c1be bc2d 8e3e b77c 553e 4697 41be
000001c0: 5320 30be 21d0 93be 06bc 9e3e dc64 d1bd
000001d0: ac8f d1bd ae4e f7bd 18c7 f2bd 93e6 85bd
000001e0: a86c b13a 606f 9cbd 9964 503e d2d2 80be
000001f0: 44d5 fcbe d432 c73d 64c7 74bd 1344 f1be

v.out.weight f4 [1, 128]
-0.32161814 0.025845163 0.076383255 0.048936896 0.014096775 -0.08389461 0.17863443 -0.080140986
0.07292575 -0.015343043 -0.14092779 0.21288182 -0.15493454 -0.2630109 0.2476108 0.09362879
0.67940414 0.07506577 -0.54227525 0.070707686 -0.09251525 0.58169055 0.85189956 0.20691888
0.034000475 -0.06971702 0.126157 0.026762344 -0.35668182 0.9102456 0.028649345 -0.059903912
-0.088078514 -0.022805106 0.04998818 -0.10856798 0.13892882 0.2424492 0.013258038 0.14288053
0.47101405 0.031874686 0.05276273 0.17154078 0.085587665 -0.024413338 0.083932556 -0.13302657
0.09060389 -0.22712146 -0.06337813 -0.3749626 -0.096585386 0.05731785 0.26700178 0.05091106
0.31757852 0.038511883 0.007117032 -0.63054645 0.107467905 0.10922555 -0.098850854 0.6916043
-0.088759385 0.11430126 0.16220048 -0.029685441 0.2657905 -0.043779064 -0.005122105 0.32304978
-0.020342749 0.07186689 0.82287985 0.019880751 -0.10631726 -0.10898602 0.18051617 -0.059415992
0.20604427 0.047593445 -0.044181384 -0.25605533 -0.74764925 0.04107125 -0.016510105 0.43687835
0.017764572 0.13939907 -0.20585747 0.04590032 0.16222994 0.07006354 0.0869744 -0.113511495
0.0090371175 -0.0033743896 0.007150083 -0.8947987 0.019327523 0.0077205175 -0.6301586 0.44734088
0.087979056 0.1830369 -0.14876398 -0.7142162 0.049737293 0.09257549 0.14612655 -0.06536958
-0.061447237 0.03331662 0.5429007 -0.02175759 0.0062329243 0.20272468 0.013211561 0.123810336
-0.009955931 0.07863562 0.1869744 0.19253865 0.34799612 0.14951633 -0.08581188 0.4518181
00000000: 22ab a4be 3cb9 d33c d36e 9c3d 0e72 483d
00000010: 29f6 663c f0d0 abbd f2eb 363e f520 a4bd
00000020: 185a 953d 6361 7bbc 604f 10be b1fd 593e
00000030: 29a7 1ebe 5da9 86be b08d 7d3e 73c0 bf3d
00000040: 6eed 2d3f 15bc 993d 8dd2 0abf 31cf 903d
00000050: a378 bdbd ace9 143f 1716 5a3f 8be2 533e
00000060: 1544 0b3d ccc7 8ebd 4d2f 013e b43c db3c
00000070: 009f b6be db05 693f 08b2 ea3c ce5d 75bd
00000080: 8262 b4bd c6d1 babc 68c0 4c3d e458 debd
00000090: 5b43 0e3e 9a44 783e 3e38 593c 464f 123e
000000a0: c128 f13e 088f 023d bb1d 583d 63a8 2f3e
000000b0: 9648 af3d 7bfe c7bc d5e4 ab3d 1e38 08be
000000c0: 888e b93d 8792 68be 65cc 81bd 19fb bfbe
000000d0: 8fce c5bd 1fc6 6a3d 75b4 883e 1e88 503d
000000e0: a799 a23e a3be 1d3d fe35 e93b 7e6b 21bf
000000f0: 2218 dc3d a5b1 df3d 5172 cabd fb0c 313f
00000100: 7bc7 b5bd c716 ea3d e217 263e e22e f3bc
00000110: b115 883e ad51 33bd 55d7 a7bb c866 a53e
00000120: d6a5 a6bc f32e 933d 41a8 523f f5dc a23c
00000130: ddbc d9bd 1034 dfbd 3bd9 383e 2f5e 73bd
00000140: 45fd 523e 58f1 423d 8af7 34bd af19 83be
00000150: f165 3fbf 543a 283d 3340 87bc 85ae df3e
00000160: 0287 913c a1be 0e3e 4dcc 52be f901 3c3d
00000170: 9b1f 263e 797d 8f3d a21f b23d b778 e8bd
00000180: 6b10 143c dd24 5dbb 3e4b ea3b 8711 65bf
00000190: c154 9e3c 65fc fc3b 1352 21bf dd09 e53e
000001a0: 5d2e b43d 066e 3b3e 9655 18be dfd6 36bf
000001b0: 55b9 4b3d 3898 bd3d 33a2 153e 7de0 85bd
000001c0: 19b0 7bbd 0277 083d 8afb 0a3f f93c b2bc
000001d0: 8f3d cc3b 0f97 4f3e 4e75 583c 4690 fd3d
000001e0: 341e 23bc b60b a13d 3876 3f3e da28 453e
000001f0: 8c2c b23e cf1a 193e 24be afbd b454 e73e
