models/qoar_mappo.pth (torch, 993973 bytes, 33 tensors)

net.layers.0.weight f4 [128, 131]
0.50745946 0.0956212 0.4515916 0.58561546 0.46910554 -0.006149543 0.40138295 0.43202686
0.35866448 0.14639728 0.20534357 0.23075081 0.025810866 0.51325476 0.15933423 0.47827774
0.42034632 0.17554463 0.059078068 0.3220402 0.19713065 0.48654598 0.35123518 0.49595308
0.16917071 0.36469823 -0.026802188 0.05869102 -0.027183235 -0.06864299 -0.06509568 0.29649353
0.4148742 -0.081263125 0.03191414 -0.073219776 -0.00043213344 -0.08548769 -0.036705803 -0.031912457
0.08025066 0.0036811123 -0.012001748 -0.008144513 -0.046130385 0.001272195 -0.007913187 -0.018944254
-0.05786024 0.0694739 0.031203305 -0.08497738 -0.011939881 0.061982226 -0.034198232 -0.05168738
-0.050345503 -0.04970617 0.06336002 0.06596115 0.08078723 -0.082243025 -0.07668756 0.036319394
0.06781266 0.07968168 0.1923425 -0.041245487 0.28068677 0.36416727 0.12628931 0.43482825
0.47585866 0.43070397 0.4014023 0.37365568 0.44717342 0.3615875 0.37635264 0.06928321
-0.06289325 0.46909747 0.39715365 0.4113301 0.27752382 0.5105853 0.3855219 0.40562683
0.13016748 0.19191256 0.0042797145 0.45373505 0.058700856 0.0024179474 0.22310835 0.57887095
-0.084777415 -0.008895075 0.0023122004 0.046347503 -0.07144781 -0.027105192 -0.0653086 -0.046100263
0.008719024 0.015029786 0.0859533 0.023343861 0.043187328 0.021331174 0.007238532 0.05745921
0.08516202 -0.00883652 0.04897385 -0.0179278 -0.07024461 0.07721389 -0.040103525 -0.029302781
0.0070747193 0.041497912 0.05758044 -0.008559658 0.062563404 0.016331624 0.07093021 0.047049895
0.4499656 0.49308768 0.38789362 1.1071111 1.1249043 1.1511471 1.0674475 1.0527226
-0.04174159 0.59679204 0.9476968 1.2096877 0.7695238 1.2330587 0.9432549 0.8237756
0.71290374 0.9440559 0.8665586 0.94364804 0.68590635 -0.03563147 0.78970796 0.82291335
1.0464022 1.4193991 1.2320958 0.5586884 0.73268294 -0.038090546 0.16927196 0.68304694
0.054768752 0.63581765 0.8895688 0.7608243 0.044054125 0.009486657 0.069972634 -0.067347854
-0.07754635 0.010039712 0.0499209 -0.013082832 -0.07010343 0.012875212 -0.040054925 0.05571605
-0.063172646 0.067900464 -0.05081835 -0.023179954 0.015619932 0.040364012 0.0020954253 -0.00891027
-0.07861266 -0.015081249 -0.030223344 -0.025273953 -0.043547343 0.74684405 0.042857848 -0.029891917
-0.055085212 -0.0035604297 0.062260494 0.62390196 0.7177366 1.1434622 0.8348639 0.7575644
0.67887497 0.20001584 1.3317137 1.1861522 0.7313267 0.82891333 1.1277002 0.6388923
1.2099007 1.1422799 0.7776479 0.6094478 1.1698557 1.0554801 0.9268392 0.8189405
1.5104319 1.1729043 0.784026 0.64320964 0.77699435 -0.019849401 0.6801482 0.72469264
0.045189694 1.1989709 0.99716735 0.63435113 -0.12078569 0.008927199 -0.17716305 -0.08980803
0.06577484 0.14933199 -0.023282234 -0.16856593 -0.08857016 0.09001987 0.22814037 0.12057188
0.032031868 0.0143121695 0.015330501 -0.1961747 -0.24145474 -0.1758864 0.2800952 -0.10823238
0.18692017 0.108703576 0.17686747 0.20498134 0.35084316 0.8087357 0.24859616 0.4269468
00000000: dde8 013f 0cd5 c33d 0437 e73e e5ea 153f
00000010: 9a2e f03e 1b82 c9bb 1182 cd3e a032 dd3e
00000020: dfa2 b73e 2be9 153e 9645 523e f149 6c3e
00000030: 4f71 d33c aa64 033f 8328 233e d2e0 f43e
00000040: a237 d73e f9c1 333e d8fb 713d 74e2 a43e
00000050: 9edc 493e 8e1c f93e 19d5 b33e 90ed fd3e
00000060: 163b 2d3e bab9 ba3e 4390 dbbc ff65 703d
00000070: 60af debc b294 8cbd e250 85bd 00ce 973e
00000080: 646a d43e 486d a6bd 67b8 023d 40f4 95bd
00000090: f88f e2b9 2c14 afbd d358 16bd a3b6 02bd
000000a0: 755a a43d d13e 713b fba2 44bc 9070 05bc
000000b0: 37f3 3cbd c8bf a63a 50a6 01bc fb30 9bbc
000000c0: dcfe 6cbd 5548 8e3d 139e ff3c 9f08 aebd
000000d0: 7e9f 43bc 13e1 7d3d 7213 0cbd 25b6 53bd
000000e0: 1637 4ebd b298 4bbd e6c2 813d a416 873d
000000f0: c673 a53d 086f a8bd 5e0e 9dbd a5c3 143d
00000100: 5de1 8a3d 2630 a33d 6ff5 443e 07f1 28bd
00000110: 2db6 8f3e 2274 ba3e fc51 013e cfa1 de3e
00000120: bfa3 f33e 3b85 dc3e 9a84 cd3e cc4f bf3e
00000130: eaf3 e43e ff21 b93e 4bb1 c03e 5be4 8d3d
00000140: 2dce 80bd 8b2d f03e b957 cb3e dc99 d23e
00000150: 9a17 8e3e b8b5 023f 2063 c53e 52ae cf3e
00000160: a04a 053e ba84 443e d93c 8c3b f64f e83e
00000170: 4f70 703d 6d76 1e3b 8476 643e e330 143f
00000180: c89f adbd a6bc 11bc 4988 173b e1d6 3d3d
00000190: 3b53 92bd b50b debc 84c0 85bd a1d3 3cbd
000001a0: 3dda 0e3c 7e3f 763c 4908 b03d a03b bf3c
000001b0: 32e5 303d b7be ae3c 3531 ed3b 595a 6b3d
000001c0: 6d69 ae3d 0dc7 10bc ce98 483d 52dd 92bc
000001d0: 68dc 8fbd 5122 9e3d 9843 24bd 630c f0bc
000001e0: 0cd3 e73b b7f9 293d 78d9 6b3d cf3d 0cbc
000001f0: 3e21 803d e6c9 853c dc43 913d 64b7 403d
00000200: e461 e63e fd75 fc3e fe99 c63e d1b5 8d3f
00000210: ddfc 8f3f ca58 933f 1fa2 883f 9dbf 863f
00000220: 3bf9 2abd 5dc7 183f 429c 723f 0cd7 9a3f
00000230: 83ff 443f ded4 9d3f 2779 713f f5e2 523f
00000240: dc80 363f a6ad 713f c9d6 5d3f eb92 713f
00000250: 8f97 2f3f 4ef2 11bd 4d2a 4a3f 73aa 523f
00000260: 82f0 853f dfae b53f 51b5 9d3f 3406 0f3f
00000270: 1c91 3b3f d504 1cbd a155 2d3e 2adc 2e3f
00000280: 3355 603d f2c4 223f c8ba 633f 62c5 423f
00000290: 1972 343d ec6d 1b3c d04d 8f3d aced 89bd
000002a0: 9fd0 9ebd 9b7d 243c dc79 4c3d 6059 56bc
000002b0: 6392 8fbd 8ef2 523c a210 24bd 8336 643d
000002c0: a960 81bd 660f 8b3d e726 50bd e3e3 bdbc
000002d0: beea 7f3c bc54 253d 6753 093b 62fc 11bc
000002e0: adff a0bd 5817 77bc f296 f7bc 520b cfbc
000002f0: b35e 32bd 2c31 3f3f b68b 2f3d e5df f4bc
00000300: 08a1 61bd 1956 69bb dc04 7f3d 0ab8 1f3f
00000310: 96bd 373f f85c 923f a4b9 553f beef 413f
00000320: c0ca 2d3f f4d0 4c3e 9875 aa3f d6d3 973f
00000330: 3a38 3b3f aa33 543f 7b58 903f 728e 233f
00000340: 07de 9a3f 3a36 923f ef13 473f c504 1c3f
00000350: d5bd 953f f919 873f 5545 6d3f 16a6 513f
00000360: d555 c13f ba21 963f eeb5 483f 63a9 243f
00000370: 1ae9 463f 369b a2bc 311e 2e3f 7585 393f
00000380: d418 393d e177 993f 5c46 7f3f d664 223f
00000390: 7d5e f7bd 6343 123c 3b6a 35be 46ed b7bd
000003a0: f6b4 863d 7cea 183e 62ba bebc 8c9c 2cbe
000003b0: 4664 b5bd 565c b83d a19d 693e 64ee f63d
000003c0: d933 033d 977d 6a3c c82c 7b3c 05e2 48be
000003d0: e93f 77be 901b 34be a368 8f3e f0a8 ddbd
000003e0: 0068 3f3e fb9f de3d bf1c 353e a1e6 513e
000003f0: b7a1 b33e 4e09 4f3f fe8f 7e3e c598 da3e

net.layers.0.bias f4 [128]
0.483012 1.2220979 1.4267596 1.2872349 1.5206276 -0.122308895 1.367149 1.1778053
1.279204 1.4911509 1.2912602 1.0795013 1.209479 1.263255 1.2757772 1.2204301
1.1820538 1.3388689 1.4981096 1.3521144 1.3170896 1.1591716 1.6409564 1.4492048
1.23243 1.2194464 1.1301309 1.1073958 1.1362859 1.18897 1.2653604 1.1433496
1.4943715 1.1849878 1.3597035 1.3643439 -0.11442896 1.2938914 1.4106185 1.1702265
1.547042 1.1924685 1.1988328 1.4613261 -0.04727593 1.4160298 1.5226266 1.0438173
1.4045295 1.1888901 1.196365 1.1953938 1.1388386 1.3463703 1.194266 1.1644309
1.5383945 1.3970921 1.3959703 1.430645 1.2650557 1.185687 -0.11404319 1.1013885
1.277569 1.4143559 1.5531172 1.428646 1.1681701 1.2966696 1.1833807 1.3213012
1.2047836 1.5826329 1.1667821 1.4809486 1.2538955 1.2313741 1.225936 1.2247376
1.1945263 1.485145 -0.04919798 1.1769814 1.5001795 1.514174 1.3152436 1.6229844
1.1249491 1.1647404 1.5378237 1.4846817 1.151872 1.2983872 1.1445374 1.5358428
1.3114312 1.2304741 1.446954 1.1493363 1.3265287 1.2229007 1.2610502 1.0895362
1.2168624 1.4218522 1.5083857 1.227328 1.2215266 1.1592394 1.3810314 1.2475637
1.1736678 -0.0630258 1.597378 1.3630028 1.1558385 1.239396 1.3677429 1.500361
1.2166935 1.1689968 1.2235597 1.282949 1.2339467 1.1698469 1.1516811 1.2104299
00000000: 594d f73e b46d 9c3f 0fa0 b63f 1dc4 a43f
00000010: eda3 c23f 167d fabd bdfe ae3f 53c2 963f
00000020: f5bc a33f 08de be3f 0448 a53f 192d 8a3f
00000030: 35d0 9a3f 57b2 a13f ab4c a33f 0e37 9c3f
00000040: 8a4d 973f 0e60 ab3f 0ec2 bf3f 1612 ad3f
00000050: 6496 a83f bc5f 943f dc0a d23f 8b7f b93f
00000060: 44c0 9d3f d216 9c3f 21a8 903f 25bf 8d3f
00000070: d171 913f 2b30 983f 54f7 a13f 4859 923f
00000080: 9147 bf3f aead 973f c40a ae3f d2a2 ae3f
00000090: bb59 eabd 3c9e a53f 268f b43f fbc9 953f
000000a0: 7905 c63f cfa2 983f 5a73 993f bc0c bb3f
000000b0: 68a4 41bd 7740 b53f 6ee5 c23f ce9b 853f
000000c0: 9fc7 b33f 8d2d 983f 7d22 993f aa02 993f
000000d0: 77c5 913f dd55 ac3f b5dd 983f 120c 953f
000000e0: 1cea c43f ead3 b23f 28af b23f 601f b73f
000000f0: 58ed a13f 97c4 973f 7a8f e9bd 4cfa 8c3f
00000100: 6287 a33f 9d09 b53f 8bcc c63f dfdd b63f
00000110: 9986 953f 45f9 a53f 0579 973f 6620 a93f
00000120: 5936 9a3f b793 ca3f 1e59 953f b98f bd3f
00000130: a67f a03f ab9d 9d3f 79eb 9c3f 34c4 9c3f
00000140: 3de6 983f 3b19 be3f d283 49bd 54a7 963f
00000150: e205 c03f 74d0 c13f e759 a83f f4bd cf3f
00000160: 55fe 8f3f 3716 953f 68d7 c43f 0d0a be3f
00000170: 8b70 933f 8d31 a63f 3480 923f 7f96 c43f
00000180: fadc a73f 2d80 9d3f ca35 b93f 741d 933f
00000190: b1cb a93f 0388 9c3f 186a a13f ec75 8b3f
000001a0: 26c2 9b3f 41ff b53f c812 c13f 1519 9d3f
000001b0: fc5a 9c3f f561 943f a3c5 b03f 2bb0 9f3f
000001c0: bf3a 963f ac13 81bd e276 cc3f e076 ae3f
000001d0: 84f2 933f 87a4 9e3f 3312 af3f d40b c03f
000001e0: 9dbc 9b3f b0a1 953f 9b9d 9c3f ac37 a43f
000001f0: f7f1 9d3f 8bbd 953f 496a 933f 5eef 9a3f

net.layers.1.weight f4 [128, 128]
0.42855412 1.1914468 1.49325 1.4325116 1.8096844 -0.053889316 1.3549365 1.351496
1.058761 1.5247314 1.3682925 0.9484423 1.1338199 0.99566734 1.2528334 1.2160423
1.2593231 1.1692408 1.6441215 1.0448849 1.4273012 0.9655427 1.7252756 1.6084528
1.1541426 0.9537781 1.1099871 0.97453564 1.0573808 0.8554131 1.1106714 1.0647768
1.6341287 1.0604726 1.5149441 1.1264083 0.11766406 1.166218 1.5281329 1.0863367
1.6215641 0.96654975 1.0205632 1.5272424 -0.09551828 1.5730997 1.7278881 0.891161
1.4898567 1.0966401 1.1546617 0.935683 1.0935739 1.3212159 1.0240555 0.9872552
1.7156211 1.611532 1.3525679 1.481035 1.2845651 1.2587448 -0.03075846 1.0181695
1.380886 1.7169895 1.924204 1.5424687 0.9065605 1.4062428 1.0379751 1.2063397
0.98426306 1.8123298 1.0001367 1.8059084 1.1928396 1.0901316 1.2471025 1.4740973
1.0163529 1.4973227 0.034658153 1.0580863 1.801338 1.6556016 1.1038603 1.6410681
1.1238776 1.0007012 1.6916535 1.5322852 1.2314295 1.227523 1.1113166 1.6860222
1.1805762 1.127586 1.464365 1.0052211 1.2010716 1.0470381 1.0680944 1.0468105
1.143836 1.2609025 1.776615 1.2605116 1.0948807 1.0966257 1.3600892 1.1611758
1.0141451 0.14907949 1.7833247 1.4106665 0.95484936 1.2659873 1.4859654 1.6525527
0.9709913 0.9358447 1.2905743 1.3611467 1.164879 1.0751243 1.3128922 1.0525881
0.012195412 -0.012062291 0.05037544 -0.08477022 0.0053767785 0.05468704 0.028204797 -0.0104343165
0.050438143 0.006247817 0.021208325 -0.03592263 -0.04192464 0.00967423 -0.049873777 0.006677072
-0.072959766 0.01568063 -0.06339086 -0.035647362 -0.013181226 0.026099814 -0.0031254205 -0.01859994
-0.06380735 0.00743482 -0.011551924 0.06774484 0.034514487 0.037545666 0.06363191 -0.025421366
0.04436297 -0.0308856 0.052417245 -0.021324156 -0.06253351 -0.08439757 0.08160366 0.04416703
0.035498857 -0.05523749 0.048033413 -0.07226372 0.06848361 -0.06048969 -0.043720663 -0.0147758415
-0.07902458 0.0084341 -0.06615336 -0.082247965 -0.07530203 0.010651646 0.004344097 0.00095147564
0.04092282 -0.07501965 0.0006396627 0.013367231 -0.025324745 -0.085563146 -0.050002534 -0.036176283
0.029420165 0.07150749 -0.08108526 -0.059701536 0.071438864 0.004922288 -0.05130637 -0.022479633
0.05461042 0.036022447 0.042739294 -0.016556388 -0.060531493 -0.07138526 -0.05091182 0.056544423
-0.025637137 -0.039831955 -0.014477622 0.022407023 -0.0659104 -0.0076526455 0.080845274 0.035728324
0.04132132 -0.009864849 0.031764016 -0.0029425137 -0.036707923 0.062277235 0.021106256 -0.063861944
0.0063878396 -0.048655037 -0.015490884 -0.05822503 0.011612205 -0.04606901 0.010189159 -0.0783141
-0.06189013 0.05126401 0.013073278 0.042279977 -0.047459774 -0.011882177 -0.040442903 -0.028155021
0.012732689 0.03581931 -0.063893855 -0.07683249 -0.025579492 -0.08149207 -0.004151275 -0.045648925
0.08692644 -0.004616871 -0.06553327 0.017013008 -0.043074373 -0.06336687 0.073086575 0.0006490509
00000000: 726b db3e 5481 983f d122 bf3f 8a5c b73f
00000010: bda3 e73f 0bbb 5cbd 8f6e ad3f d2fd ac3f
00000020: 7b85 873f 662a c33f 3524 af3f 1dcd 723f
00000030: 0321 913f 0ee4 7e3f d85c a03f 46a7 9b3f
00000040: 8031 a13f afa9 953f 9372 d23f cabe 853f
00000050: ceb1 b63f ce2d 773f d5d5 dc3f c8e1 cd3f
00000060: f2ba 933f cd2a 743f 0f14 8e3f 2b7b 793f
00000070: 4158 873f 5afc 5a3f 7b2a 8e3f 9b4a 883f
00000080: 212b d13f 91bd 873f b0e9 c13f 262e 903f
00000090: dbf9 f03d a246 953f dc99 c33f 150d 8b3f
000000a0: 6a8f cf3f ce6f 773f d1a1 823f ae7c c33f
000000b0: 179f c3bd 555b c93f 702b dd3f 2123 643f
000000c0: a0b3 be3f b45e 8c3f f4cb 933f ec88 6f3f
000000d0: 3bfa 8b3f 9a1d a93f 4014 833f c2bc 7c3f
000000e0: 7999 db3f ae46 ce3f f220 ad3f 8e92 bd3f
000000f0: a16c a43f 8d1e a13f 2af9 fbbc 6153 823f
00000100: dfc0 b03f 50c6 db3f 514c f63f 9d6f c53f
00000110: 5914 683f c4ff b33f 5edc 843f 5769 9a3f
00000120: aaf8 7b3f 6cfa e73f 7b04 803f 0228 e73f
00000130: f8ae 983f 6f89 8b3f 0ea1 9f3f 38af bc3f
00000140: da17 823f 45a8 bf3f b5f5 0d3d 5f6f 873f
00000150: 3e92 e63f c1ea d33f 4b4b 8d3f 850e d23f
00000160: 39db 8f3f fa16 803f 1a88 d83f ec21 c43f
00000170: 7b9f 9d3f 791f 9d3f 9f3f 8e3f 93cf d73f
00000180: 1f1d 973f bd54 903f 5070 bb3f 16ab 803f
00000190: b7bc 993f 5805 863f 51b7 883f e3fd 853f
000001a0: 3869 923f 4165 a13f 1f68 e33f 7258 a13f
000001b0: 0d25 8c3f 3b5e 8c3f 6717 ae3f 69a1 943f
000001c0: 82cf 813f 4ba8 183e fc43 e43f b890 b43f
000001d0: 0271 743f df0b a23f 1d34 be3f d986 d33f
000001e0: e392 783f 8593 6f3f 8a31 a53f 0e3a ae3f
000001f0: c11a 953f ac9d 893f da0c a83f 35bb 863f
00000200: 44cf 473c eaa0 45bc 7a56 4e3d 029c adbd
00000210: b02f b03b 85ff 5f3d bf0d e73c b2f4 2abc
00000220: 3a98 4e3d 7dba cc3b 15bd ad3c 9c23 13bd
00000230: 2cb9 2bbd a980 1e3c 7248 4cbd 57cb da3b
00000240: ee6b 95bd aa74 803c 11d3 81bd f802 12bd
00000250: 12f6 57bc 47cf d53c dbd3 4cbb e75e 98bc
00000260: 6ead 82bd ca9f f33b 4844 3dbc cfbd 8a3d
00000270: 105f 0d3d 7cc9 193d 7251 823d 7840 d0bc
00000280: f2b5 353d cc03 fdbc 77b3 563d ffaf aebc
00000290: 9211 80bd a2d8 acbd d21f a73d 7de8 343d
000002a0: 4067 113d b540 62bd afbe 443d 00ff 93bd
000002b0: 2341 8c3d 0ac4 77bd 7014 33bd 5f16 72bc
000002c0: a4d7 a1bd 2e2f 0a3c 6a7b 87bd 9f71 a8bd
000002d0: f337 9abd 3e84 2e3c ed58 8e3b 736c 793a
000002e0: b09e 273d e7a3 99bd 0aaf 273a 3b02 5b3c
000002f0: d775 cfbc bb3b afbd 75cf 4cbd 952d 14bd
00000300: 8f02 f13c 8572 923d 0710 a6bd 9989 74bd
00000310: 8a4e 923d 254b a13b a126 52bd 3527 b8bc
00000320: 2daf 5f3d 468c 133d 660f 2f3d 43a1 87bc
00000330: dfef 77bd 6f32 92bd ea88 50bd 209b 673d
00000340: f904 d2bc d526 23bd 8c33 6dbc ef8e b73c
00000350: 08fc 86bd 0bc3 fabb 3592 a53d dd57 123d
00000360: 8b40 293d 2da0 21bc fc1a 023d 30d7 40bb
00000370: 0c5b 16bd 6a16 7f3d 07e7 ac3c 0dca 82bd
00000380: 1551 d13b 814a 47bd 7acd 7dbc 5e7d 6ebd
00000390: 1e41 3e3c dcb2 3cbd 6ef0 263c 2563 a0bd
000003a0: 8180 7dbd 36fa 513d 4d31 563c c52d 2d3d
000003b0: 2e65 42bd 76ad 42bc 75a7 25bd 5ca5 e6bc
000003c0: c59c 503c 45b7 123d c8da 82bd 5a5a 9dbd
000003d0: 158c d1bc 50e5 a6bd 6b07 88bb 5efa 3abd
000003e0: 7d06 b23d 1f49 97bb 4f36 86bd dd5e 8b3c
000003f0: c16e 30bd 7dc6 81bd 6aae 953d 1225 2a3a

net.layers.1.bias f4 [128]
0.4820527 -0.030418128 0.5718018 -0.13674138 0.40242234 -0.055454325 0.46988487 0.47156513
0.5339973 0.5492856 -0.21800967 -0.08984158 0.5232393 0.46902794 0.5067127 -0.12776573
-0.041433662 -0.041005325 0.4706203 0.739335 0.39615375 -0.05132465 0.4983891 0.47228897
-0.042364053 0.4713532 0.46085227 0.4587653 -0.04822159 0.39315522 -0.059732877 -0.13157266
0.68954 0.56097233 0.4016894 -0.085413955 -0.110524245 0.5134416 -0.09468193 -0.03748955
0.5210663 0.4880404 -0.0033144662 0.48454198 -0.100406654 -0.05450234 0.3672693 0.40995857
0.5078436 0.5007786 0.013725332 -0.050801694 0.45383534 -0.07691438 0.42302895 0.52778625
-0.0528544 0.50233346 0.46530926 -0.028136961 0.0011046396 0.48872128 0.5483484 0.47646907
0.081679195 -0.07333291 -0.1357898 -0.10534394 0.5146847 0.46937776 -0.04080595 0.008708506
0.44052684 -0.08767474 0.4728709 0.014476878 0.615878 -0.13021474 0.45297834 0.4314127
0.4873033 0.45068824 0.4922788 0.416505 -0.021563169 0.55724233 0.0021621136 -0.07665016
-0.13249612 -0.06949721 -0.07644015 0.5096245 0.4444499 0.4308487 -0.04798763 -0.06504514
0.45121452 0.48586714 0.5089571 0.55172914 0.46074364 0.45586953 0.51501346 0.5652298
0.0225705 0.39865315 -0.12610309 0.45488527 0.4942023 -0.07341006 -0.09140228 0.013786082
-0.06474655 0.4705709 0.47991148 0.49082515 0.4786298 -0.08170638 -0.07693217 0.4577059
0.47347915 0.56422585 0.5307344 0.4606786 0.5771298 -0.08434483 -0.08694052 0.577391
00000000: 9dcf f63e 702f f9bc 9a61 123f ef05 0cbe
00000010: 4d0a ce3e 1324 63bd c094 f03e fc70 f13e
00000020: 0cb4 083f fb9d 0c3f ed3d 5fbe ddfe b7bd
00000030: 03f3 053f 6e24 f03e ecb7 013f 05d5 02be
00000040: 58b6 29bd 33f5 27bd 25f5 f03e 0f45 3d3f
00000050: aad4 ca3e cc39 52bd db2c ff3e dccf f13e
00000060: ee85 2dbd 3555 f13e d4f4 eb3e 49e3 ea3e
00000070: 0184 45bd a44b c93e 76aa 74bd fcba 06be
00000080: b285 303f e29b 0f3f 3caa cd3e 83ed aebd
00000090: 895a e2bd e970 033f 9ae8 c1bd a48e 19bd
000000a0: 9a64 053f 6ee0 f93e 8437 59bb e315 f83e
000000b0: 01a2 cdbd d83d 5fbd b90a bc3e 17e6 d13e
000000c0: 0a02 023f 0733 003f 37e0 603c 7015 50bd
000000d0: 1b5d e83e 4985 9dbd 4097 d83e 001d 073f
000000e0: db7d 58bd ed98 003f 043d ee3e 7c7f e6bc
000000f0: 8ec9 903a ad39 fa3e 9060 0c3f c1f3 f33e
00000100: 6c47 a73d 912f 96bd 7b0c 0bbe 90be d7bd
00000110: 60c2 033f 4852 f03e 2424 27bd 1fae 0e3c
00000120: bc8c e13e d08e b3bd 221c f23e 6d30 6d3c
00000130: 2eaa 1d3f 0357 05be c7ec e73e 20e2 dc3e
00000140: d17f f93e 9cc0 e63e f80b fc3e 2540 d53e
00000150: 3ea5 b0bc 6fa7 0e3f 3fb2 0d3b c2fa 9cbd
00000160: 10ad 07be 8e54 8ebd a78c 9cbd c076 023f
00000170: f08e e33e 3398 dc3e ad8e 44bd 6336 85bd
00000180: 9705 e73e 94c3 f83e 034b 023f 1f3e 0d3f
00000190: 97e6 eb3e bb67 e93e ecd7 033f e6b2 103f
000001a0: c5e5 b83c 441c cc3e 2b21 01be b9e6 e83e
000001b0: 1508 fd3e 0358 96bd 1e31 bbbd 05df 613c
000001c0: d799 84bd abee f03e f5b6 f53e 6f4d fb3e
000001d0: f70e f53e ad55 a7bd 9d8e 9dbd 6d58 ea3e
000001e0: dc6b f23e 1b71 103f 36de 073f 11de eb3e
000001f0: c7be 133f fbbc acbd df0d b2bd e6cf 133f

net.out.weight f4 [64, 128]
-0.6065206 0.08536077 -0.6252903 0.04021321 -0.6491791 -0.001810892 -0.5970188 -0.7697244
-0.69494385 -0.6879308 -0.0701496 0.031055357 -0.62303513 -0.6936511 -0.8316252 0.07376344
0.0006095473 -0.029016947 -0.8301319 -0.88554865 -0.5565415 0.0072368877 -0.72720504 -0.6515403
0.006466675 -0.6124706 -0.6344558 -0.70509905 -0.07120165 -0.8448547 0.03963998 0.048156362
-0.6127107 -0.60569143 -0.7328143 0.040779598 0.10386209 -0.5503346 0.032460187 0.014924474
-0.58444315 -0.7207525 -0.042833615 -0.7338645 -0.001175298 0.015664918 -0.72046846 -0.81670046
-0.7029192 -0.62314534 -0.022839725 -0.07338857 -0.572741 0.043129366 -0.65721756 -0.68125093
-0.03891747 -0.8011325 -0.7542523 -0.07027613 -0.086918056 -0.6570946 -0.75258106 -0.642897
0.011192977 -0.021079019 0.13337322 0.041172978 -0.7579662 -0.7053915 -0.0066573615 -0.10864427
-0.7026759 -0.070927225 -0.59859747 -0.02949052 -0.63879657 0.033098325 -0.5566266 -0.6572599
-0.8323819 -0.7944893 -0.65883225 -0.81346154 -0.11931351 -0.7188378 0.010344424 -0.028604781
0.06002523 -0.12062615 0.09784326 -0.6731237 -0.7588216 -0.814916 0.07901102 -0.13126723
-0.7443212 -0.4904614 -0.7331338 -0.6911031 -0.62526727 -0.86394215 -0.69600654 -0.8736895
-0.05690842 -0.7122888 0.07156838 -0.68598795 -0.81447476 -0.09423342 0.0041892435 -0.1291333
-0.0055167126 -0.7355505 -0.685395 -0.5817035 -0.7193621 -0.07881595 -0.075397804 -0.69438297
-0.67928934 -0.9275724 -0.5684351 -0.60992414 -0.64106363 0.061729383 0.08517792 -0.5507581
-1.0550897 -0.07210882 -1.2073573 -0.08690286 -1.0967555 -0.05267843 -1.0613903 -1.1023738
-1.1267321 -1.2178277 -0.023533145 -0.019363146 -1.2179846 -1.1682769 -1.0921463 0.085070856
0.008613558 -0.09370606 -1.1728667 -1.0776013 -1.1471132 -0.055790782 -1.2963113 -1.1807944
-0.043946687 -1.2013556 -1.2185192 -1.1207893 0.00572782 -1.339727 -0.021269092 0.14347382
-1.073276 -1.0073664 -1.1833767 -0.002950321 0.016921982 -1.0086491 -0.0067932606 0.05836151
-1.1046816 -1.1349536 -0.04480706 -1.1227835 0.08210756 -0.11055764 -1.1843874 -1.2333193
-1.2020669 -1.0326293 0.037213486 0.047554366 -1.1030028 -0.026452327 -1.1581208 -1.2892724
-0.054287985 -1.2620585 -1.21468 -0.07573011 -0.07088548 -1.1884882 -1.1119796 -1.1202192
-0.05097475 0.028803367 0.095407456 0.015861917 -1.1788213 -1.2538103 0.07004874 -0.13604414
-1.1806973 -0.026136985 -1.1014558 -0.12988648 -1.0719523 -0.075189196 -1.1589732 -1.244797
-1.1255996 -1.2380097 -1.0483867 -1.3378137 0.015423535 -1.1631975 0.12627253 -0.079414405
-0.057277538 0.029568667 -0.14556324 -1.1604228 -1.2731084 -1.1825829 0.030607741 0.0017031486
-1.2040529 -1.0506479 -1.112283 -1.124984 -1.1722816 -1.2950367 -1.0707183 -1.3112136
0.055533193 -1.1539395 0.122166835 -1.0552231 -1.0888431 -0.0038323074 0.0015841948 -0.007444667
0.0076673413 -1.160318 -1.1186632 -1.2388437 -1.1538364 0.072209574 -0.0128581915 -1.3208894
-1.2933432 -1.3656284 -1.1292623 -1.0362381 -1.1608199 0.040595453 0.10479628 -1.1510291
00000000: ef44 1bbf a1d1 ae3d 0613 20bf 9bb6 243d
00000010: 9a30 26bf 745b edba 39d6 18bf a90c 45bf
00000020: d7e7 31bf 3c1c 30bf 98aa 8fbd ce67 fe3c
00000030: 3b7f 1fbf 1e93 31bf 64e5 54bf 4911 973d
00000040: 07ca 1f3a f3b4 edbc 8683 54bf 51b3 62bf
00000050: 8179 0ebf 6a23 ed3b 1c2a 3abf 58cb 26bf
00000060: 67e6 d33b e0ca 1cbf b26b 22bf 5f81 34bf
00000070: 2cd2 91bd 6648 58bf 885d 223d 9b3f 453d
00000080: 9cda 1cbf 980e 1bbf b899 3bbf 8208 273d
00000090: a6b5 d43d bae2 0cbf f9f4 043d c885 743c
000000a0: 119e 15bf 3c83 38bf 4d72 2fbd 8bde 3bbf
000000b0: 750c 9aba b753 803c 9f70 38bf 4813 51bf
000000c0: 83f2 33bf 7486 1fbf 601a bbbc bf4c 96bd
000000d0: 279f 12bf 6ba8 303d 693f 28bf 7666 2ebf
000000e0: ed67 1fbd 0517 4dbf ae16 41bf efec 8fbd
000000f0: 1802 b2bd 5a37 28bf 27a9 40bf e694 24bf
00000100: c062 373c e8ad acbc fd92 083e ffa4 283d
00000110: 130a 42bf 8a94 34bf ff25 dabb e380 debd
00000120: 91e2 33bf 4b42 91bd af3d 19bf 1a96 f1bc
00000130: 2c88 23bf 1c92 073d 157f 0ebf 2f42 28bf
00000140: fb16 55bf a763 4bbf 3ba9 28bf 043f 50bf
00000150: a45a f4bd c105 38bf a97b 293c 9354 eabc
00000160: 04dd 753d d80a f7bd 0c62 c83d d651 2cbf
00000170: 2242 42bf 569e 50bf 88d0 a13d eb6a 06be
00000180: d68b 3ebf c21d fbbe a8ae 3bbf 22ec 30bf
00000190: 8411 20bf 502b 5dbf 7c2d 32bf 1daa 5fbf
000001a0: ce18 69bd 8f58 36bf 7192 923d e89c 2fbf
000001b0: 6b81 50bf 74fd c0bd ec45 893b 853b 04be
000001c0: 8ac5 b4bb 0a4d 3cbf 0c76 2fbf 85ea 14bf
000001d0: 1d28 38bf 426a a1bd 2a6a 9abd 15c3 31bf
000001e0: e8e5 2dbf 6375 6dbf f684 11bf fd23 1cbf
000001f0: bf1c 24bf f3d7 7c3d c371 ae3d 7cfe 0cbf
00000200: 2e0d 87bf caad 93bd af8a 9abf 20fa b1bd
00000210: 7c62 8cbf 56c5 57bd a3db 87bf 961a 8dbf
00000220: c238 90bf c7e1 9bbf 95c8 c0bc 769f 9ebc
00000230: ebe6 9bbf 198a 95bf 73cb 8bbf a139 ae3d
00000240: e11f 0d3c f6e8 bfbd 7f20 96bf d7ee 89bf
00000250: 9bd4 92bf e084 64bd 87ed a5bf 4524 97bf
00000260: 7101 34bd 05c6 99bf 70f8 9bbf 0676 8fbf
00000270: 70b0 bb3b 2d7c abbf 853c aebc cdea 123e
00000280: 1c61 89bf 62f1 80bf e378 97bf 2c5a 41bb
00000290: f89f 8a3c 6a1b 81bf 009a debb 7b0c 6f3d
000002a0: 3566 8dbf 2946 91bf 9c87 37bd 5fb7 8fbf
000002b0: 0228 a83d 0b6c e2bd 029a 97bf 68dd 9dbf
000002c0: 54dd 99bf 322d 84bf 2b6d 183d 5ec8 423d
000002d0: 322f 8dbf 8db2 d8bc 4d3d 94bf e106 a5bf
000002e0: 145d 5ebd 228b a1bf a27a 9bbf 6318 9bbd
000002f0: 682c 91bd 6220 98bf 5955 8ebf 5863 8fbf
00000300: e6ca 50bd 0af5 eb3c fc64 c33d daf0 813c
00000310: 9ee3 96bf db7c a0bf b775 8f3d 284f 0bbe
00000320: 1721 97bf 3b1d d6bc 81fc 8cbf f600 05be
00000330: bc35 89bf cbfc 99bd 3c59 94bf 8255 9fbf
00000340: a613 90bf 1a77 9ebf 8931 86bf 7b3d abbf
00000350: ffb2 7c3c a8e3 94bf 964d 013e 05a4 a2bd
00000360: da9b 6abd fd39 f23c 880e 15be bc88 94bf
00000370: 37f5 a2bf e05e 97bf 16bd fa3c 2f3c df3a
00000380: 681e 9abf a17b 86bf 4a5f 8ebf 7aff 8fbf
00000390: 530d 96bf c3c3 a5bf 4c0d 89bf d9d5 a7bf
000003a0: c676 633d 4ab4 93bf 9b32 fa3d 8d11 87bf
000003b0: 365f 8bbf 7327 7bbb c2a4 cf3a 65f2 f3bb
000003c0: 523e fb3b 4d85 94bf 5b30 8fbf 6e92 9ebf
000003d0: e9b0 93bf 9de2 933d 2aab 52bc e712 a9bf
000003e0: 458c a5bf e9cc aebf ab8b 90bf 73a3 84bf
000003f0: bf95 94bf 6b47 263d 6f9f d63d ec54 93bf

net.out.bias f4 [64]
-0.09225236 -0.18432103 -0.09869192 -0.09656476 -0.065040275 0.040308908 -0.21879534 -0.16925324
-0.061889272 -0.13505623 0.052039586 -0.09805078 -0.06595984 -0.24163689 -0.1357388 -0.17059691
-0.089991964 0.03464201 -0.15403806 -0.1631665 -0.18015409 -0.021170868 -0.107319035 -0.10779069
-0.13736819 -0.082026675 -0.0106010595 -0.018274164 -0.19474912 -0.16940197 -0.20262235 -0.03234853
0.020002324 -0.04257222 0.16258661 0.17861521 0.13336354 0.2082053 0.083983585 0.14682244
0.18450853 0.056453094 0.05522651 0.10567712 0.44559905 0.16590303 0.20397305 0.15256563
0.24042276 0.09815306 0.042425487 0.15691517 0.1690924 0.079829134 0.10835903 0.11895415
0.04288884 0.056182895 0.14720102 0.052130833 0.09475701 0.072193965 0.12365959 0.1652965
00000000: ceee bcbd a7be 3cbe fd1e cabd bfc3 c5bd
00000010: d633 85bd f41a 253d e30b 60be b950 2dbe
00000020: 9b7f 7dbd 2e4c 0abe 7627 553d d9ce c8bd
00000030: f415 87bd a96f 77be 1dff 0abe f5b0 2ebe
00000040: b54d b8bd c8e4 0d3d 27bc 1dbe 1e15 27be
00000050: 507a 38be 876e adbc 15ca dbbd 5ec1 dcbd
00000060: 3faa 0cbe 9afd a7bd 11b0 2dbc b3b3 95bc
00000070: 506c 47be b677 2dbe 3c7c 4fbe e47f 04bd
00000080: eadb a33c 3560 2ebd 1b7d 263e e8e6 363e
00000090: 7490 083e c533 553e 96ff ab3d 9f58 163e
000000a0: ceef 3c3e 5c3b 673d 3135 623d 3f6d d83d
000000b0: 8f25 e43e 7ce2 293e 50de 503e 2a3a 1c3e
000000c0: 6231 763e 7904 c93d 59c6 2d3d 5fae 203e
000000d0: 8f26 2d3e 757d a33d 57eb dd3d 3c9e f33d
000000e0: 35ac 2f3d 0920 663d ddbb 163e 2487 553d
000000f0: f70f c23d 6eda 933d 3d41 fd3d 7c43 293e

v.layers.0.weight f4 [128, 131]
-0.0039070738 0.030128231 -0.07027053 0.07508661 -0.05761127 0.06280852 0.0066215987 -0.07060676
0.050722614 0.011630785 0.061216652 -0.06665137 -0.06623062 -0.030307708 -0.003956484 -0.08305252
0.008241365 -0.04445943 -0.08641795 0.071126245 -0.070158735 -0.07117849 0.042310312 -0.040764514
-0.067740776 -0.0138273435 0.0088995425 -0.064575 0.08399423 0.034987718 -0.040881135 0.007913468
0.050791 -0.07111292 -0.073087916 0.04874253 0.059391018 0.04839908 0.04103675 0.019703826
-0.06289041 0.06758907 -0.034207273 0.078575835 0.060711622 0.08383478 0.019225584 0.013458921
-0.04087041 0.050145756 0.087275624 0.06467568 0.015819646 0.0087012965 -0.073933534 -0.04883764
0.06740823 -0.035571914 0.08078348 -0.017984584 0.031203616 -0.06695201 0.0026075384 -0.08269958
-0.07860941 -0.030938495 0.05358341 0.05251762 -0.0029698368 -0.055762764 0.032174673 0.07784018
-0.082065254 -0.044992726 -0.07292256 -0.070440196 0.0057100044 -0.07614525 -0.00613191 0.08487253
-0.014180996 0.015176164 -0.05844853 -0.009229367 -0.014811845 -0.07975575 -0.05346879 0.049614314
-0.015127931 0.04740331 0.049701367 -0.06029499 -0.05379979 -0.07111926 -0.062069997 0.014604433
-0.053783115 -0.009422488 0.07207969 0.055676036 0.017083842 0.029514246 -0.0033264693 -0.0051565007
-0.016684955 0.08176035 0.007117537 -0.056661837 -0.03622145 0.02544789 -0.056024253 0.0701022
-0.010526506 -0.07411483 0.031406604 -0.03500309 -0.012102986 0.06937606 0.07716395 0.069226556
-0.0036662912 -0.07141162 0.008252509 0.07564284 0.05547912 -0.06747147 -0.04035515 -0.06971634
0.053840596 -0.077278554 -0.035809364 -0.077160634 -0.06172703 0.033607047 -0.0029116957 0.009015632
-0.0061164536 -0.017725227 -0.056009937 0.023206187 -0.0030634566 -0.033933483 0.025793867 -0.017064381
-0.008410895 -0.048690427 -0.13214625 -0.050007727 -0.018616002 0.0041503976 -0.13179737 0.009988731
-0.014088512 -0.050413642 -0.102196425 -0.017107645 -0.07758748 0.039592847 0.005999905 -0.11678501
0.054753378 0.012002547 0.03118082 -0.01765289 0.052286282 0.08477003 -0.029544836 -0.08280273
0.050542593 -0.06987362 0.07862745 -0.0058604646 -0.00813191 0.065436356 -0.053802487 0.04645268
0.01287417 0.0213955 0.07515114 -0.02362723 0.06518577 0.056803215 -0.044383187 0.05121949
0.045863584 -0.06738517 -0.07279513 0.038474165 0.008804211 -0.07954706 -0.024085362 -0.083825916
-0.052016128 -0.032104857 -0.07776145 -0.11069011 -0.074399546 -0.061210036 0.00549112 -0.080099255
-0.11069669 -0.12206865 -0.0091476375 0.034169655 -0.096887305 -0.00044287118 -0.024490915 -0.039599195
-0.109376125 -0.13691854 0.028443726 -0.042866495 -0.066557966 -0.008514919 -0.12789322 0.017037703
0.025848601 -0.06903313 -0.11083697 -0.0754348 0.022902591 0.00081382156 -0.087882906 -0.016884828
-0.14146514 -0.056416612 -0.059744217 -0.05230951 -0.04503668 -0.09482906 -0.10631299 -0.054915514
-0.017838418 -0.004579019 0.07861559 -0.02040702 -0.12757295 -0.14825922 -0.03312685 0.02984309
-0.024880596 0.049017835 0.006263977 -0.06402863 0.0667104 -0.073021434 -0.003795348 0.03541909
-0.024232604 0.0814723 0.053452197 0.0394976 0.07718764 0.074681126 -0.06581654 0.029003007
00000000: e906 80bb 7bcf f63c ffe9 8fbd 02c7 993d
00000010: ccf9 6bbd c1a1 803d fff9 d83b 479a 90bd
00000020: 84c2 4f3d 0c8f 3e3c 50be 7a3d 8380 88bd
00000030: eba3 87bd df47 f8bc 65a5 81bb 7117 aabd
00000040: ca06 073c 171b 36bd e5fb b0bd a3aa 913d
00000050: 62af 8fbd 07c6 91bd 944d 2d3d b1f8 26bd
00000060: adbb 8abd 158c 62bc 63cf 113c e63f 84bd
00000070: 2b05 ac3d 484f 0f3d fa72 27bd 7ea7 013c
00000080: 390a 503d a7a3 91bd 1eaf 95bd 3fa6 473d
00000090: ff43 733d 1d3e 463d 2716 283d eb69 a13c
000000a0: b0cc 80bd 236c 8a3d ed1c 0cbd 5eec a03d
000000b0: c0ac 783d 92b1 ab3d f97e 9d3c ce82 5c3c
000000c0: bb67 27bd a365 4d3d 90bd b23d af74 843d
000000d0: 3498 813c e28f 0e3c 776a 97bd fa09 48bd
000000e0: 530d 8a3d dbb3 11bd cf71 a53d 6854 93bc
000000f0: ba9e ff3c 231e 89bd 3ce3 2a3b 665e a9bd
00000100: f8fd a0bd ba72 fdbc 477a 5b3d b71c 573d
00000110: 98a1 42bb 7f67 64bd 97c9 033d ac6a 9f3d
00000120: d411 a8bd 4b4a 38bd 6c58 95bd f342 90bd
00000130: fd1a bb3b 0af2 9bbd 30ee c8bb a6d1 ad3d
00000140: 6957 68bc 72a5 783c ba67 6fbd c536 17bc
00000150: 61ad 72bc fc56 a3bd 1702 5bbd 6138 4b3d
00000160: 24db 77bc f929 423d a993 4b3d e1f7 76bd
00000170: 2b5d 5cbd f9a6 91bd 1c3d 7ebd 6f47 6f3c
00000180: af4b 5cbd c760 1abc 849e 933d 8e0c 643d
00000190: 6af3 8b3c dcc7 f13c e500 5abb ddf7 a8bb
000001a0: e3ae 88bc f871 a73d 3a3a e93b 3e16 68bd
000001b0: f15c 14bd 1878 d03c b079 65bd be91 8f3d
000001c0: 5e77 2cbc 84c9 97bd 36a4 003d 665f 0fbd
000001d0: 9a4b 46bc 0915 8e3d 2208 9e3d a7c6 8d3d
000001e0: 2946 70bb 4140 92bd 8835 073c a2ea 9a3d
000001f0: 133e 633d 7b2e 8abd 714b 25bd 71c7 8ebd
00000200: f587 5c3d 3844 9ebd d7ac 12bd 6506 9ebd
00000210: 7bd5 7cbd 8ba7 093d 26d2 3ebb 4db6 133c
00000220: 886c c8bb 7f34 91bc ad6a 65bd e71a be3c
00000230: 46c4 48bb d6fd 0abd a94d d33c 9aca 8bbc
00000240: dacd 09bc 9d6f 47bd 5951 07be e7d4 4cbd
00000250: 9680 98bc 0f00 883b e4f5 06be c6a7 233c
00000260: 81d3 66bc 897e 4ebd 5c4c d1bd 5525 8cbc
00000270: 2fe6 9ebd 1c2c 223d da9a c43b fb2c efbd
00000280: 1445 603d 55a6 443c eb6e ff3c cb9c 90bc
00000290: 242a 563d e99b ad3d 0308 f2bc 7a94 a9bd
000002a0: c005 4f3d e719 8fbd 6e07 a13d 2409 c0bb
000002b0: b43b 05bc 7f03 863d ff5f 5cbd 2a45 3e3d
000002c0: 2fee 523c 9e45 af3c d7e8 993d e58d c1bc
000002d0: 1e80 853d 7daa 683d 25cb 35bd 87cb 513d
000002e0: 74db 3b3d 3c01 8abd 9d15 95bd 1697 1d3d
000002f0: 8a3f 103c 92e9 a2bd aa4e c5bc ecac abbd
00000300: dd0e 55bd 6280 03bd 6541 9fbd 7fb1 e2bd
00000310: ca5e 98bd 60b7 7abd daee b33b 140b a4bd
00000320: f2b4 e2bd 21ff f9bd f9df 15bc 7bf5 0b3d
00000330: da6c c6bd 2a31 e8b9 2ca1 c8bc c432 22bd
00000340: 9700 e0bd 6034 0cbe d102 e93c c794 2fbd
00000350: 8b4f 88bd 2982 0bbc 71f6 02be a792 8b3c
00000360: 72c0 d33c 3e61 8dbd 7efe e2bd 8f7d 9abd
00000370: 379e bb3c a456 553a f4fb b3bd 0d52 8abc
00000380: 3ddc 10be 1b15 67bd 5ab6 74bd 7f42 56bd
00000390: 6278 38bd bd35 c2bd a0ba d9bd 17ef 60bd
000003a0: e021 92bc 980b 96bb 3601 a13d 9f2c a7bc
000003b0: 7ca2 02be 44d1 17be 05b0 07bd 7f79 f43c
000003c0: 64d2 cbbc edc6 483d 0c42 cd3b 7121 83bd
000003d0: 769f 883d 438c 95bd 60bb 78bb 9c13 113d
000003e0: 7483 c6bc f3da a63d b1f0 5a3d 3cc8 213d
000003f0: 8e14 9e3d 6bf2 983d d2ca 86bd b797 ed3c

v.layers.0.bias f4 [128]
-0.06896111 0.022885434 -0.13732308 -0.01339652 -0.034616012 -0.041290194 0.10089417 -0.08793138
0.025812887 -0.05612386 -0.104183644 -0.0035353808 -0.09248899 0.0015288589 -0.097456194 -0.018070413
-0.08878076 0.008827826 0.028825128 -0.032165434 -0.0005078183 -0.12962106 -0.07678904 -0.07148746
-0.114006184 -0.0069392775 -0.031298526 -0.09629528 0.18321294 -0.048267443 -0.087225944 0.17691219
-0.12543228 0.006633412 0.047327895 -0.03026221 -0.17234123 0.039491516 0.018631049 -0.024180796
-0.031391963 -0.12740505 -0.02985491 -0.006395486 -0.04745739 -0.08603994 -0.045527965 -0.14292794
-0.14796399 -0.113159925 -0.13801329 0.20188667 -0.042604256 0.023589343 -0.09040256 -0.07374001
-0.0073928037 -0.030590102 -0.0846805 -0.13097627 0.013696224 0.19562618 0.09316106 0.12345945
-0.07000447 -0.07343873 -0.11704322 0.21741946 0.1528173 -0.058302455 0.015223853 -0.11528617
-0.10431502 0.21641976 0.16934508 -0.0634983 -0.020333666 -0.11137495 0.03658913 -0.024454694
-0.07326646 0.059384376 -0.09278587 0.13235292 -0.03597369 -0.14368418 -0.06135585 -0.08668527
-0.0041392813 0.011238587 -0.08441713 -0.096373975 -0.05770842 -0.032416753 -0.1221965 -0.06180503
0.009641113 -0.07933227 -0.065204434 0.15834214 -0.054923486 -0.107521325 -0.04296525 -0.042703986
0.057623845 -0.14534311 -0.076563254 -0.04655405 -0.032286033 -0.012904404 0.01718967 -0.017150354
0.04521474 -0.08375273 -0.015137461 -0.03809702 -0.08401842 -0.0006389022 0.020439528 -0.11289101
-0.045496468 -0.08342933 -0.019637218 0.029159483 0.00077754434 0.22811183 -0.11380397 -0.050950028
00000000: 7c3b 8dbd 3c7a bb3c 6c9e 0cbe 147d 5bbc
00000010: 85c9 0dbd e81f 29bd 9aa1 ce3d 5e15 b4bd
00000020: 8c75 d33c 22e2 65bd 3c5e d5bd d9b1 67bb
00000030: de6a bdbd fe63 c83a 1d97 c7bd 6708 94bc
00000040: b0d2 b5bd 96a2 103c ad22 ec3c e7bf 03bd
00000050: 1c1f 05ba 62bb 04be 9243 9dbd 0468 92bd
00000060: 137c e9bd e162 e3bb e232 00bd 7636 c5bd
00000070: 2c9c 3b3e 15b4 45bd 84a3 b2bd 7828 353e
00000080: 5271 00be 185d d93b e5da 413d 74e8 f7bc
00000090: 387a 30be dbc1 213d 24a0 983c ce16 c6bc
000000a0: dc94 00bd 7876 02be 4992 f4bc 3a91 d1bb
000000b0: ae62 42bd b535 b0bd 887b 3abd b45b 12be
000000c0: df83 17be 64c0 e7bd 5b53 0dbe 61bb 4e3e
000000d0: cd81 2ebd 703e c13c fa24 b9bd 0105 97bd
000000e0: 553f f2bb 1898 fabc f86c adbd a51e 06be
000000f0: 2166 603c 3b52 483e 3acb be3d 4fd8 fc3d
00000100: 815e 8fbd 0b67 96bd 5bb4 efbd 35a3 5e3e
00000110: 237c 1c3e 8ece 6ebd 786d 793c 281b ecbd
00000120: 1da3 d5bd 249d 5d3e cc68 2d3e 660b 82bd
00000130: ca92 a6bc 8d18 e4bd 7cde 153d 3655 c8bc
00000140: ba0c 96bd 083d 733d 8506 bebd 8687 073e
00000150: 2659 13bd f221 13be 4650 7bbd 0c88 b1bd
00000160: cfa2 87bb 0d22 383c e3e2 acbd b85f c5bd
00000170: aa5f 6cbd 6ec7 04bd 2942 fabd 4527 7dbd
00000180: c2f5 1d3c f578 a2bd e789 85bd 7124 223e
00000190: 73f7 60bd 2434 dcbd 54fc 2fbd 60ea 2ebd
000001a0: fb06 6c3d d3d4 14be 32cd 9cbd 76af 3ebd
000001b0: 5c3e 04bd fe6c 53bc 5ad1 8c3c e67e 8cbc
000001c0: 1733 393d 8d86 abbd 1d03 78bc 9f0b 1cbd
000001d0: d911 acbd 007c 27ba cc70 a73c 6733 e7bd
000001e0: 815a 3abd ffdc aabd 3bde a0bc dedf ee3c
000001f0: 1ed4 4b3a 2696 693e 0e12 e9bd fab0 50bd

v.layers.1.weight f4 [128, 128]
0.03439184 -0.02778959 -0.06549347 0.01073611 0.0323949 0.011813283 -0.005212376 -0.02764037
0.011729945 -0.14197533 -0.00064143405 -0.1118817 0.027959228 -0.04800736 -0.090659186 -0.1059261
0.021675386 -0.06214274 -0.03685465 0.0015988016 -0.12919042 -0.0021847081 -0.085897334 -0.12814869
-0.045481384 0.054842353 -0.010128761 -0.0490836 -0.05564836 -0.024748012 -0.08561076 0.020543916
0.006227123 -0.01663694 0.022051042 -0.07740895 0.026166352 -0.08429042 0.020371737 -0.08375017
-0.043943055 -0.13157247 0.06763788 -0.11687834 -0.053082533 0.005563756 -0.10382347 0.0112848
-0.13260086 -0.0755553 -0.1157207 -0.08347917 -0.11051008 -0.10303466 -0.047786884 0.0013422153
-0.07300457 -0.063761964 -0.019207893 -0.09823788 0.045999974 -0.12537819 -0.025560774 0.022670342
0.0068942686 0.016250225 -0.114202574 -0.028738547 -0.008427461 -0.09443364 0.004173418 -0.017896049
-0.074096054 -0.031725366 -0.14494088 -0.0017523295 -0.11766443 -0.0841255 -0.12074505 -0.14561014
-0.07329806 -0.0753185 -0.04827405 -0.087837495 -0.10627938 -0.022927755 -0.14558132 -0.06285457
0.003729412 -0.051225975 -0.10000784 -0.06737116 -0.0054445113 -0.12046951 0.027324595 0.008560099
-0.049728446 0.021430722 -0.10299123 -0.033231683 -0.14508615 0.0031147907 -0.0005755679 -0.087010086
0.015772881 0.010299186 -0.14256178 -0.07263304 -0.039814617 -0.100385174 0.022740796 -0.054823242
-0.14519164 -0.046743274 -0.050214645 -0.03511191 -0.121895246 -0.03612154 -0.1165254 -0.1104891
-0.07065591 -0.085937 -0.11571211 -0.10977981 -0.12134694 -0.056538347 0.003698341 -0.05866513
-0.086371765 -0.06938572 -0.09875038 -0.08749699 -0.08572685 -0.11356295 0.00541842 -0.07618132
-0.003121868 -0.124954514 -0.107238926 -0.14583135 0.060824804 -0.06325168 -0.04016783 0.0072986325
0.011461506 -0.05551978 -0.07460061 -0.13423464 -0.0707552 -0.05634157 -0.07150754 -0.07580463
-0.11117766 -0.055666104 -0.11437311 -0.0016540036 -0.03889268 -0.07863711 -0.030030763 0.021296045
0.028578702 -0.0012137572 0.019427791 -0.06382992 -0.03281124 -0.08153814 0.011484717 0.006573317
-0.021949932 0.013595329 0.048069417 0.050191555 -0.10435165 -0.07627262 -0.028428026 0.02048059
-0.0584423 0.0025933173 -0.14120515 -0.007253192 -0.08440805 -0.10137864 -0.0903761 -0.029737934
-0.12799625 -0.0052759913 -0.005401315 -0.13536263 -0.032498833 -0.13327375 -0.036514323 0.0024084789
-0.034924895 -0.12729976 0.024524806 -0.0145004755 0.027016606 -0.11051601 -0.024637101 0.0036002174
-0.058685362 -0.09328348 -0.07038361 -0.02635177 -0.027914118 -0.113306455 -0.14013372 -0.11593201
-0.0075853877 -0.1436394 -0.06240693 -0.080915205 -0.069343485 -0.10992653 -0.020081794 -0.1023579
-0.050958637 -0.094598085 -0.13588849 -0.14816685 -0.09750579 -0.003092307 0.00011337482 0.057607733
-0.12673071 0.08714853 0.0068198806 -0.0026008708 -0.018969597 -0.053945385 -0.05060234 -0.09005627
-0.06868063 0.026577791 -0.107519925 -0.028174521 0.0031637521 -0.05741966 -0.05062906 0.0005403495
-0.05006205 -0.08481631 -0.05174131 0.004849691 -0.09922723 -0.030500919 0.032808628 -0.12393202
0.051251672 -0.10074982 0.026606293 -0.06723232 -0.031121124 -0.10919326 0.05844572 0.0067008026
00000000: 75de 0c3d ffa6 e3bc 7121 86bd 82e6 2f3c
00000010: 84b0 043d 808c 413c 94cc aabb 0f6e e2bc
00000020: f52e 403c fb61 11be e925 28ba 3c22 e5bd
00000030: c00a e53c 5ea3 44bd 86ab b9bd c8ef d8bd
00000040: 9490 b13c 6389 7ebd e7f4 16bd e18e d13a
00000050: 7e4a 04be 522d 0fbb f1ea afbd 6939 03be
00000060: b04a 3abd 60a2 603d 1af3 25bc e30b 49bd
00000070: 89ef 63bd 58bc cabc b254 afbd b74b a83c
00000080: e50c cc3b 314a 88bc 63a4 b43c 9588 9ebd
00000090: d15a d63c 75a0 acbd a1e2 a63c 3685 abbd
000000a0: a2fd 33bd efba 06be bb85 8a3d e95d efbd
000000b0: 126d 59bd 2b50 b63b 66a1 d4bd e2e3 383c
000000c0: 85c8 07be bdbc 9abd f9fe ecbd 21f7 aabd
000000d0: 1c53 e2bd d603 d3bd 2ebc 43bd 46ed af3a
000000e0: 6c83 95bd a295 82bd df59 9dbc f130 c9bd
000000f0: 786a 3c3d 2463 00be d464 d1bc 27b7 b93c
00000100: 51e9 e13b 311f 853c 0ae3 e9bd 1a6d ebbc
00000110: 5513 0abc 6d66 c1bd 2bc1 883b bc9a 92bc
00000120: acbf 97bd 75f2 01bd 626b 14be 6cae e5ba
00000130: 0cfa f0bd fd49 acbd 2e49 f7bd d31a 15be
00000140: 4b1d 96bd 9640 9abd 03bb 45bd 25e4 b3bd
00000150: 01a9 d9bd fdd2 bbbc 4513 15be e6b9 80bd
00000160: 2769 743b 54d2 51bd e9d0 ccbd e4f9 89bd
00000170: df67 b2bb b8b8 f6bd d4d7 df3c a83f 0c3c
00000180: 0eb0 4bbd 7b8f af3c 11ed d2bd f21d 08bd
00000190: 7791 14be 8421 4c3b b5e1 16ba 5832 b2bd
000001a0: 2136 813c ebbd 283c b7fb 11be a2c0 94bd
000001b0: a714 23bd be96 cdbd e84a ba3c 568e 60bd
000001c0: 1ead 14be e075 3fbd dfad 4dbd 82d1 0fbd
000001d0: 37a4 f9bd 2ef4 13bd dea4 eebd 1c48 e2bd
000001e0: 0cb4 90bd bdff afbd 79fa ecbd 3dd4 e0bd
000001f0: bf84 f8bd c194 67bd de5f 723b d94a 70bd
00000200: aee3 b0bd 1a1a 8ebd a43d cabd 9f31 b3bd
00000210: 8f91 afbd b193 e8bd 008d b13b f404 9cbd
00000220: 4198 4cbb 27e8 ffbd 15a0 dbbd d054 15be
00000230: 6e23 793d 198a 81bd 0687 24bd 5e29 ef3b
00000240: 0ac9 3b3c b568 63bd 34c8 98bd ce74 09be
00000250: 1ae8 90bd 6bc6 66bd 8c72 92bd 753f 9bbd
00000260: 1db1 e3bd 2402 64bd 733c eabd 27cb d8ba
00000270: ee4d 1fbd 7e0c a1bd 1303 f6bc 0b75 ae3c
00000280: e21d ea3c ef16 9fba 0827 9f3c 43b9 82bd
00000290: 1465 06bd 78fd a6bd 652a 3c3c fb64 d73b
000002a0: 58d0 b3bc f1be 5e3c 70e4 443d a995 4d3d
000002b0: 51b6 d5bd d234 9cbd e4e1 e8bc e9c6 a73c
000002c0: 3161 6fbd a5f4 293b 1598 10be 2fac edbb
000002d0: 21de acbd 9b9f cfbd 1b17 b9bd f89c f3bc
000002e0: 7311 03be 39e2 acbb 84fd b0bb 809c 0abe
000002f0: 7f1d 05bd ea78 08be 0b90 15bd 92d7 1d3b
00000300: 680d 0fbd de5a 02be 3fe8 c83c 6793 6dbc
00000310: ee51 dd3c 3856 e2bd bfd3 c9bc a0f1 6b3b
00000320: 1060 70bd 690b bfbd 4825 90bd abdf d7bc
00000330: 26ac e4bc 370d e8bd 377f 0fbe c36d edbd
00000340: d88e f8bb 3516 13be 699e 7fbd dfb6 a5bd
00000350: f503 8ebd 2921 e1bd 9382 a4bc 05a1 d1bd
00000360: 01ba 50bd a4bc c1bd 5a26 0bbe 0db9 17be
00000370: 1eb1 c7bd 4da8 4abb a5c3 ed38 16f6 6b3d
00000380: b2c5 01be ee7a b23d 4e79 df3b 5f73 2abb
00000390: 2166 9bbc d6f5 5cbd 6644 4fbd 6c6f b8bd
000003a0: 6ea8 8cbd abb9 d93c 6833 dcbd 41ce e6bc
000003b0: f456 4f3b e130 6bbd 6b60 4fbd 3ea6 0d3a
000003c0: dd0d 4dbd 2cb4 adbd b2ee 53bd 28ea 9e3b
000003d0: a537 cbbd 10dd f9bc 5762 063d 12d0 fdbd
000003e0: 46ed 513d ec55 cebd 71f5 d93c 19b1 89bd
000003f0: baf1 febc b7a0 dfbd c764 6f3d 6892 db3b

v.layers.1.bias f4 [128]
-0.06518041 -0.018032175 -0.069072865 0.10690499 -0.12384982 -0.017959952 -0.1070628 0.037856102
-0.02546334 0.32378048 -0.05004314 0.17227352 0.026094174 -0.09069476 -0.14761998 -0.036256734
-0.004026686 -0.013763878 -0.013907147 -0.11017057 0.39418507 -0.053597167 0.3651315 -0.09666415
0.25992224 -0.0073457356 -0.047085755 -0.02736601 -0.005098328 0.010213108 -0.10372145 -0.08592155
0.07556802 -0.07183361 -0.0012218358 -0.08317225 -0.05726018 0.06947812 -0.06725624 -0.3845107
-0.002474446 -0.07402234 -0.09264799 -0.1374102 -0.08757828 0.010356493 -0.08779975 -0.00048175838
0.3764355 0.087623805 0.13804261 -0.09224696 -0.092223614 -0.04401235 -0.014817272 0.0051370156
0.027673535 0.09033374 0.4560461 0.4905869 -0.02248011 -0.012699645 0.12578419 0.05632751
-0.0223503 0.0029291983 -0.070142895 -0.088663764 -0.062187277 -0.048355926 0.277656 0.41017786
0.4785147 0.03200958 -0.108807266 0.048417803 -0.0017164473 -0.051393833 -0.040614903 -0.065955214
-0.06014947 -0.11210066 -0.07820544 -0.044643298 -0.059205398 -0.058796667 0.28169334 -0.008610109
-0.029478751 -0.03932413 -0.07124426 0.06025224 -0.018036919 0.064902514 0.36961687 -0.022965835
-0.14559987 -0.11232941 0.2236721 -0.111245975 -0.14019747 0.36843303 0.0044499356 -0.046454266
0.030049216 -0.008395853 0.31265488 0.22082846 -0.06677766 -0.04729706 -0.03748667 -0.19208896
-0.11118651 0.12053454 -0.09391875 0.33449203 0.14257674 0.057703234 0.02862939 0.42496324
-0.15094918 0.02363998 0.09352195 -0.019237945 0.1335621 -0.009203572 0.0071561267 -0.11789477
00000000: 4f7d 85bd 36b8 93bc 1376 8dbd 01f1 da3d
00000010: f9a4 fdbd c020 93bc be43 dbbd 000f 1b3d
00000020: 7f98 d0bc 8ec6 a53e 09fa 4cbd 7868 303e
00000030: 73c3 d53c 2dbe b9bd b129 17be f181 14bd
00000040: 4af2 83bb e381 61bc cdda 63bc 1ca1 e1bd
00000050: a0d2 c93e b488 5bbd 84f2 ba3e dbf7 c5bd
00000060: 8714 853e 7fb4 f0bb fedc 40bd af2e e0bc
00000070: e00f a7bb e154 273c e96b d4bd a3f7 afbd
00000080: 68c3 9a3d 801d 93bd 0226 a0ba 3656 aabd
00000090: a789 6abd 8b4a 8e3d a4bd 89bd 96de c4be
000000a0: 512a 22bb 0699 97bd 3bbe bdbd 42b5 0cbe
000000b0: 3e5c b3bd 48ae 293c 5bd0 b3bd 8494 fcb9
000000c0: 27bc c03e 1c74 b33d 0b5b 0d3e f9eb bcbd
000000d0: bcdf bcbd 4b46 34bd 25c4 72bc 6954 a83b
000000e0: 9cb3 e23c e500 b93d e07e e93e 352e fb3e
000000f0: 3528 b8bc 2c12 50bc 92cd 003e adb7 663d
00000100: fa17 b7bc cbf7 3f3b 14a7 8fbd 5995 b5bd
00000110: 16b8 7ebd dd10 46bd ed28 8e3e d502 d23e
00000120: e1ff f43e 7a1c 033d 58d6 debd bf51 463d
00000130: 6afa e0ba 5782 52bd d05b 26bd 8713 87bd
00000140: 4a5f 76bd 0895 e5bd 2c2a a0bd e4db 36bd
00000150: 5c81 72bd c6d4 70bd 1c3a 903e 6a11 0dbc
00000160: 6c7d f1bc 5712 21bd 83e8 91bd 0ecb 763d
00000170: 29c2 93bc 9ceb 843d 6c3e bd3e d922 bcbc
00000180: 2218 15be f60c e6bd 4d0a 653e eed4 e3bd
00000190: ed8f 0fbe 41a3 bc3e c4d0 913b d446 3ebd
000001a0: c629 f63c c38e 09bc 4d14 a03e db20 623e
000001b0: bac2 88bd 90ba 41bd 9f8b 19bd f8b2 44be
000001c0: c1b5 e3bd d0da f63d 7958 c0bd 8a42 ab3e
000001d0: a3ff 113e 3a5a 6c3d 2f88 ea3c c894 d93e
000001e0: 6c92 1abe a2a8 c13c 7088 bf3d e598 9dbc
000001f0: 81c4 083e 94ca 16bc f17d ea3b d072 f1bd

v.out.weight f4 [1, 128]
0.039355073 0.052965283 -0.0001715412 0.027318152 0.047589716 -0.04766428 -0.023875844 0.042800095
-0.026840666 0.049258426 -0.025232956 0.02417231 -0.0019095408 0.04426834 -0.07592369 -0.0074592195
0.028437002 0.010220437 -0.004356931 -0.019891357 0.03826919 -0.028130425 0.018677484 0.023430029
0.020834267 -0.0143858995 -0.052946776 0.022742245 0.025779521 -0.016804233 0.0521908 -0.008531492
-0.011257058 0.05059626 0.054261643 0.028141454 0.0077034333 0.05324022 0.038984895 0.012556675
0.030914625 -0.019135747 -0.030012576 0.019972425 -0.036208536 0.0119088385 -0.020570122 -0.025050785
0.100684434 -0.002042796 0.0155170085 -0.009229819 0.046033993 -0.005283323 0.049687915 -0.01845397
0.017578142 0.03368284 0.11076601 0.07144474 -0.008396581 0.003088164 0.0024241596 0.05538977
0.05772662 -0.00045352607 0.0078910375 -0.027840272 0.04420897 0.027965518 0.028307484 0.07284978
0.094844185 0.033982053 0.05023672 0.0048190854 0.0157836 0.051191207 -0.0011699965 -0.00900387
0.004057351 -0.018322797 -0.026059113 0.021116158 0.033320684 0.009503512 0.0085194055 0.01366804
0.023333734 0.043792084 -0.020020723 0.061852235 -0.0912789 -0.0018248494 0.0468487 -0.005370064
-0.045720577 0.056824178 0.06718254 -0.011608122 0.022104487 0.021234117 -0.022235611 0.019405592
0.029144594 0.015541337 -0.013479251 0.0018605826 0.014934533 0.008330249 -0.0052188644 0.037242495
0.004961477 0.02076166 0.0034017889 0.028740589 0.02070226 -0.027825821 -0.023046536 0.10308729
-0.020864053 -0.02075062 0.017985502 0.028966958 -0.0166802 -0.054776374 -0.05019974 0.010972118
00000000: c932 213d 20f2 583d bedf 33b9 51ca df3c
00000010: 6fed 423d 9f3b 43bd 4697 c3bc 274f 2f3d
00000020: f5e0 dbbc 34c3 493d 58b5 cebc 0205 c63c
00000030: 8f49 faba b852 353d e17d 9bbd 786c f4bb
00000040: b7f4 e83c 9f73 273c 96c4 8ebb 33f3 a2bc
00000050: 27c0 1c3d c771 e6bc 8601 993c 55f0 bf3c
00000060: a0ac aa3c d6b2 6bbc b8de 58bd f24d ba3c
00000070: 932f d33c 08a9 89bc 05c6 553d acc7 0bbc
00000080: 866f 38bc 063e 4f3d 7541 5e3d e888 e63c
00000090: 156d fc3b 6b12 5a3d a0ae 1f3d 83ba 4d3c
000000a0: ab40 fd3c 92c2 9cbc efdc f5bc 369d a33c
000000b0: 674f 14bd 4a1d 433c ac82 a8bc 4e37 cdbc
000000c0: a433 ce3d 6ee0 05bb 0d3b 7e3c ab38 17bc
000000d0: 248e 3c3d ba1f adbb 8e85 4b3d c82c 97bc
000000e0: 0900 903c 05f7 093d 4ad9 e23d 9f51 923d
000000f0: d091 09bc cb62 4a3b a6de 1e3b 62e0 623d
00000100: c072 6c3d 3dc7 edb9 6949 013c 4811 e4bc
00000110: 7714 353d f117 e53c 19e5 e73c 4432 953d
00000120: ab3d c23d c430 0b3d 05c5 4d3d 6be9 9d3b
00000130: 9c4c 813c dfad 513d 915a 99ba f884 13bc
00000140: 87f3 843b b119 96bc ec79 d5bc cbfb ac3c
00000150: 457b 083d 9eb4 1b3c fa94 0b3c eaef 5f3c
00000160: 6326 bf3c 545f 333d 8002 a4bc c558 7d3d
00000170: 6ff0 babd c92f efba 6ce4 3f3d 5df7 afbb
00000180: 8045 3bbd 78c0 683d 0097 893d fe2f 3ebc
00000190: 7814 b53c 2cf3 ad3c 7527 b6bc 7af8 9e3c
000001a0: a5c0 ee3c 18a1 7e3c 14d8 5cbc cbde f33a
000001b0: f9af 743c 997b 083c 0203 abbb 968b 183d
000001c0: e393 a23b 5b14 aa3c 8cf0 5e3b 6271 eb3c
000001d0: c997 a93c faf2 e3bc 17cc bcbc 6e1f d33d
000001e0: 17eb aabc 34fd a9bc 5556 933c 1d4c ed3c
000001f0: eaa4 88bc 315d 60bd 3e9e 4dbd 66c4 333c
