models/qoar_mappo.pth (torch, 999733 bytes, 33 tensors)

net.layers.0.weight f4 [128, 131]
00000000: ea46 de3f 8ac0 a23f 3ced c03f 2916 db3f
00000010: b720 dd3f 1b82 c9bb 3113 823f 05ba cf3f
00000020: 1a1d ac3f cfbe a33f 55fa b83f 7e8b c63f
00000030: 61c8 873f 5e3c cd3f 5f7c b03f a4c9 b93f
00000040: c074 c73f 8dd9 bf3f d8fb 713d 4319 c73f
00000050: 27f7 a73f f5ce 963f 55a3 8c3f dcd0 bf3f
00000060: 3039 873f f2e3 a13f 4390 dbbc 4911 393f
00000070: 7186 993f b294 8cbd b1eb 873f 5c51 be3f
00000080: 2516 a63f 486d a6bd 67b8 023d 40f4 95bd
00000090: f88f e2b9 2c14 afbd d358 16bd a3b6 02bd
000000a0: 755a a43d d13e 713b fba2 44bc 9070 05bc
000000b0: 37f3 3cbd c8bf a63a 50a6 01bc fb30 9bbc
000000c0: dcfe 6cbd 5548 8e3d 139e ff3c 9f08 aebd
000000d0: 7e9f 43bc 13e1 7d3d 7213 0cbd 25b6 53bd
000000e0: 1637 4ebd b298 4bbd 9ec7 2c3f a416 873d
000000f0: c673 a53d 086f a8bd 5e0e 9dbd a5c3 143d
00000100: 824d af3f b604 883f 69a8 c03f ff4d 863f
00000110: be99 a63f ae55 8c3f d5ea 813f a952 aa3f
00000120: 81f0 b63f 6591 993f 1bd3 d33f a63b bf3f
00000130: e779 ba3f b4a8 a43f fb71 c93f f12f 763f
00000140: 6854 5e3f c97a c43f 055a b93f 1888 bc3f
00000150: 9d19 b13f 7a7c ac3f 46db 963f f7ec c13f
00000160: 5ca9 a43f 053c 6e3f cff6 c33e 37d5 8b3f
00000170: df70 a63f 6d76 1e3b b3b5 a83f e3c0 e93f
00000180: 729f 4f3f a6bc 11bc f4b0 663e e1d6 3d3d
00000190: 3b53 92bd eb34 d83e 84c0 85bd b3f5 313e
000001a0: 3dda 0e3c 7e3f 763c 1738 863e a03b bf3c
000001b0: 32e5 303d c12d df3e a885 713e 595a 6b3d
000001c0: 60b0 9a3e 0dc7 10bc ce98 483d 8734 4c3e
000001d0: 68dc 8fbd 5122 9e3d 9843 24bd 45af 123e
000001e0: 0cd3 e73b 59b3 a63e 4e98 263f 06dd 393e
000001f0: 2470 7d3e 1ac1 423e dc43 913d 64b7 403d
00000200: e73a df3f f095 e43f b664 ca3f 223f c83f
00000210: af52 b33f 215a bd3f 9b08 be3f 3c24 c13f
00000220: 3bf9 2abd 94b7 4e3f 4c7b ac3f 2789 c23f
00000230: 25c1 923f c7c5 c23f 1de0 b33f ee13 b13f
00000240: 5d58 7a3f 169c b03f 08aa 973f 410c a33f
00000250: f864 893f 4ef2 11bd f9c8 9a3f 5b08 913f
00000260: 8b15 9c3f af5f d53f 183a c43f a830 663f
00000270: d802 843f d504 1cbd 0940 113f 69f4 8b3f
00000280: 3355 603d 5e36 5c3f 7a6d 983f 785d 913f
00000290: 1972 343d ec6d 1b3c d04d 8f3d aced 89bd
000002a0: 9fd0 9ebd 9b7d 243c dc79 4c3d 6059 56bc
000002b0: 6392 8fbd 8ef2 523c a210 24bd 8336 643d
000002c0: a960 81bd 660f 8b3d e726 50bd e3e3 bdbc
000002d0: beea 7f3c bc54 253d 6753 093b 62fc 11bc
000002e0: adff a0bd 5817 77bc f296 f7bc 520b cfbc
000002f0: b35e 32bd beeb 873f b68b 2f3d e5df f4bc
00000300: 08a1 61bd 1956 69bb dc04 7f3d ecda 703f
00000310: d097 8b3f 413c c93f df10 a73f 4e4d 963f
00000320: a127 3d3f bbbc d53e 2512 d13f 7bdc d13f
00000330: cad6 7e3f 4886 a23f 94d9 bd3f 7b77 8c3f
00000340: 4938 c83f 5d19 c43f c13f 913f 710d 613f
00000350: f2d2 cd3f 9d68 a23f bae2 963f 0794 933f
00000360: 7a9d e23f 4594 ad3f 1cd8 a03f a15a 8a3f
00000370: 3d9c 8d3f b822 b43e e900 563f e54a 883f
00000380: d418 393d 73b3 cc3f 4b81 bd3f 87bd 8b3f
00000390: 7d5e f7bd 603d 423e 3b6a 35be 46ed b7bd
000003a0: d310 f43d 7cea 183e ddeb 033e 8c9c 2cbe
000003b0: 4664 b5bd fbf3 833e a19d 693e 64ee f63d
000003c0: f6ca 5c3e 2842 223d c82c 7b3c debe ab3c
000003d0: e93f 77be 901b 34be 4923 c53e f0a8 ddbd
000003e0: 0068 3f3e fb9f de3d cd76 393e a1e6 513e
000003f0: 9923 043f 8611 813f 514a 9c3e 6b3e dd3e
1.7365391 1.2715008 1.5072398 1.7116138 1.7275609 -0.006149543 1.0162107 1.6228644
1.3446381 1.2792605 1.4451395 1.551132 1.0608026 1.6034048 1.3787955 1.4514661
1.5582504 1.4988266 0.059078068 1.5554584 1.31223 1.1781908 1.0987345 1.4985614
1.0564327 1.2647688 -0.026802188 0.72292 1.1994153 -0.06864299 1.0618802 1.4868579
1.2975508 -0.081263125 0.03191414 -0.073219776 -0.00043213344 -0.08548769 -0.036705803 -0.031912457
0.08025066 0.0036811123 -0.012001748 -0.008144513 -0.046130385 0.001272195 -0.007913187 -0.018944254
-0.05786024 0.0694739 0.031203305 -0.08497738 -0.011939881 0.061982226 -0.034198232 -0.05168738
-0.050345503 -0.04970617 0.6749209 0.06596115 0.08078723 -0.082243025 -0.07668756 0.036319394
1.3695529 1.0626438 1.5051395 1.0492553 1.3015668 1.0963647 1.014979 1.3306476
1.4292146 1.1997496 1.6548799 1.4940078 1.4568452 1.2863984 1.5737909 0.961669
0.86847544 1.5349971 1.4480597 1.4729033 1.3835942 1.3475487 1.1785667 1.5150441
1.2864184 0.9306033 0.38274238 1.0924443 1.3003196 0.0024179474 1.318045 1.8261989
0.8110267 -0.008895075 0.2252844 0.046347503 -0.07144781 0.42227873 -0.0653086 0.17378883
0.008719024 0.015029786 0.26214668 0.023343861 0.043187328 0.43589595 0.23586142 0.05745921
0.30212688 -0.00883652 0.04897385 0.19941913 -0.07024461 0.07721389 -0.040103525 0.14324673
0.0070747193 0.32558706 0.6507615 0.1815072 0.2474981 0.19018975 0.07093021 0.047049895
1.743985 1.7858257 1.5811985 1.5644267 1.4009608 1.479313 1.4846376 1.5089183
-0.04174159 0.8074887 1.3475127 1.5198106 1.1465193 1.5216607 1.4052769 1.3834207
0.9779108 1.3797634 1.1848764 1.2738115 1.0733938 -0.03563147 1.2092582 1.1330675
1.2194074 1.6669825 1.5330229 0.89917994 1.0313368 -0.038090546 0.56738335 1.0933963
0.054768752 0.8602046 1.190841 1.1356649 0.044054125 0.009486657 0.069972634 -0.067347854
-0.07754635 0.010039712 0.0499209 -0.013082832 -0.07010343 0.012875212 -0.040054925 0.05571605
-0.063172646 0.067900464 -0.05081835 -0.023179954 0.015619932 0.040364012 0.0020954253 -0.00891027
-0.07861266 -0.015081249 -0.030223344 -0.025273953 -0.043547343 1.0618818 0.042857848 -0.029891917
-0.055085212 -0.0035604297 0.062260494 0.9408405 1.0905704 1.5721513 1.3052024 1.1742342
0.73888594 0.41745552 1.6333662 1.639541 0.9954649 1.2697229 1.4832025 1.0973963
1.5642177 1.532024 1.1347581 0.87911135 1.608 1.2688175 1.1787941 1.1529549
1.7704308 1.3560873 1.2565951 1.0808908 1.1063305 0.35182738 0.8359514 1.0647856
0.045189694 1.5992264 1.4805082 1.0917214 -0.12078569 0.18968725 -0.17716305 -0.08980803
0.119172715 0.14933199 0.12882943 -0.16856593 -0.08857016 0.2577208 0.22814037 0.12057188
0.21561798 0.039613873 0.015330501 0.020965036 -0.24145474 -0.1758864 0.38503483 -0.10823238
0.18692017 0.108703576 0.18111725 0.20498134 0.5161682 1.0083473 0.3052545 0.43211684

net.layers.0.bias f4 [128]
00000000: 1820 e33f d65b d83f 2cac f43f 93ac e13f
00000010: 81d1 0040 167d fabd 8c42 ee3f 5b27 0640
00000020: 5a40 dd3f 5933 fe3f 8e9a e23f 374a c03f
00000030: a218 d43f 9a3c d93f 011c de3f ac4f d83f
00000040: e479 d23f 309f e73f 745e fe3f 0dc5 e83f
00000050: a845 e63f 3c36 cb3f f503 0c40 8609 f83f
00000060: 0bee d63f dbf3 d23f ca9c c93f 5dd0 c33f
00000070: cc2b c93f 2e98 cc3f ed6d db3f a93d c83f
00000080: af62 fd3f a2b0 cd3f f1e1 eb3f 891f eb3f
00000090: bb59 eabd 9628 e23f 2dc8 f13f f783 d03f
000000a0: f321 0240 b475 ce3f a543 d03f f1e8 f93f
000000b0: 68a4 41bd 7140 f43f 98a3 0040 2677 ba3f
000000c0: b184 f23f de77 d13f 0d60 d13f 9fb2 ce3f
000000d0: ef6f cb3f 5c33 eb3f 4568 d13f 190e ca3f
000000e0: 90e6 0140 f34e f13f a4e5 f23f 5b6d f53f
000000f0: 13e1 de3f 018a d13f 7a8f e9bd 6bca c33f
00000100: 0f8b e03f 0e22 f33f b6dd 0240 f669 f53f
00000110: 0388 cb3f cf10 e43f 41f2 ce3f c5e9 e63f
00000120: ef17 d13f c6a0 0440 05a5 ca3f eeae fb3f
00000130: 70b0 d93f 4b38 d43f 3eb5 d93f 56b0 d83f
00000140: ee88 d03f cf5c fc3f d283 49bd d5ab cd3f
00000150: e416 ff3f 0255 0040 13ae e43f 353f 0940
00000160: 16ce c63f 4ac7 ca3f 6108 0340 1729 fc3f
00000170: f9f2 cd3f 998c e33f a19e cb3f d828 0240
00000180: 05b8 e33f 7607 d83f d6ab f63f 40ac c83f
00000190: 75fa e73f b2c8 d43f 6ee9 d93f 8ee2 c03f
000001a0: 4021 d63f 5ec5 f53f 07dd 0c40 3346 d63f
000001b0: d1f7 d33f bf59 cb3f 691a f03f ff29 db3f
000001c0: 97ea cc3f ac13 81bd 9bc1 0640 c3c5 ec3f
000001d0: 5a58 cb3f 6038 db3f ad17 ec3f 8b1e fe3f
000001e0: 0705 d33f e99a c93f 1b36 d93f 61ee e03f
000001f0: 02c8 d83f 187c cf3f 1093 cd3f 9c74 d43f
1.7744169 1.6903026 1.9115043 1.763079 2.012787 -0.122308895 1.8614058 2.096152
1.7285264 1.985942 1.7703416 1.5022649 1.6570017 1.6971619 1.7352296 1.6899314
1.6443448 1.8095455 1.9872575 1.8185135 1.7990007 1.5875926 2.1877415 1.9377906
1.6791395 1.6480669 1.5750973 1.5297962 1.5716491 1.5983942 1.7142922 1.5643817
1.9795741 1.6069529 1.8428327 1.8368999 -0.11442896 1.7668636 1.8889214 1.6290272
2.033322 1.612967 1.6270643 1.9524213 -0.04727593 1.9082166 2.009985 1.4567611
1.8946744 1.6364706 1.6357437 1.6148261 1.5893534 1.8375049 1.6359946 1.5785552
2.0296974 1.8852218 1.8976331 1.9173998 1.7412437 1.637024 -0.11404319 1.5296148
1.7542437 1.8994768 2.0447822 1.9172962 1.5900882 1.781763 1.616768 1.8040091
1.6335429 2.0723128 1.583161 1.9662759 1.700697 1.6579679 1.7008436 1.6928813
1.6291788 1.9715823 -0.04919798 1.6068064 1.9928861 2.0051885 1.7865623 2.1444829
1.5531642 1.5842068 2.0473864 1.970004 1.6089774 1.7777282 1.5907785 2.033743
1.7790533 1.6877277 1.927119 1.5677567 1.8123308 1.6623747 1.7024362 1.5069139
1.6728897 1.9200857 2.2009904 1.6740173 1.6560003 1.5886763 1.875806 1.7122191
1.6009091 -0.0630258 2.1055667 1.8497852 1.5886338 1.7126579 1.8444725 1.9853071
1.6485909 1.57504 1.6969637 1.7572747 1.6936038 1.6209745 1.6060505 1.6598086

net.layers.1.weight f4 [128, 128]
00000000: 08f5 da3f e594 d03f 05c3 ff3f c209 f63f
00000010: dd2d 1540 0bbb 5cbd f7b0 eb3f cf3e 1240
00000020: 3a4e ba3f 7327 0240 b722 ee3f 8ab7 aa3f
00000030: f75d c63f c501 b13f 7886 db3f fe8d d73f
00000040: a105 db3f df92 ce3f 87fc 0940 c134 ba3f
00000050: 07be f53f 3148 ae3f 9b11 1340 c4aa 0740
00000060: 19ca c83f 0560 ab3f 3642 c33f 878c ad3f
00000070: dbf9 be3f fa87 993f 58b5 c13f cd41 b83f
00000080: 1590 0940 7e86 b73f 2884 0040 477f c83f
00000090: dbf9 f03d e619 ce3f 26e7 0140 037c c33f
000000a0: 5b3e 0940 97f4 aa3f 159e b33f 30a6 0240
000000b0: 179f c3bd f64c 0540 b3ff 0f40 2935 a13f
000000c0: e25c ff3f 0fe6 be3f 41a5 c73f 2bb9 a73f
000000d0: c010 c13f 0cdb e53f 9a71 b63f 714d ac3f
000000e0: 556c 0f40 7eb7 0740 87ed e83f aec9 fd3f
000000f0: cf2d e23f 6848 db3f 2af9 fbbc 9b4f b33f
00000100: e20b f03f efe7 0e40 7276 1d40 f85d 0340
00000110: 321e a33f 7e3c f33f a3f5 b83f 6d2f d43f
00000120: dffe ae3f 2d1a 1540 fadc ad3f 1e3a 1540
00000130: d941 ce3f 3f6e bc3f b809 dd3f ab99 fb3f
00000140: 0730 b73f a80a 0040 b5f5 0d3d 5ecb ba3f
00000150: 80ad 1440 9ce9 0a40 4601 c33f 6255 0b40
00000160: 3ea8 c13f 9e84 af3f 763d 0e40 8f02 0340
00000170: d300 db3f c331 da3f 639a c33f 8e11 0d40
00000180: 444b d03f 8f83 c93f 5ea3 fb3f ca28 b03f
00000190: a123 d63f 8201 ba3f 72a0 bd3f 851c b53f
000001a0: dd9c ca3f 84e2 dd3f 62f4 1f40 f16f da3f
000001b0: a7d6 be3f bfc3 be3f 8ea2 ed3f 47ff c93f
000001c0: c16e b33f 4ba8 183e bd42 1440 7d57 f73f
000001d0: 616c ab3f 6b57 db3f b874 ff3f eb7c 0a40
000001e0: 97a9 ad3f 2c19 a63f c498 e23f 824c ec3f
000001f0: 51b9 cd3f 1e65 bb3f 3f14 e23f 1fcb bb3f
00000200: 44cf 473c eaa0 45bc 7a56 4e3d 029c adbd
00000210: b02f b03b 85ff 5f3d bf0d e73c b2f4 2abc
00000220: 3a98 4e3d 7dba cc3b 15bd ad3c 9c23 13bd
00000230: 2cb9 2bbd a980 1e3c 7248 4cbd 57cb da3b
00000240: ee6b 95bd aa74 803c 11d3 81bd f802 12bd
00000250: 12f6 57bc 47cf d53c dbd3 4cbb e75e 98bc
00000260: 6ead 82bd ca9f f33b 4844 3dbc cfbd 8a3d
00000270: 105f 0d3d 7cc9 193d 7251 823d 7840 d0bc
00000280: f2b5 353d cc03 fdbc 77b3 563d ffaf aebc
00000290: 9211 80bd a2d8 acbd d21f a73d 7de8 343d
000002a0: 4067 113d b540 62bd afbe 443d 00ff 93bd
000002b0: 2341 8c3d 0ac4 77bd 7014 33bd 5f16 72bc
000002c0: a4d7 a1bd 2e2f 0a3c 6a7b 87bd 9f71 a8bd
000002d0: f337 9abd 3e84 2e3c ed58 8e3b 736c 793a
000002e0: b09e 273d e7a3 99bd 0aaf 273a 3b02 5b3c
000002f0: d775 cfbc bb3b afbd 75cf 4cbd 952d 14bd
00000300: 8f02 f13c 8572 923d 0710 a6bd 9989 74bd
00000310: 8a4e 923d 254b a13b a126 52bd 3527 b8bc
00000320: 2daf 5f3d 468c 133d 660f 2f3d 43a1 87bc
00000330: dfef 77bd 6f32 92bd ea88 50bd 209b 673d
00000340: f904 d2bc d526 23bd 8c33 6dbc ef8e b73c
00000350: 08fc 86bd 0bc3 fabb 3592 a53d dd57 123d
00000360: 8b40 293d 2da0 21bc fc1a 023d 30d7 40bb
00000370: 0c5b 16bd 6a16 7f3d 07e7 ac3c 0dca 82bd
00000380: 1551 d13b 814a 47bd 7acd 7dbc 5e7d 6ebd
00000390: 1e41 3e3c dcb2 3cbd 6ef0 263c 2563 a0bd
000003a0: 8180 7dbd 36fa 513d 4d31 563c c52d 2d3d
000003b0: 2e65 42bd 76ad 42bc 75a7 25bd 5ca5 e6bc
000003c0: c59c 503c 45b7 123d c8da 82bd 5a5a 9dbd
000003d0: 158c d1bc 50e5 a6bd 6b07 88bb 5efa 3abd
000003e0: 7d06 b23d 1f49 97bb 4f36 86bd dd5e 8b3c
000003f0: c16e 30bd 7dc6 81bd 6aae 953d 1225 2a3a
1.7106028 1.6295439 1.998139 1.9221728 2.3309243 -0.053889316 1.841338 2.2850835
1.4555123 2.0336578 1.8604344 1.3337262 1.5497426 1.3828665 1.7150412 1.6840208
1.7111093 1.6138572 2.156038 1.4547349 1.9198617 1.3615781 2.2979496 2.1197977
1.5686675 1.3388678 1.5254581 1.355851 1.492 1.1994622 1.5133467 1.4395081
2.149419 1.4337919 2.0080662 1.5663842 0.11766406 1.6101654 2.0297332 1.527222
2.1444309 1.3355893 1.4032618 2.0413933 -0.09551828 2.0828223 2.2499816 1.2594348
1.995022 1.4913958 1.5597306 1.3103384 1.5083237 1.7957473 1.4253418 1.3461133
2.240987 2.1205745 1.8197488 1.9827173 1.767023 1.7131472 -0.03075846 1.4008669
1.8753626 2.232906 2.4603543 2.0526104 1.274359 1.9002836 1.4449962 1.6576973
1.367153 2.3297226 1.3583062 2.3316722 1.6113845 1.4721144 1.7268591 1.9656271
1.4311532 2.0006504 0.034658153 1.4593313 2.3230896 2.1705084 1.5234764 2.1770864
1.5129468 1.3712347 2.2225013 2.0470312 1.7109627 1.7046436 1.528149 2.2041965
1.6272969 1.5743273 1.9659231 1.3762448 1.6729623 1.453171 1.4814589 1.4149328
1.5829121 1.7334752 2.499291 1.7065412 1.4909257 1.4903487 1.8565233 1.578103
1.4018174 0.14907949 2.3165734 1.9323574 1.339245 1.7136053 1.9957495 2.1638744
1.356738 1.2976432 1.770287 1.8460848 1.6072179 1.4640234 1.7662429 1.4671363
0.012195412 -0.012062291 0.05037544 -0.08477022 0.0053767785 0.05468704 0.028204797 -0.0104343165
0.050438143 0.006247817 0.021208325 -0.03592263 -0.04192464 0.00967423 -0.049873777 0.006677072
-0.072959766 0.01568063 -0.06339086 -0.035647362 -0.013181226 0.026099814 -0.0031254205 -0.01859994
-0.06380735 0.00743482 -0.011551924 0.06774484 0.034514487 0.037545666 0.06363191 -0.025421366
0.04436297 -0.0308856 0.052417245 -0.021324156 -0.06253351 -0.08439757 0.08160366 0.04416703
0.035498857 -0.05523749 0.048033413 -0.07226372 0.06848361 -0.06048969 -0.043720663 -0.0147758415
-0.07902458 0.0084341 -0.06615336 -0.082247965 -0.07530203 0.010651646 0.004344097 0.00095147564
0.04092282 -0.07501965 0.0006396627 0.013367231 -0.025324745 -0.085563146 -0.050002534 -0.036176283
0.029420165 0.07150749 -0.08108526 -0.059701536 0.071438864 0.004922288 -0.05130637 -0.022479633
0.05461042 0.036022447 0.042739294 -0.016556388 -0.060531493 -0.07138526 -0.05091182 0.056544423
-0.025637137 -0.039831955 -0.014477622 0.022407023 -0.0659104 -0.0076526455 0.080845274 0.035728324
0.04132132 -0.009864849 0.031764016 -0.0029425137 -0.036707923 0.062277235 0.021106256 -0.063861944
0.0063878396 -0.048655037 -0.015490884 -0.05822503 0.011612205 -0.04606901 0.010189159 -0.0783141
-0.06189013 0.05126401 0.013073278 0.042279977 -0.047459774 -0.011882177 -0.040442903 -0.028155021
0.012732689 0.03581931 -0.063893855 -0.07683249 -0.025579492 -0.08149207 -0.004151275 -0.045648925
0.08692644 -0.004616871 -0.06553327 0.017013008 -0.043074373 -0.06336687 0.073086575 0.0006490509

net.layers.1.bias f4 [128]
00000000: ffab 0a3f 702f f9bc d548 283f ef05 0cbe
00000010: a2f2 ec3e 1324 63bd 7391 073f cbff 0d3f
00000020: a11f 193f 0c63 283f ed3d 5fbe ddfe b7bd
00000030: dabd 1c3f 37df 063f 0b7d 183f 05d5 02be
00000040: 58b6 29bd 33f5 27bd 26a0 0a3f 6f33 6f3f
00000050: 9656 e83e cc39 52bd 853c 153f dd93 0f3f
00000060: ee85 2dbd f662 093f dafc 073f e93e 053f
00000070: 0184 45bd 8317 f33e 76aa 74bd fcba 06be
00000080: f16a 483f 2cb8 203f 436b f13e 83ed aebd
00000090: 895a e2bd 5f3c 143f 9ae8 c1bd a48e 19bd
000000a0: 55d8 153f 13fa 0b3f 8437 59bb f655 113f
000000b0: 01a2 cdbd d83d 5fbd e7ed de3e b487 f63e
000000c0: a1c9 153f 8254 0f3f 37e0 603c 7015 50bd
000000d0: cbcd 043f 4985 9dbd 178b f73e ce57 1c3f
000000e0: db7d 58bd ef93 163f 1e57 093f 7c7f e6bc
000000f0: 8ec9 903a 6762 0d3f 66ad 203f fd65 113f
00000100: 6c47 a73d 912f 96bd 7b0c 0bbe 90be d7bd
00000110: 91f4 153f 5565 113f 2424 27bd 1fae 0e3c
00000120: 27dd 013f d08e b3bd 6620 073f 6d30 6d3c
00000130: 41b6 323f 0357 05be 0c4f 013f 0034 043f
00000140: cdc5 193f 3550 063f 4c5e 0f3f 6edc fc3e
00000150: 3ea5 b0bc 7afb 213f 3fb2 0d3b c2fa 9cbd
00000160: 10ad 07be 8e54 8ebd a78c 9cbd d19a 123f
00000170: 96b1 043f fe7e fe3e ad8e 44bd 6336 85bd
00000180: 06dc 023f 0299 0e3f ed02 193f d694 203f
00000190: 22ae 063f a92a 093f 8e72 143f 0b42 2b3f
000001a0: c5e5 b83c 4793 f03e 2b21 01be 047a 033f
000001b0: 0342 133f 0358 96bd 1e31 bbbd 05df 613c
000001c0: d799 84bd 509d 093f 94ea 0d3f 0768 0f3f
000001d0: b934 0b3f ad55 a7bd 9d8e 9dbd d838 083f
000001e0: f06b 0e3f e09f 2c3f 77c5 183f 15a1 073f
000001f0: 2c2c 313f fbbc acbd df0d b2bd ddd8 2a3f
0.54168695 -0.030418128 0.6573613 -0.13674138 0.46278864 -0.055454325 0.5295631 0.55468434
0.59813887 0.65776134 -0.21800967 -0.08984158 0.6122719 0.5268435 0.595658 -0.12776573
-0.041433662 -0.041005325 0.5415062 0.93437856 0.4537856 -0.05132465 0.5829547 0.56084996
-0.042364053 0.5366663 0.53120196 0.5204912 -0.04822159 0.47478876 -0.059732877 -0.13157266
0.7828818 0.62781024 0.47152147 -0.085413955 -0.110524245 0.5790462 -0.09468193 -0.03748955
0.5853322 0.5467846 -0.0033144662 0.5677179 -0.100406654 -0.05450234 0.4354088 0.48150408
0.58510786 0.55988324 0.013725332 -0.050801694 0.51876515 -0.07691438 0.48348305 0.6107148
-0.0528544 0.5881948 0.53648555 -0.028136961 0.0011046396 0.55228275 0.62764585 0.56796247
0.081679195 -0.07333291 -0.1357898 -0.10534394 0.58576304 0.56795245 -0.04080595 0.008708506
0.50728077 -0.08767474 0.5278381 0.014476878 0.6980935 -0.13021474 0.5051124 0.51641846
0.60067445 0.52466136 0.5600326 0.49386925 -0.021563169 0.6327435 0.0021621136 -0.07665016
-0.13249612 -0.06949721 -0.07644015 0.5726748 0.51833475 0.49706262 -0.04798763 -0.06504514
0.5111698 0.5570222 0.5977009 0.62727106 0.52609456 0.5358072 0.57987297 0.6689765
0.0225705 0.46987364 -0.12610309 0.51358056 0.575226 -0.07341006 -0.09140228 0.013786082
-0.06474655 0.53755665 0.5543606 0.5601811 0.54377323 -0.08170638 -0.07693217 0.53211737
0.5563345 0.6743145 0.5967631 0.52980167 0.69208026 -0.08434483 -0.08694052 0.6673716

net.out.weight f4 [64, 128]
00000000: 1f99 73bf a1d1 ae3d 1440 85bf 9bb6 243d
00000010: 2f1f 7fbf 745b edba f1e2 78bf 3104 91bf
00000020: 38b7 85bf 2a52 87bf 98aa 8fbd ce67 fe3c
00000030: 15aa 80bf 21eb 85bf 111a 9dbf 4911 973d
00000040: 07ca 1f3a f3b4 edbc fa37 9ebf 53d7 aabf
00000050: 99b9 69bf 6a23 ed3b 92a2 92bf d2f7 85bf
00000060: 67e6 d33b c493 7bbf c231 83bf 6d18 87bf
00000070: 2cd2 91bd 4ebc a0bf 885d 223d 9b3f 453d
00000080: fcad 78bf 6950 73bf a3fb 8dbf 8208 273d
00000090: a6b5 d43d 3c49 67bf f9f4 043d c885 743c
000000a0: 6dae 71bf bee1 88bf 4d72 2fbd 93c2 92bf
000000b0: 750c 9aba b753 803c c3fa 90bf 1fca 9abf
000000c0: 7d62 8dbf d62e 77bf 601a bbbc bf4c 96bd
000000d0: 8d21 71bf 6ba8 303d 009d 7dbf f735 8abf
000000e0: ed67 1fbd 44e8 99bf ac98 8fbf efec 8fbd
000000f0: 1802 b2bd 9998 82bf 7f59 90bf 031f 80bf
00000100: c062 373c e8ad acbc fd92 083e ffa4 283d
00000110: 8f75 95bf bf6b 8fbf ff25 dabb e380 debd
00000120: 94d9 8ebf 4b42 91bd 9e85 6ebf 1a96 f1bc
00000130: e8c9 7cbf 1c92 073d 1e21 65bf 1608 86bf
00000140: 6ee0 a1bf 8887 99bf 945f 86bf 784b 9dbf
00000150: a45a f4bd 0dc2 8abf a97b 293c 9354 eabc
00000160: 04dd 753d d80a f7bd 0c62 c83d 364f 82bf
00000170: 5ed5 96bf 2e7c 9bbf 88d0 a13d eb6a 06be
00000180: 0a03 8cbf 22e9 57bf d2c1 92bf ebe7 85bf
00000190: 90e0 7ebf d920 a4bf 47b6 86bf 38e9 a4bf
000001a0: ce18 69bd cc2a 8ebf 7192 923d ea42 85bf
000001b0: 60d5 9bbf 74fd c0bd ec45 893b 853b 04be
000001c0: 8ac5 b4bb 77e2 89bf ceed 83bf 5ba0 76bf
000001d0: c0ad 8bbf 426a a1bd 2a6a 9abd 798d 8bbf
000001e0: 1db7 8bbf d659 adbf 051e 6cbf f21f 75bf
000001f0: 6638 82bf f3d7 7c3d c371 ae3d 7ab4 6cbf
00000200: 02ec b5bf caad 93bd 038b cdbf 20fa b1bd
00000210: cc7b bbbf 56c5 57bd 9a8c b9bf e5f9 bdbf
00000220: 0aa8 bfbf 595a ccbf 95c8 c0bc 769f 9ebc
00000230: b3ee ccbf 3ad1 c5bf 1eaa bdbf a139 ae3d
00000240: e11f 0d3c f6e8 bfbd dd1d c9bf 4245 bcbf
00000250: a311 c3bf e084 64bd 61bc d7bf e629 c9bf
00000260: 7101 34bd bea7 cabf b95f cebf fb61 bfbf
00000270: 70b0 bb3b 0aed ddbf 853c aebc cdea 123e
00000280: dfa9 b8bf 621e b0bf 418a c8bf 2c5a 41bb
00000290: f89f 8a3c f001 b1bf 009a debb 7b0c 6f3d
000002a0: 966d bdbf b956 c0bf 9c87 37bd c784 c2bf
000002b0: 0228 a83d 0b6c e2bd 29ba cabf 6dc4 cfbf
000002c0: 3178 ccbf 20c5 b2bf 2b6d 183d 5ec8 423d
000002d0: f789 bebf 8db2 d8bc 854c c2bf a520 d7bf
000002e0: 145d 5ebd 2d9f d3bf 23d9 cbbf 6318 9bbd
000002f0: 682c 91bd 2b31 c8bf ad93 bfbf 8749 bfbf
00000300: e6ca 50bd 0af5 eb3c fc64 c33d daf0 813c
00000310: b9fe c8bf 0c87 d3bf b775 8f3d 284f 0bbe
00000320: 9c9f cabf 3b1d d6bc ab46 bbbf f600 05be
00000330: b9c3 b8bf cbfc 99bd 2c5d c3bf 9d88 d0bf
00000340: 142b c3bf e6bb d0bf 9ef4 b7bf febe ddbf
00000350: ffb2 7c3c a2f5 c4bf 964d 013e 05a4 a2bd
00000360: da9b 6abd fd39 f23c 880e 15be 3374 c3bf
00000370: 4851 d6bf 5819 cabf 16bd fa3c 2f3c df3a
00000380: ec83 c9bf 8021 b6bf 5e6e c1bf 2551 bfbf
00000390: 67e1 c6bf cdb1 d8bf a087 b8bf a3b9 dabf
000003a0: c676 633d 1b48 c5bf 9b32 fa3d e145 b7bf
000003b0: 913f bebf 7327 7bbb c2a4 cf3a 65f2 f3bb
000003c0: 523e fb3b 0b11 c3bf a925 bebf 8887 d0bf
000003d0: d519 c4bf 9de2 933d 2aab 52bc 9caf dabf
000003e0: fa8c d8bf d849 e1bf 8c0c c0bf d844 b4bf
000003f0: d275 c5bf 6b47 263d 6f9f d63d 3e93 c3bf
-0.9515552 0.08536077 -1.041018 0.04021321 -0.9965696 -0.001810892 -0.97221285 -1.1329404
-1.0446539 -1.057195 -0.0701496 0.031055357 -1.0051905 -1.0462381 -1.227358 0.07376344
0.0006095473 -0.029016947 -1.2360833 -1.3346962 -0.91298825 0.0072368877 -1.1455863 -1.0466254
0.006466675 -0.9827235 -1.024956 -1.0554329 -0.07120165 -1.2557466 0.03963998 0.048156362
-0.9714048 -0.9504457 -1.1092418 0.040779598 0.10386209 -0.9034612 0.032460187 0.014924474
-0.9440678 -1.0693891 -0.042833615 -1.1465629 -0.001175298 0.015664918 -1.1326526 -1.2092932
-1.1045681 -0.9655584 -0.022839725 -0.07338857 -0.9419182 0.043129366 -0.9906769 -1.0797719
-0.03891747 -1.2024007 -1.1218467 -0.07027613 -0.086918056 -1.0202819 -1.1277312 -1.0009464
0.011192977 -0.021079019 0.13337322 0.041172978 -1.1676501 -1.1204756 -0.0066573615 -0.10864427
-1.116015 -0.070927225 -0.93172634 -0.02949052 -0.98745584 0.033098325 -0.8950366 -1.0471218
-1.2646616 -1.1994486 -1.0497918 -1.2288656 -0.11931351 -1.084047 0.010344424 -0.028604781
0.06002523 -0.12062615 0.09784326 -1.0180423 -1.1783864 -1.2147272 0.07901102 -0.13126723
-1.0938427 -0.8434011 -1.1465399 -1.0461401 -0.99561405 -1.2822524 -1.0524377 -1.2883673
-0.05690842 -1.110681 0.07156838 -1.0411046 -1.2174492 -0.09423342 0.0041892435 -0.1291333
-0.0055167126 -1.0772237 -1.0306947 -0.96338433 -1.0912399 -0.07881595 -0.075397804 -1.0902549
-1.0915257 -1.3543041 -0.92233306 -0.9575187 -1.0173461 0.061729383 0.08517792 -0.92462885
-1.4212649 -0.07210882 -1.6058048 -0.08690286 -1.4647155 -0.05267843 -1.4496033 -1.4841887
-1.4973156 -1.5965072 -0.023533145 -0.019363146 -1.6010345 -1.5454476 -1.4817541 0.085070856
0.008613558 -0.09370606 -1.5712239 -1.4708636 -1.5239757 -0.055790782 -1.6854364 -1.5715911
-0.043946687 -1.5832441 -1.6122962 -1.4951776 0.00572782 -1.7337964 -0.021269092 0.14347382
-1.442684 -1.3759272 -1.5667192 -0.002950321 0.016921982 -1.3828716 -0.0067932606 0.05836151
-1.4799068 -1.5026466 -0.04480706 -1.519677 0.08210756 -0.11055764 -1.5838062 -1.6231819
-1.597418 -1.3966408 0.037213486 0.047554366 -1.4885854 -0.026452327 -1.5179602 -1.6806837
-0.054287985 -1.6532952 -1.592564 -0.07573011 -0.07088548 -1.5640005 -1.4966942 -1.4944314
-0.05097475 0.028803367 0.095407456 0.015861917 -1.5702735 -1.6525588 0.07004874 -0.13604414
-1.5829959 -0.026136985 -1.4630941 -0.12988648 -1.443473 -0.075189196 -1.5262809 -1.6291691
-1.5247521 -1.6307342 -1.4371526 -1.7323911 0.015423535 -1.5387461 0.12627253 -0.079414405
-0.057277538 0.029568667 -0.14556324 -1.5269836 -1.6743555 -1.5788984 0.030607741 0.0017031486
-1.5743384 -1.4228973 -1.5111806 -1.4946638 -1.5537537 -1.692926 -1.441639 -1.7087902
0.055533193 -1.541263 0.122166835 -1.43182 -1.4863149 -0.0038323074 0.0015841948 -0.007444667
0.0076673413 -1.5239576 -1.4855243 -1.6291361 -1.5320383 0.072209574 -0.0128581915 -1.7084842
-1.6918023 -1.760066 -1.5003829 -1.408351 -1.5426581 0.040595453 0.10479628 -1.527931

net.out.bias f4 [64]
00000000: f9a9 bebd bc03 3ebe c938 cbbd 37c5 c8bd
00000010: 4ed3 88bd d3fc 1c3d 7c87 61be 8d42 2ebe
00000020: 1635 81bd 3847 0bbe 7627 553d ec83 cbbd
00000030: e1e8 87bd 019e 7abe e0af 0cbe 685d 2fbe
00000040: 2527 b9bd 1fd5 0d3d 4721 1ebe 8858 28be
00000050: a336 3bbe 98c5 b4bc 61f6 ddbd 6ea5 dfbd
00000060: 9518 0ebe 4e54 aabd 5972 34bc 449a a8bc
00000070: 33e1 48be ab5e 2ebe 2125 50be 366a 05bd
00000080: a2e6 9f3c 3560 2ebd 6b64 263e 83cf 363e
00000090: 7490 083e 8125 553e 96ff ab3d 0145 163e
000000a0: f8bf 3c3e 3908 663d 7d9a 603d 25a2 d63d
000000b0: be57 f23e 88dc 293e 76cd 503e c638 1c3e
000000c0: ec2c 763e 4fff c83d 14bc 2d3d 2196 203e
000000d0: 8f26 2d3e 757d a33d 57eb dd3d 3c9e f33d
000000e0: 35ac 2f3d 0920 663d ddbb 163e 2487 553d
000000f0: f70f c23d 6eda 933d 3d41 fd3d 7c43 293e
-0.093097635 -0.18556112 -0.0992294 -0.09803241 -0.06680928 0.03832705 -0.2202434 -0.17017575
-0.063089535 -0.13601387 0.052039586 -0.099372715 -0.06636215 -0.24474336 -0.13738966 -0.17125475
-0.09040669 0.034627076 -0.15442382 -0.16440022 -0.18282561 -0.022066876 -0.10838009 -0.10920225
-0.13876565 -0.08316861 -0.011013591 -0.020581372 -0.19617157 -0.170283 -0.20326664 -0.032571994
0.019519154 -0.04257222 0.16249244 0.17852597 0.13336354 0.20815088 0.083983585 0.1467476
0.18432605 0.056160185 0.05483483 0.10480145 0.47332567 0.16588032 0.20390877 0.15256032
0.24040574 0.09814321 0.042415693 0.1568227 0.1690924 0.079829134 0.10835903 0.11895415
0.04288884 0.056182895 0.14720102 0.052130833 0.09475701 0.072193965 0.12365959 0.1652965

v.layers.0.weight f4 [128, 131]
00000000: e906 80bb 7bcf f63c ffe9 8fbd 02c7 993d
00000010: ccf9 6bbd c1a1 803d fff9 d83b 479a 90bd
00000020: 84c2 4f3d 0c8f 3e3c 50be 7a3d 8380 88bd
00000030: eba3 87bd df47 f8bc 65a5 81bb 7117 aabd
00000040: ca06 073c 171b 36bd e5fb b0bd a3aa 913d
00000050: 62af 8fbd 07c6 91bd 944d 2d3d b1f8 26bd
00000060: adbb 8abd 158c 62bc 63cf 113c e63f 84bd
00000070: 2b05 ac3d 484f 0f3d fa72 27bd 7ea7 013c
00000080: 390a 503d a7a3 91bd 1eaf 95bd 3fa6 473d
00000090: ff43 733d 1d3e 463d 2716 283d eb69 a13c
000000a0: b0cc 80bd 236c 8a3d ed1c 0cbd 5eec a03d
000000b0: c0ac 783d 92b1 ab3d f97e 9d3c ce82 5c3c
000000c0: bb67 27bd a365 4d3d 90bd b23d af74 843d
000000d0: 3498 813c e28f 0e3c 776a 97bd fa09 48bd
000000e0: 530d 8a3d dbb3 11bd cf71 a53d 6854 93bc
000000f0: ba9e ff3c 231e 89bd 3ce3 2a3b 665e a9bd
00000100: f8fd a0bd ba72 fdbc 477a 5b3d b71c 573d
00000110: 98a1 42bb 7f67 64bd 97c9 033d ac6a 9f3d
00000120: d411 a8bd 4b4a 38bd 6c58 95bd f342 90bd
00000130: fd1a bb3b 0af2 9bbd 30ee c8bb a6d1 ad3d
00000140: 6957 68bc 72a5 783c ba67 6fbd c536 17bc
00000150: 61ad 72bc fc56 a3bd 1702 5bbd 6138 4b3d
00000160: 24db 77bc f929 423d a993 4b3d e1f7 76bd
00000170: 2b5d 5cbd f9a6 91bd 1c3d 7ebd 6f47 6f3c
00000180: af4b 5cbd c760 1abc 849e 933d 8e0c 643d
00000190: 6af3 8b3c dcc7 f13c e500 5abb ddf7 a8bb
000001a0: e3ae 88bc f871 a73d 3a3a e93b 3e16 68bd
000001b0: f15c 14bd 1878 d03c b079 65bd be91 8f3d
000001c0: 5e77 2cbc 84c9 97bd 36a4 003d 665f 0fbd
000001d0: 9a4b 46bc 0915 8e3d 2208 9e3d a7c6 8d3d
000001e0: 2946 70bb 4140 92bd 8835 073c a2ea 9a3d
000001f0: 133e 633d 7b2e 8abd 714b 25bd 71c7 8ebd
00000200: f587 5c3d 3844 9ebd d7ac 12bd 6506 9ebd
00000210: 7bd5 7cbd 8ba7 093d 26d2 3ebb 4db6 133c
00000220: 886c c8bb 7f34 91bc ad6a 65bd e71a be3c
00000230: 46c4 48bb d6fd 0abd a94d d33c 9aca 8bbc
00000240: dacd 09bc 9d6f 47bd 5951 07be e7d4 4cbd
00000250: 9680 98bc 0f00 883b e4f5 06be c6a7 233c
00000260: 81d3 66bc 897e 4ebd 5c4c d1bd 5525 8cbc
00000270: 2fe6 9ebd 1c2c 223d da9a c43b fb2c efbd
00000280: 1445 603d 55a6 443c eb6e ff3c cb9c 90bc
00000290: 242a 563d e99b ad3d 0308 f2bc 7a94 a9bd
000002a0: c005 4f3d e719 8fbd 6e07 a13d 2409 c0bb
000002b0: b43b 05bc 7f03 863d ff5f 5cbd 2a45 3e3d
000002c0: 2fee 523c 9e45 af3c d7e8 993d e58d c1bc
000002d0: 1e80 853d 7daa 683d 25cb 35bd 87cb 513d
000002e0: 74db 3b3d 3c01 8abd 9d15 95bd 1697 1d3d
000002f0: 8a3f 103c 92e9 a2bd aa4e c5bc ecac abbd
00000300: dd0e 55bd 6280 03bd 6541 9fbd 7fb1 e2bd
00000310: ca5e 98bd 60b7 7abd daee b33b 140b a4bd
00000320: f2b4 e2bd 21ff f9bd f9df 15bc 7bf5 0b3d
00000330: da6c c6bd 2a31 e8b9 2ca1 c8bc c432 22bd
00000340: 9700 e0bd 6034 0cbe d102 e93c c794 2fbd
00000350: 8b4f 88bd 2982 0bbc 71f6 02be a792 8b3c
00000360: 72c0 d33c 3e61 8dbd 7efe e2bd 8f7d 9abd
00000370: 379e bb3c a456 553a f4fb b3bd 0d52 8abc
00000380: 3ddc 10be 1b15 67bd 5ab6 74bd 7f42 56bd
00000390: 6278 38bd bd35 c2bd a0ba d9bd 17ef 60bd
000003a0: e021 92bc 980b 96bb 3601 a13d 9f2c a7bc
000003b0: 7ca2 02be 44d1 17be 05b0 07bd 7f79 f43c
000003c0: 64d2 cbbc edc6 483d 0c42 cd3b 7121 83bd
000003d0: 769f 883d 438c 95bd 60bb 78bb 9c13 113d
000003e0: 7483 c6bc f3da a63d b1f0 5a3d 3cc8 213d
000003f0: 8e14 9e3d 6bf2 983d d2ca 86bd b797 ed3c
-0.0039070738 0.030128231 -0.07027053 0.07508661 -0.05761127 0.06280852 0.0066215987 -0.07060676
0.050722614 0.011630785 0.061216652 -0.06665137 -0.06623062 -0.030307708 -0.003956484 -0.08305252
0.008241365 -0.04445943 -0.08641795 0.071126245 -0.070158735 -0.07117849 0.042310312 -0.040764514
-0.067740776 -0.0138273435 0.0088995425 -0.064575 0.08399423 0.034987718 -0.040881135 0.007913468
0.050791 -0.07111292 -0.073087916 0.04874253 0.059391018 0.04839908 0.04103675 0.019703826
-0.06289041 0.06758907 -0.034207273 0.078575835 0.060711622 0.08383478 0.019225584 0.013458921
-0.04087041 0.050145756 0.087275624 0.06467568 0.015819646 0.0087012965 -0.073933534 -0.04883764
0.06740823 -0.035571914 0.08078348 -0.017984584 0.031203616 -0.06695201 0.0026075384 -0.08269958
-0.07860941 -0.030938495 0.05358341 0.05251762 -0.0029698368 -0.055762764 0.032174673 0.07784018
-0.082065254 -0.044992726 -0.07292256 -0.070440196 0.0057100044 -0.07614525 -0.00613191 0.08487253
-0.014180996 0.015176164 -0.05844853 -0.009229367 -0.014811845 -0.07975575 -0.05346879 0.049614314
-0.015127931 0.04740331 0.049701367 -0.06029499 -0.05379979 -0.07111926 -0.062069997 0.014604433
-0.053783115 -0.009422488 0.07207969 0.055676036 0.017083842 0.029514246 -0.0033264693 -0.0051565007
-0.016684955 0.08176035 0.007117537 -0.056661837 -0.03622145 0.02544789 -0.056024253 0.0701022
-0.010526506 -0.07411483 0.031406604 -0.03500309 -0.012102986 0.06937606 0.07716395 0.069226556
-0.0036662912 -0.07141162 0.008252509 0.07564284 0.05547912 -0.06747147 -0.04035515 -0.06971634
0.053840596 -0.077278554 -0.035809364 -0.077160634 -0.06172703 0.033607047 -0.0029116957 0.009015632
-0.0061164536 -0.017725227 -0.056009937 0.023206187 -0.0030634566 -0.033933483 0.025793867 -0.017064381
-0.008410895 -0.048690427 -0.13214625 -0.050007727 -0.018616002 0.0041503976 -0.13179737 0.009988731
-0.014088512 -0.050413642 -0.102196425 -0.017107645 -0.07758748 0.039592847 0.005999905 -0.11678501
0.054753378 0.012002547 0.03118082 -0.01765289 0.052286282 0.08477003 -0.029544836 -0.08280273
0.050542593 -0.06987362 0.07862745 -0.0058604646 -0.00813191 0.065436356 -0.053802487 0.04645268
0.01287417 0.0213955 0.07515114 -0.02362723 0.06518577 0.056803215 -0.044383187 0.05121949
0.045863584 -0.06738517 -0.07279513 0.038474165 0.008804211 -0.07954706 -0.024085362 -0.083825916
-0.052016128 -0.032104857 -0.07776145 -0.11069011 -0.074399546 -0.061210036 0.00549112 -0.080099255
-0.11069669 -0.12206865 -0.0091476375 0.034169655 -0.096887305 -0.00044287118 -0.024490915 -0.039599195
-0.109376125 -0.13691854 0.028443726 -0.042866495 -0.066557966 -0.008514919 -0.12789322 0.017037703
0.025848601 -0.06903313 -0.11083697 -0.0754348 0.022902591 0.00081382156 -0.087882906 -0.016884828
-0.14146514 -0.056416612 -0.059744217 -0.05230951 -0.04503668 -0.09482906 -0.10631299 -0.054915514
-0.017838418 -0.004579019 0.07861559 -0.02040702 -0.12757295 -0.14825922 -0.03312685 0.02984309
-0.024880596 0.049017835 0.006263977 -0.06402863 0.0667104 -0.073021434 -0.003795348 0.03541909
-0.024232604 0.0814723 0.053452197 0.0394976 0.07718764 0.074681126 -0.06581654 0.029003007

v.layers.0.bias f4 [128]
00000000: 7c3b 8dbd 3c7a bb3c 6c9e 0cbe 147d 5bbc
00000010: 85c9 0dbd e81f 29bd f593 ce3d 5e15 b4bd
00000020: 8c75 d33c 22e2 65bd 3c5e d5bd d9b1 67bb
00000030: de6a bdbd fde3 98bd 1d97 c7bd 6708 94bc
00000040: b0d2 b5bd 96a2 103c ad22 ec3c e7bf 03bd
00000050: 1c1f 05ba 62bb 04be 9243 9dbd 0468 92bd
00000060: 137c e9bd e162 e3bb e232 00bd 7636 c5bd
00000070: 1b53 51bd 15b4 45bd 84a3 b2bd 1911 0fbe
00000080: 5271 00be 185d d93b e5da 413d 74e8 f7bc
00000090: 387a 30be dbc1 213d 24a0 983c ce16 c6bc
000000a0: dc94 00bd 7876 02be 4992 f4bc 3a91 d1bb
000000b0: ae62 42bd b535 b0bd 887b 3abd b45b 12be
000000c0: df83 17be 64c0 e7bd 5b53 0dbe 7586 06be
000000d0: cd81 2ebd e963 59be fa24 b9bd 0105 97bd
000000e0: 553f f2bb 1898 fabc f86c adbd a51e 06be
000000f0: 2166 603c e04f 91bc bbdf 863e ccdf 4abe
00000100: 815e 8fbd 0b67 96bd 5bb4 efbd e86e 4a3e
00000110: 54a3 e63d 8ece 6ebd 786d 793c 281b ecbd
00000120: 1da3 d5bd 7079 6cbd 3fd9 96bd 660b 82bd
00000130: ca92 a6bc 8d18 e4bd 7cde 153d 3655 c8bc
00000140: ba0c 96bd 2ca4 cfbd 8506 bebd 40eb 07be
00000150: 2659 13bd f221 13be 4650 7bbd 0c88 b1bd
00000160: cfa2 87bb 0d22 383c e3e2 acbd b85f c5bd
00000170: aa5f 6cbd 6ec7 04bd 2942 fabd 4527 7dbd
00000180: 9477 b6bd f578 a2bd e789 85bd 78d3 3bbd
00000190: 73f7 60bd 2434 dcbd 54fc 2fbd 60ea 2ebd
000001a0: fb06 6c3d d3d4 14be 32cd 9cbd 76af 3ebd
000001b0: 5c3e 04bd fe6c 53bc 5ad1 8c3c e67e 8cbc
000001c0: 1733 393d 8d86 abbd 1d03 78bc 9f0b 1cbd
000001d0: dd11 acbd 007c 27ba cc70 a73c 6733 e7bd
000001e0: 815a 3abd ffdc aabd 3bde a0bc dedf ee3c
000001f0: 1ed4 4b3a a7ef cd3d 0e12 e9bd fab0 50bd
-0.06896111 0.022885434 -0.13732308 -0.01339652 -0.034616012 -0.041290194 0.10086814 -0.08793138
0.025812887 -0.05612386 -0.104183644 -0.0035353808 -0.09248899 -0.0746536 -0.097456194 -0.018070413
-0.08878076 0.008827826 0.028825128 -0.032165434 -0.0005078183 -0.12962106 -0.07678904 -0.07148746
-0.114006184 -0.0069392775 -0.031298526 -0.09629528 -0.051104646 -0.048267443 -0.087225944 -0.13971366
-0.12543228 0.006633412 0.047327895 -0.03026221 -0.17234123 0.039491516 0.018631049 -0.024180796
-0.031391963 -0.12740505 -0.02985491 -0.006395486 -0.04745739 -0.08603994 -0.045527965 -0.14292794
-0.14796399 -0.113159925 -0.13801329 -0.13137229 -0.042604256 -0.21229519 -0.09040256 -0.07374001
-0.0073928037 -0.030590102 -0.0846805 -0.13097627 0.013696224 -0.017738283 0.26342568 -0.19811934
-0.07000447 -0.07343873 -0.11704322 0.1976887 0.11261621 -0.058302455 0.015223853 -0.11528617
-0.10431502 -0.057733 -0.07365655 -0.0634983 -0.020333666 -0.11137495 0.03658913 -0.024454694
-0.07326646 -0.10138735 -0.09278587 -0.13273335 -0.03597369 -0.14368418 -0.06135585 -0.08668527
-0.0041392813 0.011238587 -0.08441713 -0.096373975 -0.05770842 -0.032416753 -0.1221965 -0.06180503
-0.089095265 -0.07933227 -0.065204434 -0.04585597 -0.054923486 -0.107521325 -0.04296525 -0.042703986
0.057623845 -0.14534311 -0.076563254 -0.04655405 -0.032286033 -0.012904404 0.01718967 -0.017150354
0.04521474 -0.08375273 -0.015137461 -0.03809702 -0.08401845 -0.0006389022 0.020439528 -0.11289101
-0.045496468 -0.08342933 -0.019637218 0.029159483 0.00077754434 0.10055476 -0.11380397 -0.050950028

v.layers.1.weight f4 [128, 128]
00000000: 75de 0c3d ffa6 e3bc 7121 86bd 82e6 2f3c
00000010: 84b0 043d 808c 413c 94cc aabb 0f6e e2bc
00000020: f52e 403c fb61 11be e925 28ba 3c22 e5bd
00000030: c00a e53c 5ea3 44bd 86ab b9bd c8ef d8bd
00000040: 9490 b13c 6389 7ebd e7f4 16bd e18e d13a
00000050: 7e4a 04be 522d 0fbb f1ea afbd 6939 03be
00000060: b04a 3abd 60a2 603d 1af3 25bc e30b 49bd
00000070: 89ef 63bd 58bc cabc b254 afbd b74b a83c
00000080: e50c cc3b 314a 88bc 63a4 b43c 9588 9ebd
00000090: d15a d63c 75a0 acbd a1e2 a63c 3685 abbd
000000a0: a2fd 33bd efba 06be bb85 8a3d e95d efbd
000000b0: 126d 59bd 2b50 b63b 66a1 d4bd e2e3 383c
000000c0: 85c8 07be bdbc 9abd f9fe ecbd 21f7 aabd
000000d0: 1c53 e2bd d603 d3bd 2ebc 43bd 46ed af3a
000000e0: 6c83 95bd a295 82bd df59 9dbc f130 c9bd
000000f0: 786a 3c3d 2463 00be d464 d1bc 27b7 b93c
00000100: 51e9 e13b 311f 853c 0ae3 e9bd 1a6d ebbc
00000110: 5513 0abc 6d66 c1bd 2bc1 883b bc9a 92bc
00000120: acbf 97bd 75f2 01bd 626b 14be 6cae e5ba
00000130: 0cfa f0bd fd49 acbd 2e49 f7bd d31a 15be
00000140: 4b1d 96bd 9640 9abd 03bb 45bd 25e4 b3bd
00000150: 01a9 d9bd fdd2 bbbc 4513 15be e6b9 80bd
00000160: 2769 743b 54d2 51bd e9d0 ccbd e4f9 89bd
00000170: df67 b2bb b8b8 f6bd d4d7 df3c a83f 0c3c
00000180: 0eb0 4bbd 7b8f af3c 11ed d2bd f21d 08bd
00000190: 7791 14be 8421 4c3b b5e1 16ba 5832 b2bd
000001a0: 2136 813c ebbd 283c b7fb 11be a2c0 94bd
000001b0: a714 23bd be96 cdbd e84a ba3c 568e 60bd
000001c0: 1ead 14be e075 3fbd dfad 4dbd 82d1 0fbd
000001d0: 37a4 f9bd 2ef4 13bd dea4 eebd 1c48 e2bd
000001e0: 0cb4 90bd bdff afbd 79fa ecbd 3dd4 e0bd
000001f0: bf84 f8bd c194 67bd de5f 723b d94a 70bd
00000200: aee3 b0bd 1a1a 8ebd a43d cabd 9f31 b3bd
00000210: 8f91 afbd b193 e8bd 008d b13b f404 9cbd
00000220: 4198 4cbb 27e8 ffbd 15a0 dbbd d054 15be
00000230: 6e23 793d 198a 81bd 0687 24bd 5e29 ef3b
00000240: 0ac9 3b3c b568 63bd 34c8 98bd ce74 09be
00000250: 1ae8 90bd 6bc6 66bd 8c72 92bd 753f 9bbd
00000260: 1db1 e3bd 2402 64bd 733c eabd 27cb d8ba
00000270: ee4d 1fbd 7e0c a1bd 1303 f6bc 0b75 ae3c
00000280: e21d ea3c ef16 9fba 0827 9f3c 43b9 82bd
00000290: 1465 06bd 78fd a6bd 652a 3c3c fb64 d73b
000002a0: 58d0 b3bc f1be 5e3c 70e4 443d a995 4d3d
000002b0: 51b6 d5bd d234 9cbd e4e1 e8bc e9c6 a73c
000002c0: 3161 6fbd a5f4 293b 1598 10be 2fac edbb
000002d0: 21de acbd 9b9f cfbd 1b17 b9bd f89c f3bc
000002e0: 7311 03be 39e2 acbb 84fd b0bb 809c 0abe
000002f0: 7f1d 05bd ea78 08be 0b90 15bd 92d7 1d3b
00000300: 680d 0fbd de5a 02be 3fe8 c83c 6793 6dbc
00000310: ee51 dd3c 3856 e2bd bfd3 c9bc a0f1 6b3b
00000320: 1060 70bd 690b bfbd 4825 90bd abdf d7bc
00000330: 26ac e4bc 370d e8bd 377f 0fbe c36d edbd
00000340: d88e f8bb 3516 13be 699e 7fbd dfb6 a5bd
00000350: f503 8ebd 2921 e1bd 9382 a4bc 05a1 d1bd
00000360: 01ba 50bd a4bc c1bd 5a26 0bbe 0db9 17be
00000370: 1eb1 c7bd 4da8 4abb a5c3 ed38 16f6 6b3d
00000380: b2c5 01be ee7a b23d 4e79 df3b 5f73 2abb
00000390: 2166 9bbc d6f5 5cbd 6644 4fbd 6c6f b8bd
000003a0: 6ea8 8cbd abb9 d93c 6833 dcbd 41ce e6bc
000003b0: f456 4f3b e130 6bbd 6b60 4fbd 3ea6 0d3a
000003c0: dd0d 4dbd 2cb4 adbd b2ee 53bd 28ea 9e3b
000003d0: a537 cbbd 10dd f9bc 5762 063d 12d0 fdbd
000003e0: 46ed 513d ec55 cebd 71f5 d93c 19b1 89bd
000003f0: baf1 febc b7a0 dfbd c764 6f3d 6892 db3b
0.03439184 -0.02778959 -0.06549347 0.01073611 0.0323949 0.011813283 -0.005212376 -0.02764037
0.011729945 -0.14197533 -0.00064143405 -0.1118817 0.027959228 -0.04800736 -0.090659186 -0.1059261
0.021675386 -0.06214274 -0.03685465 0.0015988016 -0.12919042 -0.0021847081 -0.085897334 -0.12814869
-0.045481384 0.054842353 -0.010128761 -0.0490836 -0.05564836 -0.024748012 -0.08561076 0.020543916
0.006227123 -0.01663694 0.022051042 -0.07740895 0.026166352 -0.08429042 0.020371737 -0.08375017
-0.043943055 -0.13157247 0.06763788 -0.11687834 -0.053082533 0.005563756 -0.10382347 0.0112848
-0.13260086 -0.0755553 -0.1157207 -0.08347917 -0.11051008 -0.10303466 -0.047786884 0.0013422153
-0.07300457 -0.063761964 -0.019207893 -0.09823788 0.045999974 -0.12537819 -0.025560774 0.022670342
0.0068942686 0.016250225 -0.114202574 -0.028738547 -0.008427461 -0.09443364 0.004173418 -0.017896049
-0.074096054 -0.031725366 -0.14494088 -0.0017523295 -0.11766443 -0.0841255 -0.12074505 -0.14561014
-0.07329806 -0.0753185 -0.04827405 -0.087837495 -0.10627938 -0.022927755 -0.14558132 -0.06285457
0.003729412 -0.051225975 -0.10000784 -0.06737116 -0.0054445113 -0.12046951 0.027324595 0.008560099
-0.049728446 0.021430722 -0.10299123 -0.033231683 -0.14508615 0.0031147907 -0.0005755679 -0.087010086
0.015772881 0.010299186 -0.14256178 -0.07263304 -0.039814617 -0.100385174 0.022740796 -0.054823242
-0.14519164 -0.046743274 -0.050214645 -0.03511191 -0.121895246 -0.03612154 -0.1165254 -0.1104891
-0.07065591 -0.085937 -0.11571211 -0.10977981 -0.12134694 -0.056538347 0.003698341 -0.05866513
-0.086371765 -0.06938572 -0.09875038 -0.08749699 -0.08572685 -0.11356295 0.00541842 -0.07618132
-0.003121868 -0.124954514 -0.107238926 -0.14583135 0.060824804 -0.06325168 -0.04016783 0.0072986325
0.011461506 -0.05551978 -0.07460061 -0.13423464 -0.0707552 -0.05634157 -0.07150754 -0.07580463
-0.11117766 -0.055666104 -0.11437311 -0.0016540036 -0.03889268 -0.07863711 -0.030030763 0.021296045
0.028578702 -0.0012137572 0.019427791 -0.06382992 -0.03281124 -0.08153814 0.011484717 0.006573317
-0.021949932 0.013595329 0.048069417 0.050191555 -0.10435165 -0.07627262 -0.028428026 0.02048059
-0.0584423 0.0025933173 -0.14120515 -0.007253192 -0.08440805 -0.10137864 -0.0903761 -0.029737934
-0.12799625 -0.0052759913 -0.005401315 -0.13536263 -0.032498833 -0.13327375 -0.036514323 0.0024084789
-0.034924895 -0.12729976 0.024524806 -0.0145004755 0.027016606 -0.11051601 -0.024637101 0.0036002174
-0.058685362 -0.09328348 -0.07038361 -0.02635177 -0.027914118 -0.113306455 -0.14013372 -0.11593201
-0.0075853877 -0.1436394 -0.06240693 -0.080915205 -0.069343485 -0.10992653 -0.020081794 -0.1023579
-0.050958637 -0.094598085 -0.13588849 -0.14816685 -0.09750579 -0.003092307 0.00011337482 0.057607733
-0.12673071 0.08714853 0.0068198806 -0.0026008708 -0.018969597 -0.053945385 -0.05060234 -0.09005627
-0.06868063 0.026577791 -0.107519925 -0.028174521 0.0031637521 -0.05741966 -0.05062906 0.0005403495
-0.05006205 -0.08481631 -0.05174131 0.004849691 -0.09922723 -0.030500919 0.032808628 -0.12393202
0.051251672 -0.10074982 0.026606293 -0.06723232 -0.031121124 -0.10919326 0.05844572 0.0067008026

v.layers.1.bias f4 [128]
00000000: 4f7d 85bd 36b8 93bc 0c91 b73e 1b8a 0c3e
00000010: f9a4 fdbd c020 93bc be43 dbbd 4d8e d53d
00000020: 7f98 d0bc a44a 6d3d 09fa 4cbd bb88 fe3d
00000030: d32e f43e 2dbe b9bd b129 17be f181 14bd
00000040: 4af2 83bb e381 61bc 80bc f9be 1ca1 e1bd
00000050: 938f c7bc f191 5bbd 048c 0f3e faaf debd
00000060: ab40 a43e 7fb4 f0bb fedc 40bd af2e e0bc
00000070: 9b7d f1bc dbf9 71bb e96b d4bd a3f7 afbd
00000080: 9b7b 743d 801d 93bd 190d 24bc 3656 aabd
00000090: a789 6abd 12a2 a63d a4bd 89bd 65d0 87be
000000a0: e4c4 2ebc 0699 97bd 703b 15bf 2475 a6be
000000b0: c27e 9dbe ee7a 393d 5bd0 b3bd 8494 fcb9
000000c0: 926d 553e 1b90 ae3d f588 293e a309 6a3b
000000d0: bcdf bcbd 15e0 adbd d801 0cbd ab88 67b9
000000e0: 134b 703d f08e db3d 7e58 fc3e 5e8e b33e
000000f0: 7b26 dbbd ce36 5abc 25de 023e 217e eb3e
00000100: fa17 b7bc f3c2 203b 14a7 8fbd 5995 b5bd
00000110: 16b8 7ebd d080 87bd 5c13 833e 060f 843e
00000120: bf60 0d3f 6049 793d 58d6 debd f785 563d
00000130: 6afa e0ba 5782 52bd 751c 7abe 8713 87bd
00000140: 4a5f 76bd 0895 e5bd 2c2a a0bd e4db 36bd
00000150: 9d2d c6bd c6d4 70bd 6a6e 443e 6a11 0dbc
00000160: 54e3 17bd 5712 21bd 2326 d2bd 106e 223f
00000170: 29c2 93bc 7b3c f23c ec05 863e ce5b bcbc
00000180: 2218 15be f60c e6bd 95a9 c43e eed4 e3bd
00000190: ed8f 0fbe 00f5 bf3c 6d6f 87bc d446 3ebd
000001a0: ac15 22bd c38e 09bc dc90 81bd c7b4 413e
000001b0: bac2 88bd 90ba 41bd 9f8b 19bd f8b2 44be
000001c0: c1b5 e3bd 8791 ed3d 7958 c0bd f805 ca3e
000001d0: 0d4f 1e3e 7620 1c3d 900c 81bc 8b8f 453d
000001e0: 6c92 1abe 23e0 6aba 02d6 ae3d e598 9dbc
000001f0: b310 fa3c 94ca 16bc e1a8 8cbc d072 f1bd
-0.06518041 -0.018032175 0.3585285 0.13724558 -0.12384982 -0.017959952 -0.1070628 0.10427532
-0.02546334 0.05793251 -0.05004314 0.12428423 0.47691974 -0.09069476 -0.14761998 -0.036256734
-0.004026686 -0.013763878 -0.48776627 -0.11017057 -0.024360454 -0.053605977 0.14018255 -0.108734086
0.32080588 -0.0073457356 -0.047085755 -0.02736601 -0.029478839 -0.0036922607 -0.10372145 -0.08592155
0.05968819 -0.07183361 -0.010012888 -0.08317225 -0.05726018 0.08136381 -0.06725624 -0.2652618
-0.01066706 -0.07402234 -0.5829382 -0.32511246 -0.3076077 0.04528325 -0.08779975 -0.00048175838
0.20842579 0.0852358 0.16556151 0.003571131 -0.092223614 -0.08490006 -0.034181446 -0.0002208079
0.058665346 0.107206225 0.49286264 0.35069555 -0.10700699 -0.0133187305 0.12780054 0.45994666
-0.0223503 0.0024530261 -0.070142895 -0.088663764 -0.062187277 -0.06616366 0.25600708 0.25792712
0.5522575 0.06086099 -0.108807266 0.052373853 -0.0017164473 -0.051393833 -0.24424918 -0.065955214
-0.06014947 -0.11210066 -0.07820544 -0.044643298 -0.09676669 -0.058796667 0.19182745 -0.008610109
-0.03708203 -0.03932413 -0.1026118 0.6344919 -0.018036919 0.029569855 0.26176393 -0.022992995
-0.14559987 -0.11232941 0.3841063 -0.111245975 -0.14019747 0.023432255 -0.016532624 -0.046454266
-0.03957145 -0.008395853 -0.06326458 0.18916617 -0.06677766 -0.04729706 -0.03748667 -0.19208896
-0.11118651 0.11600023 -0.09391875 0.3945768 0.15459843 0.038116895 -0.01575306 0.048232596
-0.15094918 -0.00089597906 0.085369125 -0.019237945 0.030525541 -0.009203572 -0.017170371 -0.11789477

v.out.weight f4 [1, 128]
00000000: c932 213d 20f2 583d 1627 c5be e369 d13b
00000010: 6fed 423d 9f3b 43bd 4697 c3bc 4828 453d
00000020: f5e0 dbbc 9955 eb3d 58b5 cebc d223 7d3d
00000030: caad 683f b852 353d e17d 9bbd 786c f4bb
00000040: b7f4 e83c 9f73 273c 56da dfbe 33f3 a2bc
00000050: a775 8b3e b271 e6bc 892e 6b3e 29d7 f73b
00000060: 77d8 da3c d6b2 6bbc b8de 58bd f24d ba3c
00000070: e62c f3bc 6aa4 27bc 05c6 553d acc7 0bbc
00000080: 0629 543c 063e 4f3d 1a3d 5e3d e888 e63c
00000090: 156d fc3b ba6f 5c3d a0ae 1f3d a2b8 f43e
000000a0: fc84 fc3c 92c2 9cbc ec75 78be 19f4 2abe
000000b0: 4217 12bf 2120 453d ac82 a8bc 4e37 cdbc
000000c0: 3e5b 1e3e f372 513a 98a4 9c3b a480 07be
000000d0: 248e 3c3d f763 40bc c3d0 483d 25bc aebc
000000e0: 3858 273d 0fe8 0f3d 0810 d33d c03e b13d
000000f0: 52e5 303e a01e d23a 6e3f 093c 4436 8c3e
00000100: c072 6c3d 1506 b9ba 6949 013c 4811 e4bc
00000110: 7714 353d 012a d83c 0fcb ceba 48a5 233e
00000120: c5fc c73d 2b3e 093e 05c5 4d3d f4a7 e33b
00000130: 9c4c 813c dfad 513d e098 523e f884 13bc
00000140: 87f3 843b b119 96bc ec79 d5bc cbfb ac3c
00000150: e20d d83b 9eb4 1b3c 496c 7dbd eaef 5f3c
00000160: 4648 ab3c 545f 333d c919 b3bc 0a55 ad3e
00000170: 6ff0 babd 269a 3ebc de92 363c 4344 acbb
00000180: 8045 3bbd 78c0 683d 3483 143e fe2f 3ebc
00000190: 7814 b53c b9da 3e3e e74e ea3d 7af8 9e3c
000001a0: db2e 143f 18a1 7e3c 2b0a 953e f179 5fbb
000001b0: f9af 743c 997b 083c 0203 abbb 968b 183d
000001c0: e393 a23b 45cf b83c 8cf0 5e3b dc2b 8a3d
000001d0: f64d c63c 1eb5 d8bc ec54 b3bc 6569 823e
000001e0: 17eb aabc 7f9b a2bc 1383 973c 1d4c ed3c
000001f0: f2f4 17be 315d 60bd 887a 4cbd 66c4 333c
0.039355073 0.052965283 -0.38506383 0.0063907965 0.047589716 -0.04766428 -0.023875844 0.04813412
-0.026840666 0.11490936 -0.025232956 0.06180174 0.9089018 0.04426834 -0.07592369 -0.0074592195
0.028437002 0.010220437 -0.43721265 -0.019891357 0.272382 -0.028130386 0.2296697 0.007563491
0.026714547 -0.0143858995 -0.052946776 0.022742245 -0.029684495 -0.01023207 0.0521908 -0.008531492
0.012949234 0.05059626 0.05425749 0.028141454 0.0077034333 0.05381749 0.038984895 0.47797114
0.03082513 -0.019135747 -0.24263734 -0.16694678 -0.5706674 0.048126344 -0.020570122 -0.025050785
0.15464494 0.0007989846 0.0047803633 -0.13232666 0.046033993 -0.0117425835 0.049027216 -0.021329949
0.040855616 0.035133418 0.10305792 0.08654547 0.17274979 0.0016030855 0.008376939 0.2738515
0.05772662 -0.0014116192 0.0078910375 -0.027840272 0.04420897 0.026387217 -0.0015777069 0.15981019
0.09765009 0.13402621 0.05023672 0.006947512 0.0157836 0.051191207 0.2056613 -0.00900387
0.004057351 -0.018322797 -0.026059113 0.021116158 0.006593452 0.009503512 -0.061870847 0.01366804
0.020908486 0.043792084 -0.021862881 0.33853942 -0.0912789 -0.011633432 0.011143414 -0.005257161
-0.045720577 0.056824178 0.14503175 -0.011608122 0.022104487 0.18638124 0.11440831 0.019405592
0.57883996 0.015541337 0.2910932 -0.0034099782 0.014934533 0.008330249 -0.0052188644 0.037242495
0.004961477 0.022559771 0.0034017889 0.06746647 0.024207097 -0.02645355 -0.02189108 0.25471035
-0.020864053 -0.019849537 0.018495118 0.028966958 -0.14839533 -0.054776374 -0.049921542 0.010972118
